module {
  oneflow.job @ResnetGraph_0(%arg0: tensor<16x3x224x224xf32>) -> tensor<16x1000xf32> {
    %output = "oneflow.variable"() {data_type = 2 : i32, device_name = ["@0:0"], device_tag = "cpu", hierarchy = [1], nd_sbp = ["B"], op_name = "FreeEagerTensor-1", output_lbns = ["FreeEagerTensor-1/out"], scope_symbol_id = 4611686018427416575 : i64, shape = [64 : si64, 3 : si64, 7 : si64, 7 : si64], trainable = false} : () -> tensor<64x3x7x7xf32>
    %output_0 = "oneflow.variable"() {data_type = 2 : i32, device_name = ["@0:0"], device_tag = "cpu", hierarchy = [1], nd_sbp = ["B"], op_name = "FreeEagerTensor-3", output_lbns = ["FreeEagerTensor-3/out"], scope_symbol_id = 4611686018427416575 : i64, shape = [64 : si64], trainable = false} : () -> tensor<64xf32>
    %output_1 = "oneflow.variable"() {data_type = 2 : i32, device_name = ["@0:0"], device_tag = "cpu", hierarchy = [1], nd_sbp = ["B"], op_name = "FreeEagerTensor-4", output_lbns = ["FreeEagerTensor-4/out"], scope_symbol_id = 4611686018427416575 : i64, shape = [64 : si64], trainable = false} : () -> tensor<64xf32>
    %output_2 = "oneflow.variable"() {data_type = 2 : i32, device_name = ["@0:0"], device_tag = "cpu", hierarchy = [1], nd_sbp = ["B"], op_name = "FreeEagerTensor-5", output_lbns = ["FreeEagerTensor-5/out"], scope_symbol_id = 4611686018427416575 : i64, shape = [64 : si64], trainable = false} : () -> tensor<64xf32>
    %output_3 = "oneflow.variable"() {data_type = 2 : i32, device_name = ["@0:0"], device_tag = "cpu", hierarchy = [1], nd_sbp = ["B"], op_name = "FreeEagerTensor-6", output_lbns = ["FreeEagerTensor-6/out"], scope_symbol_id = 4611686018427416575 : i64, shape = [64 : si64], trainable = false} : () -> tensor<64xf32>
    %output_4 = "oneflow.variable"() {data_type = 2 : i32, device_name = ["@0:0"], device_tag = "cpu", hierarchy = [1], nd_sbp = ["B"], op_name = "FreeEagerTensor-10", output_lbns = ["FreeEagerTensor-10/out"], scope_symbol_id = 4611686018427416575 : i64, shape = [64 : si64, 64 : si64, 1 : si64, 1 : si64], trainable = false} : () -> tensor<64x64x1x1xf32>
    %output_5 = "oneflow.variable"() {data_type = 2 : i32, device_name = ["@0:0"], device_tag = "cpu", hierarchy = [1], nd_sbp = ["B"], op_name = "FreeEagerTensor-12", output_lbns = ["FreeEagerTensor-12/out"], scope_symbol_id = 4611686018427416575 : i64, shape = [64 : si64], trainable = false} : () -> tensor<64xf32>
    %output_6 = "oneflow.variable"() {data_type = 2 : i32, device_name = ["@0:0"], device_tag = "cpu", hierarchy = [1], nd_sbp = ["B"], op_name = "FreeEagerTensor-13", output_lbns = ["FreeEagerTensor-13/out"], scope_symbol_id = 4611686018427416575 : i64, shape = [64 : si64], trainable = false} : () -> tensor<64xf32>
    %output_7 = "oneflow.variable"() {data_type = 2 : i32, device_name = ["@0:0"], device_tag = "cpu", hierarchy = [1], nd_sbp = ["B"], op_name = "FreeEagerTensor-14", output_lbns = ["FreeEagerTensor-14/out"], scope_symbol_id = 4611686018427416575 : i64, shape = [64 : si64], trainable = false} : () -> tensor<64xf32>
    %output_8 = "oneflow.variable"() {data_type = 2 : i32, device_name = ["@0:0"], device_tag = "cpu", hierarchy = [1], nd_sbp = ["B"], op_name = "FreeEagerTensor-15", output_lbns = ["FreeEagerTensor-15/out"], scope_symbol_id = 4611686018427416575 : i64, shape = [64 : si64], trainable = false} : () -> tensor<64xf32>
    %output_9 = "oneflow.variable"() {data_type = 2 : i32, device_name = ["@0:0"], device_tag = "cpu", hierarchy = [1], nd_sbp = ["B"], op_name = "FreeEagerTensor-18", output_lbns = ["FreeEagerTensor-18/out"], scope_symbol_id = 4611686018427416575 : i64, shape = [64 : si64, 64 : si64, 3 : si64, 3 : si64], trainable = false} : () -> tensor<64x64x3x3xf32>
    %output_10 = "oneflow.variable"() {data_type = 2 : i32, device_name = ["@0:0"], device_tag = "cpu", hierarchy = [1], nd_sbp = ["B"], op_name = "FreeEagerTensor-20", output_lbns = ["FreeEagerTensor-20/out"], scope_symbol_id = 4611686018427416575 : i64, shape = [64 : si64], trainable = false} : () -> tensor<64xf32>
    %output_11 = "oneflow.variable"() {data_type = 2 : i32, device_name = ["@0:0"], device_tag = "cpu", hierarchy = [1], nd_sbp = ["B"], op_name = "FreeEagerTensor-21", output_lbns = ["FreeEagerTensor-21/out"], scope_symbol_id = 4611686018427416575 : i64, shape = [64 : si64], trainable = false} : () -> tensor<64xf32>
    %output_12 = "oneflow.variable"() {data_type = 2 : i32, device_name = ["@0:0"], device_tag = "cpu", hierarchy = [1], nd_sbp = ["B"], op_name = "FreeEagerTensor-22", output_lbns = ["FreeEagerTensor-22/out"], scope_symbol_id = 4611686018427416575 : i64, shape = [64 : si64], trainable = false} : () -> tensor<64xf32>
    %output_13 = "oneflow.variable"() {data_type = 2 : i32, device_name = ["@0:0"], device_tag = "cpu", hierarchy = [1], nd_sbp = ["B"], op_name = "FreeEagerTensor-23", output_lbns = ["FreeEagerTensor-23/out"], scope_symbol_id = 4611686018427416575 : i64, shape = [64 : si64], trainable = false} : () -> tensor<64xf32>
    %output_14 = "oneflow.variable"() {data_type = 2 : i32, device_name = ["@0:0"], device_tag = "cpu", hierarchy = [1], nd_sbp = ["B"], op_name = "FreeEagerTensor-26", output_lbns = ["FreeEagerTensor-26/out"], scope_symbol_id = 4611686018427416575 : i64, shape = [256 : si64, 64 : si64, 1 : si64, 1 : si64], trainable = false} : () -> tensor<256x64x1x1xf32>
    %output_15 = "oneflow.variable"() {data_type = 2 : i32, device_name = ["@0:0"], device_tag = "cpu", hierarchy = [1], nd_sbp = ["B"], op_name = "FreeEagerTensor-28", output_lbns = ["FreeEagerTensor-28/out"], scope_symbol_id = 4611686018427416575 : i64, shape = [256 : si64], trainable = false} : () -> tensor<256xf32>
    %output_16 = "oneflow.variable"() {data_type = 2 : i32, device_name = ["@0:0"], device_tag = "cpu", hierarchy = [1], nd_sbp = ["B"], op_name = "FreeEagerTensor-29", output_lbns = ["FreeEagerTensor-29/out"], scope_symbol_id = 4611686018427416575 : i64, shape = [256 : si64], trainable = false} : () -> tensor<256xf32>
    %output_17 = "oneflow.variable"() {data_type = 2 : i32, device_name = ["@0:0"], device_tag = "cpu", hierarchy = [1], nd_sbp = ["B"], op_name = "FreeEagerTensor-30", output_lbns = ["FreeEagerTensor-30/out"], scope_symbol_id = 4611686018427416575 : i64, shape = [256 : si64], trainable = false} : () -> tensor<256xf32>
    %output_18 = "oneflow.variable"() {data_type = 2 : i32, device_name = ["@0:0"], device_tag = "cpu", hierarchy = [1], nd_sbp = ["B"], op_name = "FreeEagerTensor-31", output_lbns = ["FreeEagerTensor-31/out"], scope_symbol_id = 4611686018427416575 : i64, shape = [256 : si64], trainable = false} : () -> tensor<256xf32>
    %output_19 = "oneflow.variable"() {data_type = 2 : i32, device_name = ["@0:0"], device_tag = "cpu", hierarchy = [1], nd_sbp = ["B"], op_name = "FreeEagerTensor-33", output_lbns = ["FreeEagerTensor-33/out"], scope_symbol_id = 4611686018427416575 : i64, shape = [256 : si64, 64 : si64, 1 : si64, 1 : si64], trainable = false} : () -> tensor<256x64x1x1xf32>
    %output_20 = "oneflow.variable"() {data_type = 2 : i32, device_name = ["@0:0"], device_tag = "cpu", hierarchy = [1], nd_sbp = ["B"], op_name = "FreeEagerTensor-35", output_lbns = ["FreeEagerTensor-35/out"], scope_symbol_id = 4611686018427416575 : i64, shape = [256 : si64], trainable = false} : () -> tensor<256xf32>
    %output_21 = "oneflow.variable"() {data_type = 2 : i32, device_name = ["@0:0"], device_tag = "cpu", hierarchy = [1], nd_sbp = ["B"], op_name = "FreeEagerTensor-36", output_lbns = ["FreeEagerTensor-36/out"], scope_symbol_id = 4611686018427416575 : i64, shape = [256 : si64], trainable = false} : () -> tensor<256xf32>
    %output_22 = "oneflow.variable"() {data_type = 2 : i32, device_name = ["@0:0"], device_tag = "cpu", hierarchy = [1], nd_sbp = ["B"], op_name = "FreeEagerTensor-37", output_lbns = ["FreeEagerTensor-37/out"], scope_symbol_id = 4611686018427416575 : i64, shape = [256 : si64], trainable = false} : () -> tensor<256xf32>
    %output_23 = "oneflow.variable"() {data_type = 2 : i32, device_name = ["@0:0"], device_tag = "cpu", hierarchy = [1], nd_sbp = ["B"], op_name = "FreeEagerTensor-38", output_lbns = ["FreeEagerTensor-38/out"], scope_symbol_id = 4611686018427416575 : i64, shape = [256 : si64], trainable = false} : () -> tensor<256xf32>
    %output_24 = "oneflow.variable"() {data_type = 2 : i32, device_name = ["@0:0"], device_tag = "cpu", hierarchy = [1], nd_sbp = ["B"], op_name = "FreeEagerTensor-42", output_lbns = ["FreeEagerTensor-42/out"], scope_symbol_id = 4611686018427416575 : i64, shape = [64 : si64, 256 : si64, 1 : si64, 1 : si64], trainable = false} : () -> tensor<64x256x1x1xf32>
    %output_25 = "oneflow.variable"() {data_type = 2 : i32, device_name = ["@0:0"], device_tag = "cpu", hierarchy = [1], nd_sbp = ["B"], op_name = "FreeEagerTensor-44", output_lbns = ["FreeEagerTensor-44/out"], scope_symbol_id = 4611686018427416575 : i64, shape = [64 : si64], trainable = false} : () -> tensor<64xf32>
    %output_26 = "oneflow.variable"() {data_type = 2 : i32, device_name = ["@0:0"], device_tag = "cpu", hierarchy = [1], nd_sbp = ["B"], op_name = "FreeEagerTensor-45", output_lbns = ["FreeEagerTensor-45/out"], scope_symbol_id = 4611686018427416575 : i64, shape = [64 : si64], trainable = false} : () -> tensor<64xf32>
    %output_27 = "oneflow.variable"() {data_type = 2 : i32, device_name = ["@0:0"], device_tag = "cpu", hierarchy = [1], nd_sbp = ["B"], op_name = "FreeEagerTensor-46", output_lbns = ["FreeEagerTensor-46/out"], scope_symbol_id = 4611686018427416575 : i64, shape = [64 : si64], trainable = false} : () -> tensor<64xf32>
    %output_28 = "oneflow.variable"() {data_type = 2 : i32, device_name = ["@0:0"], device_tag = "cpu", hierarchy = [1], nd_sbp = ["B"], op_name = "FreeEagerTensor-47", output_lbns = ["FreeEagerTensor-47/out"], scope_symbol_id = 4611686018427416575 : i64, shape = [64 : si64], trainable = false} : () -> tensor<64xf32>
    %output_29 = "oneflow.variable"() {data_type = 2 : i32, device_name = ["@0:0"], device_tag = "cpu", hierarchy = [1], nd_sbp = ["B"], op_name = "FreeEagerTensor-50", output_lbns = ["FreeEagerTensor-50/out"], scope_symbol_id = 4611686018427416575 : i64, shape = [64 : si64, 64 : si64, 3 : si64, 3 : si64], trainable = false} : () -> tensor<64x64x3x3xf32>
    %output_30 = "oneflow.variable"() {data_type = 2 : i32, device_name = ["@0:0"], device_tag = "cpu", hierarchy = [1], nd_sbp = ["B"], op_name = "FreeEagerTensor-52", output_lbns = ["FreeEagerTensor-52/out"], scope_symbol_id = 4611686018427416575 : i64, shape = [64 : si64], trainable = false} : () -> tensor<64xf32>
    %output_31 = "oneflow.variable"() {data_type = 2 : i32, device_name = ["@0:0"], device_tag = "cpu", hierarchy = [1], nd_sbp = ["B"], op_name = "FreeEagerTensor-53", output_lbns = ["FreeEagerTensor-53/out"], scope_symbol_id = 4611686018427416575 : i64, shape = [64 : si64], trainable = false} : () -> tensor<64xf32>
    %output_32 = "oneflow.variable"() {data_type = 2 : i32, device_name = ["@0:0"], device_tag = "cpu", hierarchy = [1], nd_sbp = ["B"], op_name = "FreeEagerTensor-54", output_lbns = ["FreeEagerTensor-54/out"], scope_symbol_id = 4611686018427416575 : i64, shape = [64 : si64], trainable = false} : () -> tensor<64xf32>
    %output_33 = "oneflow.variable"() {data_type = 2 : i32, device_name = ["@0:0"], device_tag = "cpu", hierarchy = [1], nd_sbp = ["B"], op_name = "FreeEagerTensor-55", output_lbns = ["FreeEagerTensor-55/out"], scope_symbol_id = 4611686018427416575 : i64, shape = [64 : si64], trainable = false} : () -> tensor<64xf32>
    %output_34 = "oneflow.variable"() {data_type = 2 : i32, device_name = ["@0:0"], device_tag = "cpu", hierarchy = [1], nd_sbp = ["B"], op_name = "FreeEagerTensor-58", output_lbns = ["FreeEagerTensor-58/out"], scope_symbol_id = 4611686018427416575 : i64, shape = [256 : si64, 64 : si64, 1 : si64, 1 : si64], trainable = false} : () -> tensor<256x64x1x1xf32>
    %output_35 = "oneflow.variable"() {data_type = 2 : i32, device_name = ["@0:0"], device_tag = "cpu", hierarchy = [1], nd_sbp = ["B"], op_name = "FreeEagerTensor-60", output_lbns = ["FreeEagerTensor-60/out"], scope_symbol_id = 4611686018427416575 : i64, shape = [256 : si64], trainable = false} : () -> tensor<256xf32>
    %output_36 = "oneflow.variable"() {data_type = 2 : i32, device_name = ["@0:0"], device_tag = "cpu", hierarchy = [1], nd_sbp = ["B"], op_name = "FreeEagerTensor-61", output_lbns = ["FreeEagerTensor-61/out"], scope_symbol_id = 4611686018427416575 : i64, shape = [256 : si64], trainable = false} : () -> tensor<256xf32>
    %output_37 = "oneflow.variable"() {data_type = 2 : i32, device_name = ["@0:0"], device_tag = "cpu", hierarchy = [1], nd_sbp = ["B"], op_name = "FreeEagerTensor-62", output_lbns = ["FreeEagerTensor-62/out"], scope_symbol_id = 4611686018427416575 : i64, shape = [256 : si64], trainable = false} : () -> tensor<256xf32>
    %output_38 = "oneflow.variable"() {data_type = 2 : i32, device_name = ["@0:0"], device_tag = "cpu", hierarchy = [1], nd_sbp = ["B"], op_name = "FreeEagerTensor-63", output_lbns = ["FreeEagerTensor-63/out"], scope_symbol_id = 4611686018427416575 : i64, shape = [256 : si64], trainable = false} : () -> tensor<256xf32>
    %output_39 = "oneflow.variable"() {data_type = 2 : i32, device_name = ["@0:0"], device_tag = "cpu", hierarchy = [1], nd_sbp = ["B"], op_name = "FreeEagerTensor-67", output_lbns = ["FreeEagerTensor-67/out"], scope_symbol_id = 4611686018427416575 : i64, shape = [64 : si64, 256 : si64, 1 : si64, 1 : si64], trainable = false} : () -> tensor<64x256x1x1xf32>
    %output_40 = "oneflow.variable"() {data_type = 2 : i32, device_name = ["@0:0"], device_tag = "cpu", hierarchy = [1], nd_sbp = ["B"], op_name = "FreeEagerTensor-69", output_lbns = ["FreeEagerTensor-69/out"], scope_symbol_id = 4611686018427416575 : i64, shape = [64 : si64], trainable = false} : () -> tensor<64xf32>
    %output_41 = "oneflow.variable"() {data_type = 2 : i32, device_name = ["@0:0"], device_tag = "cpu", hierarchy = [1], nd_sbp = ["B"], op_name = "FreeEagerTensor-70", output_lbns = ["FreeEagerTensor-70/out"], scope_symbol_id = 4611686018427416575 : i64, shape = [64 : si64], trainable = false} : () -> tensor<64xf32>
    %output_42 = "oneflow.variable"() {data_type = 2 : i32, device_name = ["@0:0"], device_tag = "cpu", hierarchy = [1], nd_sbp = ["B"], op_name = "FreeEagerTensor-71", output_lbns = ["FreeEagerTensor-71/out"], scope_symbol_id = 4611686018427416575 : i64, shape = [64 : si64], trainable = false} : () -> tensor<64xf32>
    %output_43 = "oneflow.variable"() {data_type = 2 : i32, device_name = ["@0:0"], device_tag = "cpu", hierarchy = [1], nd_sbp = ["B"], op_name = "FreeEagerTensor-72", output_lbns = ["FreeEagerTensor-72/out"], scope_symbol_id = 4611686018427416575 : i64, shape = [64 : si64], trainable = false} : () -> tensor<64xf32>
    %output_44 = "oneflow.variable"() {data_type = 2 : i32, device_name = ["@0:0"], device_tag = "cpu", hierarchy = [1], nd_sbp = ["B"], op_name = "FreeEagerTensor-75", output_lbns = ["FreeEagerTensor-75/out"], scope_symbol_id = 4611686018427416575 : i64, shape = [64 : si64, 64 : si64, 3 : si64, 3 : si64], trainable = false} : () -> tensor<64x64x3x3xf32>
    %output_45 = "oneflow.variable"() {data_type = 2 : i32, device_name = ["@0:0"], device_tag = "cpu", hierarchy = [1], nd_sbp = ["B"], op_name = "FreeEagerTensor-77", output_lbns = ["FreeEagerTensor-77/out"], scope_symbol_id = 4611686018427416575 : i64, shape = [64 : si64], trainable = false} : () -> tensor<64xf32>
    %output_46 = "oneflow.variable"() {data_type = 2 : i32, device_name = ["@0:0"], device_tag = "cpu", hierarchy = [1], nd_sbp = ["B"], op_name = "FreeEagerTensor-78", output_lbns = ["FreeEagerTensor-78/out"], scope_symbol_id = 4611686018427416575 : i64, shape = [64 : si64], trainable = false} : () -> tensor<64xf32>
    %output_47 = "oneflow.variable"() {data_type = 2 : i32, device_name = ["@0:0"], device_tag = "cpu", hierarchy = [1], nd_sbp = ["B"], op_name = "FreeEagerTensor-79", output_lbns = ["FreeEagerTensor-79/out"], scope_symbol_id = 4611686018427416575 : i64, shape = [64 : si64], trainable = false} : () -> tensor<64xf32>
    %output_48 = "oneflow.variable"() {data_type = 2 : i32, device_name = ["@0:0"], device_tag = "cpu", hierarchy = [1], nd_sbp = ["B"], op_name = "FreeEagerTensor-80", output_lbns = ["FreeEagerTensor-80/out"], scope_symbol_id = 4611686018427416575 : i64, shape = [64 : si64], trainable = false} : () -> tensor<64xf32>
    %output_49 = "oneflow.variable"() {data_type = 2 : i32, device_name = ["@0:0"], device_tag = "cpu", hierarchy = [1], nd_sbp = ["B"], op_name = "FreeEagerTensor-83", output_lbns = ["FreeEagerTensor-83/out"], scope_symbol_id = 4611686018427416575 : i64, shape = [256 : si64, 64 : si64, 1 : si64, 1 : si64], trainable = false} : () -> tensor<256x64x1x1xf32>
    %output_50 = "oneflow.variable"() {data_type = 2 : i32, device_name = ["@0:0"], device_tag = "cpu", hierarchy = [1], nd_sbp = ["B"], op_name = "FreeEagerTensor-85", output_lbns = ["FreeEagerTensor-85/out"], scope_symbol_id = 4611686018427416575 : i64, shape = [256 : si64], trainable = false} : () -> tensor<256xf32>
    %output_51 = "oneflow.variable"() {data_type = 2 : i32, device_name = ["@0:0"], device_tag = "cpu", hierarchy = [1], nd_sbp = ["B"], op_name = "FreeEagerTensor-86", output_lbns = ["FreeEagerTensor-86/out"], scope_symbol_id = 4611686018427416575 : i64, shape = [256 : si64], trainable = false} : () -> tensor<256xf32>
    %output_52 = "oneflow.variable"() {data_type = 2 : i32, device_name = ["@0:0"], device_tag = "cpu", hierarchy = [1], nd_sbp = ["B"], op_name = "FreeEagerTensor-87", output_lbns = ["FreeEagerTensor-87/out"], scope_symbol_id = 4611686018427416575 : i64, shape = [256 : si64], trainable = false} : () -> tensor<256xf32>
    %output_53 = "oneflow.variable"() {data_type = 2 : i32, device_name = ["@0:0"], device_tag = "cpu", hierarchy = [1], nd_sbp = ["B"], op_name = "FreeEagerTensor-88", output_lbns = ["FreeEagerTensor-88/out"], scope_symbol_id = 4611686018427416575 : i64, shape = [256 : si64], trainable = false} : () -> tensor<256xf32>
    %output_54 = "oneflow.variable"() {data_type = 2 : i32, device_name = ["@0:0"], device_tag = "cpu", hierarchy = [1], nd_sbp = ["B"], op_name = "FreeEagerTensor-92", output_lbns = ["FreeEagerTensor-92/out"], scope_symbol_id = 4611686018427416575 : i64, shape = [128 : si64, 256 : si64, 1 : si64, 1 : si64], trainable = false} : () -> tensor<128x256x1x1xf32>
    %output_55 = "oneflow.variable"() {data_type = 2 : i32, device_name = ["@0:0"], device_tag = "cpu", hierarchy = [1], nd_sbp = ["B"], op_name = "FreeEagerTensor-94", output_lbns = ["FreeEagerTensor-94/out"], scope_symbol_id = 4611686018427416575 : i64, shape = [128 : si64], trainable = false} : () -> tensor<128xf32>
    %output_56 = "oneflow.variable"() {data_type = 2 : i32, device_name = ["@0:0"], device_tag = "cpu", hierarchy = [1], nd_sbp = ["B"], op_name = "FreeEagerTensor-95", output_lbns = ["FreeEagerTensor-95/out"], scope_symbol_id = 4611686018427416575 : i64, shape = [128 : si64], trainable = false} : () -> tensor<128xf32>
    %output_57 = "oneflow.variable"() {data_type = 2 : i32, device_name = ["@0:0"], device_tag = "cpu", hierarchy = [1], nd_sbp = ["B"], op_name = "FreeEagerTensor-96", output_lbns = ["FreeEagerTensor-96/out"], scope_symbol_id = 4611686018427416575 : i64, shape = [128 : si64], trainable = false} : () -> tensor<128xf32>
    %output_58 = "oneflow.variable"() {data_type = 2 : i32, device_name = ["@0:0"], device_tag = "cpu", hierarchy = [1], nd_sbp = ["B"], op_name = "FreeEagerTensor-97", output_lbns = ["FreeEagerTensor-97/out"], scope_symbol_id = 4611686018427416575 : i64, shape = [128 : si64], trainable = false} : () -> tensor<128xf32>
    %output_59 = "oneflow.variable"() {data_type = 2 : i32, device_name = ["@0:0"], device_tag = "cpu", hierarchy = [1], nd_sbp = ["B"], op_name = "FreeEagerTensor-100", output_lbns = ["FreeEagerTensor-100/out"], scope_symbol_id = 4611686018427416575 : i64, shape = [128 : si64, 128 : si64, 3 : si64, 3 : si64], trainable = false} : () -> tensor<128x128x3x3xf32>
    %output_60 = "oneflow.variable"() {data_type = 2 : i32, device_name = ["@0:0"], device_tag = "cpu", hierarchy = [1], nd_sbp = ["B"], op_name = "FreeEagerTensor-102", output_lbns = ["FreeEagerTensor-102/out"], scope_symbol_id = 4611686018427416575 : i64, shape = [128 : si64], trainable = false} : () -> tensor<128xf32>
    %output_61 = "oneflow.variable"() {data_type = 2 : i32, device_name = ["@0:0"], device_tag = "cpu", hierarchy = [1], nd_sbp = ["B"], op_name = "FreeEagerTensor-103", output_lbns = ["FreeEagerTensor-103/out"], scope_symbol_id = 4611686018427416575 : i64, shape = [128 : si64], trainable = false} : () -> tensor<128xf32>
    %output_62 = "oneflow.variable"() {data_type = 2 : i32, device_name = ["@0:0"], device_tag = "cpu", hierarchy = [1], nd_sbp = ["B"], op_name = "FreeEagerTensor-104", output_lbns = ["FreeEagerTensor-104/out"], scope_symbol_id = 4611686018427416575 : i64, shape = [128 : si64], trainable = false} : () -> tensor<128xf32>
    %output_63 = "oneflow.variable"() {data_type = 2 : i32, device_name = ["@0:0"], device_tag = "cpu", hierarchy = [1], nd_sbp = ["B"], op_name = "FreeEagerTensor-105", output_lbns = ["FreeEagerTensor-105/out"], scope_symbol_id = 4611686018427416575 : i64, shape = [128 : si64], trainable = false} : () -> tensor<128xf32>
    %output_64 = "oneflow.variable"() {data_type = 2 : i32, device_name = ["@0:0"], device_tag = "cpu", hierarchy = [1], nd_sbp = ["B"], op_name = "FreeEagerTensor-108", output_lbns = ["FreeEagerTensor-108/out"], scope_symbol_id = 4611686018427416575 : i64, shape = [512 : si64, 128 : si64, 1 : si64, 1 : si64], trainable = false} : () -> tensor<512x128x1x1xf32>
    %output_65 = "oneflow.variable"() {data_type = 2 : i32, device_name = ["@0:0"], device_tag = "cpu", hierarchy = [1], nd_sbp = ["B"], op_name = "FreeEagerTensor-110", output_lbns = ["FreeEagerTensor-110/out"], scope_symbol_id = 4611686018427416575 : i64, shape = [512 : si64], trainable = false} : () -> tensor<512xf32>
    %output_66 = "oneflow.variable"() {data_type = 2 : i32, device_name = ["@0:0"], device_tag = "cpu", hierarchy = [1], nd_sbp = ["B"], op_name = "FreeEagerTensor-111", output_lbns = ["FreeEagerTensor-111/out"], scope_symbol_id = 4611686018427416575 : i64, shape = [512 : si64], trainable = false} : () -> tensor<512xf32>
    %output_67 = "oneflow.variable"() {data_type = 2 : i32, device_name = ["@0:0"], device_tag = "cpu", hierarchy = [1], nd_sbp = ["B"], op_name = "FreeEagerTensor-112", output_lbns = ["FreeEagerTensor-112/out"], scope_symbol_id = 4611686018427416575 : i64, shape = [512 : si64], trainable = false} : () -> tensor<512xf32>
    %output_68 = "oneflow.variable"() {data_type = 2 : i32, device_name = ["@0:0"], device_tag = "cpu", hierarchy = [1], nd_sbp = ["B"], op_name = "FreeEagerTensor-113", output_lbns = ["FreeEagerTensor-113/out"], scope_symbol_id = 4611686018427416575 : i64, shape = [512 : si64], trainable = false} : () -> tensor<512xf32>
    %output_69 = "oneflow.variable"() {data_type = 2 : i32, device_name = ["@0:0"], device_tag = "cpu", hierarchy = [1], nd_sbp = ["B"], op_name = "FreeEagerTensor-115", output_lbns = ["FreeEagerTensor-115/out"], scope_symbol_id = 4611686018427416575 : i64, shape = [512 : si64, 256 : si64, 1 : si64, 1 : si64], trainable = false} : () -> tensor<512x256x1x1xf32>
    %output_70 = "oneflow.variable"() {data_type = 2 : i32, device_name = ["@0:0"], device_tag = "cpu", hierarchy = [1], nd_sbp = ["B"], op_name = "FreeEagerTensor-117", output_lbns = ["FreeEagerTensor-117/out"], scope_symbol_id = 4611686018427416575 : i64, shape = [512 : si64], trainable = false} : () -> tensor<512xf32>
    %output_71 = "oneflow.variable"() {data_type = 2 : i32, device_name = ["@0:0"], device_tag = "cpu", hierarchy = [1], nd_sbp = ["B"], op_name = "FreeEagerTensor-118", output_lbns = ["FreeEagerTensor-118/out"], scope_symbol_id = 4611686018427416575 : i64, shape = [512 : si64], trainable = false} : () -> tensor<512xf32>
    %output_72 = "oneflow.variable"() {data_type = 2 : i32, device_name = ["@0:0"], device_tag = "cpu", hierarchy = [1], nd_sbp = ["B"], op_name = "FreeEagerTensor-119", output_lbns = ["FreeEagerTensor-119/out"], scope_symbol_id = 4611686018427416575 : i64, shape = [512 : si64], trainable = false} : () -> tensor<512xf32>
    %output_73 = "oneflow.variable"() {data_type = 2 : i32, device_name = ["@0:0"], device_tag = "cpu", hierarchy = [1], nd_sbp = ["B"], op_name = "FreeEagerTensor-120", output_lbns = ["FreeEagerTensor-120/out"], scope_symbol_id = 4611686018427416575 : i64, shape = [512 : si64], trainable = false} : () -> tensor<512xf32>
    %output_74 = "oneflow.variable"() {data_type = 2 : i32, device_name = ["@0:0"], device_tag = "cpu", hierarchy = [1], nd_sbp = ["B"], op_name = "FreeEagerTensor-124", output_lbns = ["FreeEagerTensor-124/out"], scope_symbol_id = 4611686018427416575 : i64, shape = [128 : si64, 512 : si64, 1 : si64, 1 : si64], trainable = false} : () -> tensor<128x512x1x1xf32>
    %output_75 = "oneflow.variable"() {data_type = 2 : i32, device_name = ["@0:0"], device_tag = "cpu", hierarchy = [1], nd_sbp = ["B"], op_name = "FreeEagerTensor-126", output_lbns = ["FreeEagerTensor-126/out"], scope_symbol_id = 4611686018427416575 : i64, shape = [128 : si64], trainable = false} : () -> tensor<128xf32>
    %output_76 = "oneflow.variable"() {data_type = 2 : i32, device_name = ["@0:0"], device_tag = "cpu", hierarchy = [1], nd_sbp = ["B"], op_name = "FreeEagerTensor-127", output_lbns = ["FreeEagerTensor-127/out"], scope_symbol_id = 4611686018427416575 : i64, shape = [128 : si64], trainable = false} : () -> tensor<128xf32>
    %output_77 = "oneflow.variable"() {data_type = 2 : i32, device_name = ["@0:0"], device_tag = "cpu", hierarchy = [1], nd_sbp = ["B"], op_name = "FreeEagerTensor-128", output_lbns = ["FreeEagerTensor-128/out"], scope_symbol_id = 4611686018427416575 : i64, shape = [128 : si64], trainable = false} : () -> tensor<128xf32>
    %output_78 = "oneflow.variable"() {data_type = 2 : i32, device_name = ["@0:0"], device_tag = "cpu", hierarchy = [1], nd_sbp = ["B"], op_name = "FreeEagerTensor-129", output_lbns = ["FreeEagerTensor-129/out"], scope_symbol_id = 4611686018427416575 : i64, shape = [128 : si64], trainable = false} : () -> tensor<128xf32>
    %output_79 = "oneflow.variable"() {data_type = 2 : i32, device_name = ["@0:0"], device_tag = "cpu", hierarchy = [1], nd_sbp = ["B"], op_name = "FreeEagerTensor-132", output_lbns = ["FreeEagerTensor-132/out"], scope_symbol_id = 4611686018427416575 : i64, shape = [128 : si64, 128 : si64, 3 : si64, 3 : si64], trainable = false} : () -> tensor<128x128x3x3xf32>
    %output_80 = "oneflow.variable"() {data_type = 2 : i32, device_name = ["@0:0"], device_tag = "cpu", hierarchy = [1], nd_sbp = ["B"], op_name = "FreeEagerTensor-134", output_lbns = ["FreeEagerTensor-134/out"], scope_symbol_id = 4611686018427416575 : i64, shape = [128 : si64], trainable = false} : () -> tensor<128xf32>
    %output_81 = "oneflow.variable"() {data_type = 2 : i32, device_name = ["@0:0"], device_tag = "cpu", hierarchy = [1], nd_sbp = ["B"], op_name = "FreeEagerTensor-135", output_lbns = ["FreeEagerTensor-135/out"], scope_symbol_id = 4611686018427416575 : i64, shape = [128 : si64], trainable = false} : () -> tensor<128xf32>
    %output_82 = "oneflow.variable"() {data_type = 2 : i32, device_name = ["@0:0"], device_tag = "cpu", hierarchy = [1], nd_sbp = ["B"], op_name = "FreeEagerTensor-136", output_lbns = ["FreeEagerTensor-136/out"], scope_symbol_id = 4611686018427416575 : i64, shape = [128 : si64], trainable = false} : () -> tensor<128xf32>
    %output_83 = "oneflow.variable"() {data_type = 2 : i32, device_name = ["@0:0"], device_tag = "cpu", hierarchy = [1], nd_sbp = ["B"], op_name = "FreeEagerTensor-137", output_lbns = ["FreeEagerTensor-137/out"], scope_symbol_id = 4611686018427416575 : i64, shape = [128 : si64], trainable = false} : () -> tensor<128xf32>
    %output_84 = "oneflow.variable"() {data_type = 2 : i32, device_name = ["@0:0"], device_tag = "cpu", hierarchy = [1], nd_sbp = ["B"], op_name = "FreeEagerTensor-140", output_lbns = ["FreeEagerTensor-140/out"], scope_symbol_id = 4611686018427416575 : i64, shape = [512 : si64, 128 : si64, 1 : si64, 1 : si64], trainable = false} : () -> tensor<512x128x1x1xf32>
    %output_85 = "oneflow.variable"() {data_type = 2 : i32, device_name = ["@0:0"], device_tag = "cpu", hierarchy = [1], nd_sbp = ["B"], op_name = "FreeEagerTensor-142", output_lbns = ["FreeEagerTensor-142/out"], scope_symbol_id = 4611686018427416575 : i64, shape = [512 : si64], trainable = false} : () -> tensor<512xf32>
    %output_86 = "oneflow.variable"() {data_type = 2 : i32, device_name = ["@0:0"], device_tag = "cpu", hierarchy = [1], nd_sbp = ["B"], op_name = "FreeEagerTensor-143", output_lbns = ["FreeEagerTensor-143/out"], scope_symbol_id = 4611686018427416575 : i64, shape = [512 : si64], trainable = false} : () -> tensor<512xf32>
    %output_87 = "oneflow.variable"() {data_type = 2 : i32, device_name = ["@0:0"], device_tag = "cpu", hierarchy = [1], nd_sbp = ["B"], op_name = "FreeEagerTensor-144", output_lbns = ["FreeEagerTensor-144/out"], scope_symbol_id = 4611686018427416575 : i64, shape = [512 : si64], trainable = false} : () -> tensor<512xf32>
    %output_88 = "oneflow.variable"() {data_type = 2 : i32, device_name = ["@0:0"], device_tag = "cpu", hierarchy = [1], nd_sbp = ["B"], op_name = "FreeEagerTensor-145", output_lbns = ["FreeEagerTensor-145/out"], scope_symbol_id = 4611686018427416575 : i64, shape = [512 : si64], trainable = false} : () -> tensor<512xf32>
    %output_89 = "oneflow.variable"() {data_type = 2 : i32, device_name = ["@0:0"], device_tag = "cpu", hierarchy = [1], nd_sbp = ["B"], op_name = "FreeEagerTensor-149", output_lbns = ["FreeEagerTensor-149/out"], scope_symbol_id = 4611686018427416575 : i64, shape = [128 : si64, 512 : si64, 1 : si64, 1 : si64], trainable = false} : () -> tensor<128x512x1x1xf32>
    %output_90 = "oneflow.variable"() {data_type = 2 : i32, device_name = ["@0:0"], device_tag = "cpu", hierarchy = [1], nd_sbp = ["B"], op_name = "FreeEagerTensor-151", output_lbns = ["FreeEagerTensor-151/out"], scope_symbol_id = 4611686018427416575 : i64, shape = [128 : si64], trainable = false} : () -> tensor<128xf32>
    %output_91 = "oneflow.variable"() {data_type = 2 : i32, device_name = ["@0:0"], device_tag = "cpu", hierarchy = [1], nd_sbp = ["B"], op_name = "FreeEagerTensor-152", output_lbns = ["FreeEagerTensor-152/out"], scope_symbol_id = 4611686018427416575 : i64, shape = [128 : si64], trainable = false} : () -> tensor<128xf32>
    %output_92 = "oneflow.variable"() {data_type = 2 : i32, device_name = ["@0:0"], device_tag = "cpu", hierarchy = [1], nd_sbp = ["B"], op_name = "FreeEagerTensor-153", output_lbns = ["FreeEagerTensor-153/out"], scope_symbol_id = 4611686018427416575 : i64, shape = [128 : si64], trainable = false} : () -> tensor<128xf32>
    %output_93 = "oneflow.variable"() {data_type = 2 : i32, device_name = ["@0:0"], device_tag = "cpu", hierarchy = [1], nd_sbp = ["B"], op_name = "FreeEagerTensor-154", output_lbns = ["FreeEagerTensor-154/out"], scope_symbol_id = 4611686018427416575 : i64, shape = [128 : si64], trainable = false} : () -> tensor<128xf32>
    %output_94 = "oneflow.variable"() {data_type = 2 : i32, device_name = ["@0:0"], device_tag = "cpu", hierarchy = [1], nd_sbp = ["B"], op_name = "FreeEagerTensor-157", output_lbns = ["FreeEagerTensor-157/out"], scope_symbol_id = 4611686018427416575 : i64, shape = [128 : si64, 128 : si64, 3 : si64, 3 : si64], trainable = false} : () -> tensor<128x128x3x3xf32>
    %output_95 = "oneflow.variable"() {data_type = 2 : i32, device_name = ["@0:0"], device_tag = "cpu", hierarchy = [1], nd_sbp = ["B"], op_name = "FreeEagerTensor-159", output_lbns = ["FreeEagerTensor-159/out"], scope_symbol_id = 4611686018427416575 : i64, shape = [128 : si64], trainable = false} : () -> tensor<128xf32>
    %output_96 = "oneflow.variable"() {data_type = 2 : i32, device_name = ["@0:0"], device_tag = "cpu", hierarchy = [1], nd_sbp = ["B"], op_name = "FreeEagerTensor-160", output_lbns = ["FreeEagerTensor-160/out"], scope_symbol_id = 4611686018427416575 : i64, shape = [128 : si64], trainable = false} : () -> tensor<128xf32>
    %output_97 = "oneflow.variable"() {data_type = 2 : i32, device_name = ["@0:0"], device_tag = "cpu", hierarchy = [1], nd_sbp = ["B"], op_name = "FreeEagerTensor-161", output_lbns = ["FreeEagerTensor-161/out"], scope_symbol_id = 4611686018427416575 : i64, shape = [128 : si64], trainable = false} : () -> tensor<128xf32>
    %output_98 = "oneflow.variable"() {data_type = 2 : i32, device_name = ["@0:0"], device_tag = "cpu", hierarchy = [1], nd_sbp = ["B"], op_name = "FreeEagerTensor-162", output_lbns = ["FreeEagerTensor-162/out"], scope_symbol_id = 4611686018427416575 : i64, shape = [128 : si64], trainable = false} : () -> tensor<128xf32>
    %output_99 = "oneflow.variable"() {data_type = 2 : i32, device_name = ["@0:0"], device_tag = "cpu", hierarchy = [1], nd_sbp = ["B"], op_name = "FreeEagerTensor-165", output_lbns = ["FreeEagerTensor-165/out"], scope_symbol_id = 4611686018427416575 : i64, shape = [512 : si64, 128 : si64, 1 : si64, 1 : si64], trainable = false} : () -> tensor<512x128x1x1xf32>
    %output_100 = "oneflow.variable"() {data_type = 2 : i32, device_name = ["@0:0"], device_tag = "cpu", hierarchy = [1], nd_sbp = ["B"], op_name = "FreeEagerTensor-167", output_lbns = ["FreeEagerTensor-167/out"], scope_symbol_id = 4611686018427416575 : i64, shape = [512 : si64], trainable = false} : () -> tensor<512xf32>
    %output_101 = "oneflow.variable"() {data_type = 2 : i32, device_name = ["@0:0"], device_tag = "cpu", hierarchy = [1], nd_sbp = ["B"], op_name = "FreeEagerTensor-168", output_lbns = ["FreeEagerTensor-168/out"], scope_symbol_id = 4611686018427416575 : i64, shape = [512 : si64], trainable = false} : () -> tensor<512xf32>
    %output_102 = "oneflow.variable"() {data_type = 2 : i32, device_name = ["@0:0"], device_tag = "cpu", hierarchy = [1], nd_sbp = ["B"], op_name = "FreeEagerTensor-169", output_lbns = ["FreeEagerTensor-169/out"], scope_symbol_id = 4611686018427416575 : i64, shape = [512 : si64], trainable = false} : () -> tensor<512xf32>
    %output_103 = "oneflow.variable"() {data_type = 2 : i32, device_name = ["@0:0"], device_tag = "cpu", hierarchy = [1], nd_sbp = ["B"], op_name = "FreeEagerTensor-170", output_lbns = ["FreeEagerTensor-170/out"], scope_symbol_id = 4611686018427416575 : i64, shape = [512 : si64], trainable = false} : () -> tensor<512xf32>
    %output_104 = "oneflow.variable"() {data_type = 2 : i32, device_name = ["@0:0"], device_tag = "cpu", hierarchy = [1], nd_sbp = ["B"], op_name = "FreeEagerTensor-174", output_lbns = ["FreeEagerTensor-174/out"], scope_symbol_id = 4611686018427416575 : i64, shape = [128 : si64, 512 : si64, 1 : si64, 1 : si64], trainable = false} : () -> tensor<128x512x1x1xf32>
    %output_105 = "oneflow.variable"() {data_type = 2 : i32, device_name = ["@0:0"], device_tag = "cpu", hierarchy = [1], nd_sbp = ["B"], op_name = "FreeEagerTensor-176", output_lbns = ["FreeEagerTensor-176/out"], scope_symbol_id = 4611686018427416575 : i64, shape = [128 : si64], trainable = false} : () -> tensor<128xf32>
    %output_106 = "oneflow.variable"() {data_type = 2 : i32, device_name = ["@0:0"], device_tag = "cpu", hierarchy = [1], nd_sbp = ["B"], op_name = "FreeEagerTensor-177", output_lbns = ["FreeEagerTensor-177/out"], scope_symbol_id = 4611686018427416575 : i64, shape = [128 : si64], trainable = false} : () -> tensor<128xf32>
    %output_107 = "oneflow.variable"() {data_type = 2 : i32, device_name = ["@0:0"], device_tag = "cpu", hierarchy = [1], nd_sbp = ["B"], op_name = "FreeEagerTensor-178", output_lbns = ["FreeEagerTensor-178/out"], scope_symbol_id = 4611686018427416575 : i64, shape = [128 : si64], trainable = false} : () -> tensor<128xf32>
    %output_108 = "oneflow.variable"() {data_type = 2 : i32, device_name = ["@0:0"], device_tag = "cpu", hierarchy = [1], nd_sbp = ["B"], op_name = "FreeEagerTensor-179", output_lbns = ["FreeEagerTensor-179/out"], scope_symbol_id = 4611686018427416575 : i64, shape = [128 : si64], trainable = false} : () -> tensor<128xf32>
    %output_109 = "oneflow.variable"() {data_type = 2 : i32, device_name = ["@0:0"], device_tag = "cpu", hierarchy = [1], nd_sbp = ["B"], op_name = "FreeEagerTensor-182", output_lbns = ["FreeEagerTensor-182/out"], scope_symbol_id = 4611686018427416575 : i64, shape = [128 : si64, 128 : si64, 3 : si64, 3 : si64], trainable = false} : () -> tensor<128x128x3x3xf32>
    %output_110 = "oneflow.variable"() {data_type = 2 : i32, device_name = ["@0:0"], device_tag = "cpu", hierarchy = [1], nd_sbp = ["B"], op_name = "FreeEagerTensor-184", output_lbns = ["FreeEagerTensor-184/out"], scope_symbol_id = 4611686018427416575 : i64, shape = [128 : si64], trainable = false} : () -> tensor<128xf32>
    %output_111 = "oneflow.variable"() {data_type = 2 : i32, device_name = ["@0:0"], device_tag = "cpu", hierarchy = [1], nd_sbp = ["B"], op_name = "FreeEagerTensor-185", output_lbns = ["FreeEagerTensor-185/out"], scope_symbol_id = 4611686018427416575 : i64, shape = [128 : si64], trainable = false} : () -> tensor<128xf32>
    %output_112 = "oneflow.variable"() {data_type = 2 : i32, device_name = ["@0:0"], device_tag = "cpu", hierarchy = [1], nd_sbp = ["B"], op_name = "FreeEagerTensor-186", output_lbns = ["FreeEagerTensor-186/out"], scope_symbol_id = 4611686018427416575 : i64, shape = [128 : si64], trainable = false} : () -> tensor<128xf32>
    %output_113 = "oneflow.variable"() {data_type = 2 : i32, device_name = ["@0:0"], device_tag = "cpu", hierarchy = [1], nd_sbp = ["B"], op_name = "FreeEagerTensor-187", output_lbns = ["FreeEagerTensor-187/out"], scope_symbol_id = 4611686018427416575 : i64, shape = [128 : si64], trainable = false} : () -> tensor<128xf32>
    %output_114 = "oneflow.variable"() {data_type = 2 : i32, device_name = ["@0:0"], device_tag = "cpu", hierarchy = [1], nd_sbp = ["B"], op_name = "FreeEagerTensor-190", output_lbns = ["FreeEagerTensor-190/out"], scope_symbol_id = 4611686018427416575 : i64, shape = [512 : si64, 128 : si64, 1 : si64, 1 : si64], trainable = false} : () -> tensor<512x128x1x1xf32>
    %output_115 = "oneflow.variable"() {data_type = 2 : i32, device_name = ["@0:0"], device_tag = "cpu", hierarchy = [1], nd_sbp = ["B"], op_name = "FreeEagerTensor-192", output_lbns = ["FreeEagerTensor-192/out"], scope_symbol_id = 4611686018427416575 : i64, shape = [512 : si64], trainable = false} : () -> tensor<512xf32>
    %output_116 = "oneflow.variable"() {data_type = 2 : i32, device_name = ["@0:0"], device_tag = "cpu", hierarchy = [1], nd_sbp = ["B"], op_name = "FreeEagerTensor-193", output_lbns = ["FreeEagerTensor-193/out"], scope_symbol_id = 4611686018427416575 : i64, shape = [512 : si64], trainable = false} : () -> tensor<512xf32>
    %output_117 = "oneflow.variable"() {data_type = 2 : i32, device_name = ["@0:0"], device_tag = "cpu", hierarchy = [1], nd_sbp = ["B"], op_name = "FreeEagerTensor-194", output_lbns = ["FreeEagerTensor-194/out"], scope_symbol_id = 4611686018427416575 : i64, shape = [512 : si64], trainable = false} : () -> tensor<512xf32>
    %output_118 = "oneflow.variable"() {data_type = 2 : i32, device_name = ["@0:0"], device_tag = "cpu", hierarchy = [1], nd_sbp = ["B"], op_name = "FreeEagerTensor-195", output_lbns = ["FreeEagerTensor-195/out"], scope_symbol_id = 4611686018427416575 : i64, shape = [512 : si64], trainable = false} : () -> tensor<512xf32>
    %output_119 = "oneflow.variable"() {data_type = 2 : i32, device_name = ["@0:0"], device_tag = "cpu", hierarchy = [1], nd_sbp = ["B"], op_name = "FreeEagerTensor-199", output_lbns = ["FreeEagerTensor-199/out"], scope_symbol_id = 4611686018427416575 : i64, shape = [256 : si64, 512 : si64, 1 : si64, 1 : si64], trainable = false} : () -> tensor<256x512x1x1xf32>
    %output_120 = "oneflow.variable"() {data_type = 2 : i32, device_name = ["@0:0"], device_tag = "cpu", hierarchy = [1], nd_sbp = ["B"], op_name = "FreeEagerTensor-201", output_lbns = ["FreeEagerTensor-201/out"], scope_symbol_id = 4611686018427416575 : i64, shape = [256 : si64], trainable = false} : () -> tensor<256xf32>
    %output_121 = "oneflow.variable"() {data_type = 2 : i32, device_name = ["@0:0"], device_tag = "cpu", hierarchy = [1], nd_sbp = ["B"], op_name = "FreeEagerTensor-202", output_lbns = ["FreeEagerTensor-202/out"], scope_symbol_id = 4611686018427416575 : i64, shape = [256 : si64], trainable = false} : () -> tensor<256xf32>
    %output_122 = "oneflow.variable"() {data_type = 2 : i32, device_name = ["@0:0"], device_tag = "cpu", hierarchy = [1], nd_sbp = ["B"], op_name = "FreeEagerTensor-203", output_lbns = ["FreeEagerTensor-203/out"], scope_symbol_id = 4611686018427416575 : i64, shape = [256 : si64], trainable = false} : () -> tensor<256xf32>
    %output_123 = "oneflow.variable"() {data_type = 2 : i32, device_name = ["@0:0"], device_tag = "cpu", hierarchy = [1], nd_sbp = ["B"], op_name = "FreeEagerTensor-204", output_lbns = ["FreeEagerTensor-204/out"], scope_symbol_id = 4611686018427416575 : i64, shape = [256 : si64], trainable = false} : () -> tensor<256xf32>
    %output_124 = "oneflow.variable"() {data_type = 2 : i32, device_name = ["@0:0"], device_tag = "cpu", hierarchy = [1], nd_sbp = ["B"], op_name = "FreeEagerTensor-207", output_lbns = ["FreeEagerTensor-207/out"], scope_symbol_id = 4611686018427416575 : i64, shape = [256 : si64, 256 : si64, 3 : si64, 3 : si64], trainable = false} : () -> tensor<256x256x3x3xf32>
    %output_125 = "oneflow.variable"() {data_type = 2 : i32, device_name = ["@0:0"], device_tag = "cpu", hierarchy = [1], nd_sbp = ["B"], op_name = "FreeEagerTensor-209", output_lbns = ["FreeEagerTensor-209/out"], scope_symbol_id = 4611686018427416575 : i64, shape = [256 : si64], trainable = false} : () -> tensor<256xf32>
    %output_126 = "oneflow.variable"() {data_type = 2 : i32, device_name = ["@0:0"], device_tag = "cpu", hierarchy = [1], nd_sbp = ["B"], op_name = "FreeEagerTensor-210", output_lbns = ["FreeEagerTensor-210/out"], scope_symbol_id = 4611686018427416575 : i64, shape = [256 : si64], trainable = false} : () -> tensor<256xf32>
    %output_127 = "oneflow.variable"() {data_type = 2 : i32, device_name = ["@0:0"], device_tag = "cpu", hierarchy = [1], nd_sbp = ["B"], op_name = "FreeEagerTensor-211", output_lbns = ["FreeEagerTensor-211/out"], scope_symbol_id = 4611686018427416575 : i64, shape = [256 : si64], trainable = false} : () -> tensor<256xf32>
    %output_128 = "oneflow.variable"() {data_type = 2 : i32, device_name = ["@0:0"], device_tag = "cpu", hierarchy = [1], nd_sbp = ["B"], op_name = "FreeEagerTensor-212", output_lbns = ["FreeEagerTensor-212/out"], scope_symbol_id = 4611686018427416575 : i64, shape = [256 : si64], trainable = false} : () -> tensor<256xf32>
    %output_129 = "oneflow.variable"() {data_type = 2 : i32, device_name = ["@0:0"], device_tag = "cpu", hierarchy = [1], nd_sbp = ["B"], op_name = "FreeEagerTensor-215", output_lbns = ["FreeEagerTensor-215/out"], scope_symbol_id = 4611686018427416575 : i64, shape = [1024 : si64, 256 : si64, 1 : si64, 1 : si64], trainable = false} : () -> tensor<1024x256x1x1xf32>
    %output_130 = "oneflow.variable"() {data_type = 2 : i32, device_name = ["@0:0"], device_tag = "cpu", hierarchy = [1], nd_sbp = ["B"], op_name = "FreeEagerTensor-217", output_lbns = ["FreeEagerTensor-217/out"], scope_symbol_id = 4611686018427416575 : i64, shape = [1024 : si64], trainable = false} : () -> tensor<1024xf32>
    %output_131 = "oneflow.variable"() {data_type = 2 : i32, device_name = ["@0:0"], device_tag = "cpu", hierarchy = [1], nd_sbp = ["B"], op_name = "FreeEagerTensor-218", output_lbns = ["FreeEagerTensor-218/out"], scope_symbol_id = 4611686018427416575 : i64, shape = [1024 : si64], trainable = false} : () -> tensor<1024xf32>
    %output_132 = "oneflow.variable"() {data_type = 2 : i32, device_name = ["@0:0"], device_tag = "cpu", hierarchy = [1], nd_sbp = ["B"], op_name = "FreeEagerTensor-219", output_lbns = ["FreeEagerTensor-219/out"], scope_symbol_id = 4611686018427416575 : i64, shape = [1024 : si64], trainable = false} : () -> tensor<1024xf32>
    %output_133 = "oneflow.variable"() {data_type = 2 : i32, device_name = ["@0:0"], device_tag = "cpu", hierarchy = [1], nd_sbp = ["B"], op_name = "FreeEagerTensor-220", output_lbns = ["FreeEagerTensor-220/out"], scope_symbol_id = 4611686018427416575 : i64, shape = [1024 : si64], trainable = false} : () -> tensor<1024xf32>
    %output_134 = "oneflow.variable"() {data_type = 2 : i32, device_name = ["@0:0"], device_tag = "cpu", hierarchy = [1], nd_sbp = ["B"], op_name = "FreeEagerTensor-222", output_lbns = ["FreeEagerTensor-222/out"], scope_symbol_id = 4611686018427416575 : i64, shape = [1024 : si64, 512 : si64, 1 : si64, 1 : si64], trainable = false} : () -> tensor<1024x512x1x1xf32>
    %output_135 = "oneflow.variable"() {data_type = 2 : i32, device_name = ["@0:0"], device_tag = "cpu", hierarchy = [1], nd_sbp = ["B"], op_name = "FreeEagerTensor-224", output_lbns = ["FreeEagerTensor-224/out"], scope_symbol_id = 4611686018427416575 : i64, shape = [1024 : si64], trainable = false} : () -> tensor<1024xf32>
    %output_136 = "oneflow.variable"() {data_type = 2 : i32, device_name = ["@0:0"], device_tag = "cpu", hierarchy = [1], nd_sbp = ["B"], op_name = "FreeEagerTensor-225", output_lbns = ["FreeEagerTensor-225/out"], scope_symbol_id = 4611686018427416575 : i64, shape = [1024 : si64], trainable = false} : () -> tensor<1024xf32>
    %output_137 = "oneflow.variable"() {data_type = 2 : i32, device_name = ["@0:0"], device_tag = "cpu", hierarchy = [1], nd_sbp = ["B"], op_name = "FreeEagerTensor-226", output_lbns = ["FreeEagerTensor-226/out"], scope_symbol_id = 4611686018427416575 : i64, shape = [1024 : si64], trainable = false} : () -> tensor<1024xf32>
    %output_138 = "oneflow.variable"() {data_type = 2 : i32, device_name = ["@0:0"], device_tag = "cpu", hierarchy = [1], nd_sbp = ["B"], op_name = "FreeEagerTensor-227", output_lbns = ["FreeEagerTensor-227/out"], scope_symbol_id = 4611686018427416575 : i64, shape = [1024 : si64], trainable = false} : () -> tensor<1024xf32>
    %output_139 = "oneflow.variable"() {data_type = 2 : i32, device_name = ["@0:0"], device_tag = "cpu", hierarchy = [1], nd_sbp = ["B"], op_name = "FreeEagerTensor-231", output_lbns = ["FreeEagerTensor-231/out"], scope_symbol_id = 4611686018427416575 : i64, shape = [256 : si64, 1024 : si64, 1 : si64, 1 : si64], trainable = false} : () -> tensor<256x1024x1x1xf32>
    %output_140 = "oneflow.variable"() {data_type = 2 : i32, device_name = ["@0:0"], device_tag = "cpu", hierarchy = [1], nd_sbp = ["B"], op_name = "FreeEagerTensor-233", output_lbns = ["FreeEagerTensor-233/out"], scope_symbol_id = 4611686018427416575 : i64, shape = [256 : si64], trainable = false} : () -> tensor<256xf32>
    %output_141 = "oneflow.variable"() {data_type = 2 : i32, device_name = ["@0:0"], device_tag = "cpu", hierarchy = [1], nd_sbp = ["B"], op_name = "FreeEagerTensor-234", output_lbns = ["FreeEagerTensor-234/out"], scope_symbol_id = 4611686018427416575 : i64, shape = [256 : si64], trainable = false} : () -> tensor<256xf32>
    %output_142 = "oneflow.variable"() {data_type = 2 : i32, device_name = ["@0:0"], device_tag = "cpu", hierarchy = [1], nd_sbp = ["B"], op_name = "FreeEagerTensor-235", output_lbns = ["FreeEagerTensor-235/out"], scope_symbol_id = 4611686018427416575 : i64, shape = [256 : si64], trainable = false} : () -> tensor<256xf32>
    %output_143 = "oneflow.variable"() {data_type = 2 : i32, device_name = ["@0:0"], device_tag = "cpu", hierarchy = [1], nd_sbp = ["B"], op_name = "FreeEagerTensor-236", output_lbns = ["FreeEagerTensor-236/out"], scope_symbol_id = 4611686018427416575 : i64, shape = [256 : si64], trainable = false} : () -> tensor<256xf32>
    %output_144 = "oneflow.variable"() {data_type = 2 : i32, device_name = ["@0:0"], device_tag = "cpu", hierarchy = [1], nd_sbp = ["B"], op_name = "FreeEagerTensor-239", output_lbns = ["FreeEagerTensor-239/out"], scope_symbol_id = 4611686018427416575 : i64, shape = [256 : si64, 256 : si64, 3 : si64, 3 : si64], trainable = false} : () -> tensor<256x256x3x3xf32>
    %output_145 = "oneflow.variable"() {data_type = 2 : i32, device_name = ["@0:0"], device_tag = "cpu", hierarchy = [1], nd_sbp = ["B"], op_name = "FreeEagerTensor-241", output_lbns = ["FreeEagerTensor-241/out"], scope_symbol_id = 4611686018427416575 : i64, shape = [256 : si64], trainable = false} : () -> tensor<256xf32>
    %output_146 = "oneflow.variable"() {data_type = 2 : i32, device_name = ["@0:0"], device_tag = "cpu", hierarchy = [1], nd_sbp = ["B"], op_name = "FreeEagerTensor-242", output_lbns = ["FreeEagerTensor-242/out"], scope_symbol_id = 4611686018427416575 : i64, shape = [256 : si64], trainable = false} : () -> tensor<256xf32>
    %output_147 = "oneflow.variable"() {data_type = 2 : i32, device_name = ["@0:0"], device_tag = "cpu", hierarchy = [1], nd_sbp = ["B"], op_name = "FreeEagerTensor-243", output_lbns = ["FreeEagerTensor-243/out"], scope_symbol_id = 4611686018427416575 : i64, shape = [256 : si64], trainable = false} : () -> tensor<256xf32>
    %output_148 = "oneflow.variable"() {data_type = 2 : i32, device_name = ["@0:0"], device_tag = "cpu", hierarchy = [1], nd_sbp = ["B"], op_name = "FreeEagerTensor-244", output_lbns = ["FreeEagerTensor-244/out"], scope_symbol_id = 4611686018427416575 : i64, shape = [256 : si64], trainable = false} : () -> tensor<256xf32>
    %output_149 = "oneflow.variable"() {data_type = 2 : i32, device_name = ["@0:0"], device_tag = "cpu", hierarchy = [1], nd_sbp = ["B"], op_name = "FreeEagerTensor-247", output_lbns = ["FreeEagerTensor-247/out"], scope_symbol_id = 4611686018427416575 : i64, shape = [1024 : si64, 256 : si64, 1 : si64, 1 : si64], trainable = false} : () -> tensor<1024x256x1x1xf32>
    %output_150 = "oneflow.variable"() {data_type = 2 : i32, device_name = ["@0:0"], device_tag = "cpu", hierarchy = [1], nd_sbp = ["B"], op_name = "FreeEagerTensor-249", output_lbns = ["FreeEagerTensor-249/out"], scope_symbol_id = 4611686018427416575 : i64, shape = [1024 : si64], trainable = false} : () -> tensor<1024xf32>
    %output_151 = "oneflow.variable"() {data_type = 2 : i32, device_name = ["@0:0"], device_tag = "cpu", hierarchy = [1], nd_sbp = ["B"], op_name = "FreeEagerTensor-250", output_lbns = ["FreeEagerTensor-250/out"], scope_symbol_id = 4611686018427416575 : i64, shape = [1024 : si64], trainable = false} : () -> tensor<1024xf32>
    %output_152 = "oneflow.variable"() {data_type = 2 : i32, device_name = ["@0:0"], device_tag = "cpu", hierarchy = [1], nd_sbp = ["B"], op_name = "FreeEagerTensor-251", output_lbns = ["FreeEagerTensor-251/out"], scope_symbol_id = 4611686018427416575 : i64, shape = [1024 : si64], trainable = false} : () -> tensor<1024xf32>
    %output_153 = "oneflow.variable"() {data_type = 2 : i32, device_name = ["@0:0"], device_tag = "cpu", hierarchy = [1], nd_sbp = ["B"], op_name = "FreeEagerTensor-252", output_lbns = ["FreeEagerTensor-252/out"], scope_symbol_id = 4611686018427416575 : i64, shape = [1024 : si64], trainable = false} : () -> tensor<1024xf32>
    %output_154 = "oneflow.variable"() {data_type = 2 : i32, device_name = ["@0:0"], device_tag = "cpu", hierarchy = [1], nd_sbp = ["B"], op_name = "FreeEagerTensor-256", output_lbns = ["FreeEagerTensor-256/out"], scope_symbol_id = 4611686018427416575 : i64, shape = [256 : si64, 1024 : si64, 1 : si64, 1 : si64], trainable = false} : () -> tensor<256x1024x1x1xf32>
    %output_155 = "oneflow.variable"() {data_type = 2 : i32, device_name = ["@0:0"], device_tag = "cpu", hierarchy = [1], nd_sbp = ["B"], op_name = "FreeEagerTensor-258", output_lbns = ["FreeEagerTensor-258/out"], scope_symbol_id = 4611686018427416575 : i64, shape = [256 : si64], trainable = false} : () -> tensor<256xf32>
    %output_156 = "oneflow.variable"() {data_type = 2 : i32, device_name = ["@0:0"], device_tag = "cpu", hierarchy = [1], nd_sbp = ["B"], op_name = "FreeEagerTensor-259", output_lbns = ["FreeEagerTensor-259/out"], scope_symbol_id = 4611686018427416575 : i64, shape = [256 : si64], trainable = false} : () -> tensor<256xf32>
    %output_157 = "oneflow.variable"() {data_type = 2 : i32, device_name = ["@0:0"], device_tag = "cpu", hierarchy = [1], nd_sbp = ["B"], op_name = "FreeEagerTensor-260", output_lbns = ["FreeEagerTensor-260/out"], scope_symbol_id = 4611686018427416575 : i64, shape = [256 : si64], trainable = false} : () -> tensor<256xf32>
    %output_158 = "oneflow.variable"() {data_type = 2 : i32, device_name = ["@0:0"], device_tag = "cpu", hierarchy = [1], nd_sbp = ["B"], op_name = "FreeEagerTensor-261", output_lbns = ["FreeEagerTensor-261/out"], scope_symbol_id = 4611686018427416575 : i64, shape = [256 : si64], trainable = false} : () -> tensor<256xf32>
    %output_159 = "oneflow.variable"() {data_type = 2 : i32, device_name = ["@0:0"], device_tag = "cpu", hierarchy = [1], nd_sbp = ["B"], op_name = "FreeEagerTensor-264", output_lbns = ["FreeEagerTensor-264/out"], scope_symbol_id = 4611686018427416575 : i64, shape = [256 : si64, 256 : si64, 3 : si64, 3 : si64], trainable = false} : () -> tensor<256x256x3x3xf32>
    %output_160 = "oneflow.variable"() {data_type = 2 : i32, device_name = ["@0:0"], device_tag = "cpu", hierarchy = [1], nd_sbp = ["B"], op_name = "FreeEagerTensor-266", output_lbns = ["FreeEagerTensor-266/out"], scope_symbol_id = 4611686018427416575 : i64, shape = [256 : si64], trainable = false} : () -> tensor<256xf32>
    %output_161 = "oneflow.variable"() {data_type = 2 : i32, device_name = ["@0:0"], device_tag = "cpu", hierarchy = [1], nd_sbp = ["B"], op_name = "FreeEagerTensor-267", output_lbns = ["FreeEagerTensor-267/out"], scope_symbol_id = 4611686018427416575 : i64, shape = [256 : si64], trainable = false} : () -> tensor<256xf32>
    %output_162 = "oneflow.variable"() {data_type = 2 : i32, device_name = ["@0:0"], device_tag = "cpu", hierarchy = [1], nd_sbp = ["B"], op_name = "FreeEagerTensor-268", output_lbns = ["FreeEagerTensor-268/out"], scope_symbol_id = 4611686018427416575 : i64, shape = [256 : si64], trainable = false} : () -> tensor<256xf32>
    %output_163 = "oneflow.variable"() {data_type = 2 : i32, device_name = ["@0:0"], device_tag = "cpu", hierarchy = [1], nd_sbp = ["B"], op_name = "FreeEagerTensor-269", output_lbns = ["FreeEagerTensor-269/out"], scope_symbol_id = 4611686018427416575 : i64, shape = [256 : si64], trainable = false} : () -> tensor<256xf32>
    %output_164 = "oneflow.variable"() {data_type = 2 : i32, device_name = ["@0:0"], device_tag = "cpu", hierarchy = [1], nd_sbp = ["B"], op_name = "FreeEagerTensor-272", output_lbns = ["FreeEagerTensor-272/out"], scope_symbol_id = 4611686018427416575 : i64, shape = [1024 : si64, 256 : si64, 1 : si64, 1 : si64], trainable = false} : () -> tensor<1024x256x1x1xf32>
    %output_165 = "oneflow.variable"() {data_type = 2 : i32, device_name = ["@0:0"], device_tag = "cpu", hierarchy = [1], nd_sbp = ["B"], op_name = "FreeEagerTensor-274", output_lbns = ["FreeEagerTensor-274/out"], scope_symbol_id = 4611686018427416575 : i64, shape = [1024 : si64], trainable = false} : () -> tensor<1024xf32>
    %output_166 = "oneflow.variable"() {data_type = 2 : i32, device_name = ["@0:0"], device_tag = "cpu", hierarchy = [1], nd_sbp = ["B"], op_name = "FreeEagerTensor-275", output_lbns = ["FreeEagerTensor-275/out"], scope_symbol_id = 4611686018427416575 : i64, shape = [1024 : si64], trainable = false} : () -> tensor<1024xf32>
    %output_167 = "oneflow.variable"() {data_type = 2 : i32, device_name = ["@0:0"], device_tag = "cpu", hierarchy = [1], nd_sbp = ["B"], op_name = "FreeEagerTensor-276", output_lbns = ["FreeEagerTensor-276/out"], scope_symbol_id = 4611686018427416575 : i64, shape = [1024 : si64], trainable = false} : () -> tensor<1024xf32>
    %output_168 = "oneflow.variable"() {data_type = 2 : i32, device_name = ["@0:0"], device_tag = "cpu", hierarchy = [1], nd_sbp = ["B"], op_name = "FreeEagerTensor-277", output_lbns = ["FreeEagerTensor-277/out"], scope_symbol_id = 4611686018427416575 : i64, shape = [1024 : si64], trainable = false} : () -> tensor<1024xf32>
    %output_169 = "oneflow.variable"() {data_type = 2 : i32, device_name = ["@0:0"], device_tag = "cpu", hierarchy = [1], nd_sbp = ["B"], op_name = "FreeEagerTensor-281", output_lbns = ["FreeEagerTensor-281/out"], scope_symbol_id = 4611686018427416575 : i64, shape = [256 : si64, 1024 : si64, 1 : si64, 1 : si64], trainable = false} : () -> tensor<256x1024x1x1xf32>
    %output_170 = "oneflow.variable"() {data_type = 2 : i32, device_name = ["@0:0"], device_tag = "cpu", hierarchy = [1], nd_sbp = ["B"], op_name = "FreeEagerTensor-283", output_lbns = ["FreeEagerTensor-283/out"], scope_symbol_id = 4611686018427416575 : i64, shape = [256 : si64], trainable = false} : () -> tensor<256xf32>
    %output_171 = "oneflow.variable"() {data_type = 2 : i32, device_name = ["@0:0"], device_tag = "cpu", hierarchy = [1], nd_sbp = ["B"], op_name = "FreeEagerTensor-284", output_lbns = ["FreeEagerTensor-284/out"], scope_symbol_id = 4611686018427416575 : i64, shape = [256 : si64], trainable = false} : () -> tensor<256xf32>
    %output_172 = "oneflow.variable"() {data_type = 2 : i32, device_name = ["@0:0"], device_tag = "cpu", hierarchy = [1], nd_sbp = ["B"], op_name = "FreeEagerTensor-285", output_lbns = ["FreeEagerTensor-285/out"], scope_symbol_id = 4611686018427416575 : i64, shape = [256 : si64], trainable = false} : () -> tensor<256xf32>
    %output_173 = "oneflow.variable"() {data_type = 2 : i32, device_name = ["@0:0"], device_tag = "cpu", hierarchy = [1], nd_sbp = ["B"], op_name = "FreeEagerTensor-286", output_lbns = ["FreeEagerTensor-286/out"], scope_symbol_id = 4611686018427416575 : i64, shape = [256 : si64], trainable = false} : () -> tensor<256xf32>
    %output_174 = "oneflow.variable"() {data_type = 2 : i32, device_name = ["@0:0"], device_tag = "cpu", hierarchy = [1], nd_sbp = ["B"], op_name = "FreeEagerTensor-289", output_lbns = ["FreeEagerTensor-289/out"], scope_symbol_id = 4611686018427416575 : i64, shape = [256 : si64, 256 : si64, 3 : si64, 3 : si64], trainable = false} : () -> tensor<256x256x3x3xf32>
    %output_175 = "oneflow.variable"() {data_type = 2 : i32, device_name = ["@0:0"], device_tag = "cpu", hierarchy = [1], nd_sbp = ["B"], op_name = "FreeEagerTensor-291", output_lbns = ["FreeEagerTensor-291/out"], scope_symbol_id = 4611686018427416575 : i64, shape = [256 : si64], trainable = false} : () -> tensor<256xf32>
    %output_176 = "oneflow.variable"() {data_type = 2 : i32, device_name = ["@0:0"], device_tag = "cpu", hierarchy = [1], nd_sbp = ["B"], op_name = "FreeEagerTensor-292", output_lbns = ["FreeEagerTensor-292/out"], scope_symbol_id = 4611686018427416575 : i64, shape = [256 : si64], trainable = false} : () -> tensor<256xf32>
    %output_177 = "oneflow.variable"() {data_type = 2 : i32, device_name = ["@0:0"], device_tag = "cpu", hierarchy = [1], nd_sbp = ["B"], op_name = "FreeEagerTensor-293", output_lbns = ["FreeEagerTensor-293/out"], scope_symbol_id = 4611686018427416575 : i64, shape = [256 : si64], trainable = false} : () -> tensor<256xf32>
    %output_178 = "oneflow.variable"() {data_type = 2 : i32, device_name = ["@0:0"], device_tag = "cpu", hierarchy = [1], nd_sbp = ["B"], op_name = "FreeEagerTensor-294", output_lbns = ["FreeEagerTensor-294/out"], scope_symbol_id = 4611686018427416575 : i64, shape = [256 : si64], trainable = false} : () -> tensor<256xf32>
    %output_179 = "oneflow.variable"() {data_type = 2 : i32, device_name = ["@0:0"], device_tag = "cpu", hierarchy = [1], nd_sbp = ["B"], op_name = "FreeEagerTensor-297", output_lbns = ["FreeEagerTensor-297/out"], scope_symbol_id = 4611686018427416575 : i64, shape = [1024 : si64, 256 : si64, 1 : si64, 1 : si64], trainable = false} : () -> tensor<1024x256x1x1xf32>
    %output_180 = "oneflow.variable"() {data_type = 2 : i32, device_name = ["@0:0"], device_tag = "cpu", hierarchy = [1], nd_sbp = ["B"], op_name = "FreeEagerTensor-299", output_lbns = ["FreeEagerTensor-299/out"], scope_symbol_id = 4611686018427416575 : i64, shape = [1024 : si64], trainable = false} : () -> tensor<1024xf32>
    %output_181 = "oneflow.variable"() {data_type = 2 : i32, device_name = ["@0:0"], device_tag = "cpu", hierarchy = [1], nd_sbp = ["B"], op_name = "FreeEagerTensor-300", output_lbns = ["FreeEagerTensor-300/out"], scope_symbol_id = 4611686018427416575 : i64, shape = [1024 : si64], trainable = false} : () -> tensor<1024xf32>
    %output_182 = "oneflow.variable"() {data_type = 2 : i32, device_name = ["@0:0"], device_tag = "cpu", hierarchy = [1], nd_sbp = ["B"], op_name = "FreeEagerTensor-301", output_lbns = ["FreeEagerTensor-301/out"], scope_symbol_id = 4611686018427416575 : i64, shape = [1024 : si64], trainable = false} : () -> tensor<1024xf32>
    %output_183 = "oneflow.variable"() {data_type = 2 : i32, device_name = ["@0:0"], device_tag = "cpu", hierarchy = [1], nd_sbp = ["B"], op_name = "FreeEagerTensor-302", output_lbns = ["FreeEagerTensor-302/out"], scope_symbol_id = 4611686018427416575 : i64, shape = [1024 : si64], trainable = false} : () -> tensor<1024xf32>
    %output_184 = "oneflow.variable"() {data_type = 2 : i32, device_name = ["@0:0"], device_tag = "cpu", hierarchy = [1], nd_sbp = ["B"], op_name = "FreeEagerTensor-306", output_lbns = ["FreeEagerTensor-306/out"], scope_symbol_id = 4611686018427416575 : i64, shape = [256 : si64, 1024 : si64, 1 : si64, 1 : si64], trainable = false} : () -> tensor<256x1024x1x1xf32>
    %output_185 = "oneflow.variable"() {data_type = 2 : i32, device_name = ["@0:0"], device_tag = "cpu", hierarchy = [1], nd_sbp = ["B"], op_name = "FreeEagerTensor-308", output_lbns = ["FreeEagerTensor-308/out"], scope_symbol_id = 4611686018427416575 : i64, shape = [256 : si64], trainable = false} : () -> tensor<256xf32>
    %output_186 = "oneflow.variable"() {data_type = 2 : i32, device_name = ["@0:0"], device_tag = "cpu", hierarchy = [1], nd_sbp = ["B"], op_name = "FreeEagerTensor-309", output_lbns = ["FreeEagerTensor-309/out"], scope_symbol_id = 4611686018427416575 : i64, shape = [256 : si64], trainable = false} : () -> tensor<256xf32>
    %output_187 = "oneflow.variable"() {data_type = 2 : i32, device_name = ["@0:0"], device_tag = "cpu", hierarchy = [1], nd_sbp = ["B"], op_name = "FreeEagerTensor-310", output_lbns = ["FreeEagerTensor-310/out"], scope_symbol_id = 4611686018427416575 : i64, shape = [256 : si64], trainable = false} : () -> tensor<256xf32>
    %output_188 = "oneflow.variable"() {data_type = 2 : i32, device_name = ["@0:0"], device_tag = "cpu", hierarchy = [1], nd_sbp = ["B"], op_name = "FreeEagerTensor-311", output_lbns = ["FreeEagerTensor-311/out"], scope_symbol_id = 4611686018427416575 : i64, shape = [256 : si64], trainable = false} : () -> tensor<256xf32>
    %output_189 = "oneflow.variable"() {data_type = 2 : i32, device_name = ["@0:0"], device_tag = "cpu", hierarchy = [1], nd_sbp = ["B"], op_name = "FreeEagerTensor-314", output_lbns = ["FreeEagerTensor-314/out"], scope_symbol_id = 4611686018427416575 : i64, shape = [256 : si64, 256 : si64, 3 : si64, 3 : si64], trainable = false} : () -> tensor<256x256x3x3xf32>
    %output_190 = "oneflow.variable"() {data_type = 2 : i32, device_name = ["@0:0"], device_tag = "cpu", hierarchy = [1], nd_sbp = ["B"], op_name = "FreeEagerTensor-316", output_lbns = ["FreeEagerTensor-316/out"], scope_symbol_id = 4611686018427416575 : i64, shape = [256 : si64], trainable = false} : () -> tensor<256xf32>
    %output_191 = "oneflow.variable"() {data_type = 2 : i32, device_name = ["@0:0"], device_tag = "cpu", hierarchy = [1], nd_sbp = ["B"], op_name = "FreeEagerTensor-317", output_lbns = ["FreeEagerTensor-317/out"], scope_symbol_id = 4611686018427416575 : i64, shape = [256 : si64], trainable = false} : () -> tensor<256xf32>
    %output_192 = "oneflow.variable"() {data_type = 2 : i32, device_name = ["@0:0"], device_tag = "cpu", hierarchy = [1], nd_sbp = ["B"], op_name = "FreeEagerTensor-318", output_lbns = ["FreeEagerTensor-318/out"], scope_symbol_id = 4611686018427416575 : i64, shape = [256 : si64], trainable = false} : () -> tensor<256xf32>
    %output_193 = "oneflow.variable"() {data_type = 2 : i32, device_name = ["@0:0"], device_tag = "cpu", hierarchy = [1], nd_sbp = ["B"], op_name = "FreeEagerTensor-319", output_lbns = ["FreeEagerTensor-319/out"], scope_symbol_id = 4611686018427416575 : i64, shape = [256 : si64], trainable = false} : () -> tensor<256xf32>
    %output_194 = "oneflow.variable"() {data_type = 2 : i32, device_name = ["@0:0"], device_tag = "cpu", hierarchy = [1], nd_sbp = ["B"], op_name = "FreeEagerTensor-322", output_lbns = ["FreeEagerTensor-322/out"], scope_symbol_id = 4611686018427416575 : i64, shape = [1024 : si64, 256 : si64, 1 : si64, 1 : si64], trainable = false} : () -> tensor<1024x256x1x1xf32>
    %output_195 = "oneflow.variable"() {data_type = 2 : i32, device_name = ["@0:0"], device_tag = "cpu", hierarchy = [1], nd_sbp = ["B"], op_name = "FreeEagerTensor-324", output_lbns = ["FreeEagerTensor-324/out"], scope_symbol_id = 4611686018427416575 : i64, shape = [1024 : si64], trainable = false} : () -> tensor<1024xf32>
    %output_196 = "oneflow.variable"() {data_type = 2 : i32, device_name = ["@0:0"], device_tag = "cpu", hierarchy = [1], nd_sbp = ["B"], op_name = "FreeEagerTensor-325", output_lbns = ["FreeEagerTensor-325/out"], scope_symbol_id = 4611686018427416575 : i64, shape = [1024 : si64], trainable = false} : () -> tensor<1024xf32>
    %output_197 = "oneflow.variable"() {data_type = 2 : i32, device_name = ["@0:0"], device_tag = "cpu", hierarchy = [1], nd_sbp = ["B"], op_name = "FreeEagerTensor-326", output_lbns = ["FreeEagerTensor-326/out"], scope_symbol_id = 4611686018427416575 : i64, shape = [1024 : si64], trainable = false} : () -> tensor<1024xf32>
    %output_198 = "oneflow.variable"() {data_type = 2 : i32, device_name = ["@0:0"], device_tag = "cpu", hierarchy = [1], nd_sbp = ["B"], op_name = "FreeEagerTensor-327", output_lbns = ["FreeEagerTensor-327/out"], scope_symbol_id = 4611686018427416575 : i64, shape = [1024 : si64], trainable = false} : () -> tensor<1024xf32>
    %output_199 = "oneflow.variable"() {data_type = 2 : i32, device_name = ["@0:0"], device_tag = "cpu", hierarchy = [1], nd_sbp = ["B"], op_name = "FreeEagerTensor-331", output_lbns = ["FreeEagerTensor-331/out"], scope_symbol_id = 4611686018427416575 : i64, shape = [256 : si64, 1024 : si64, 1 : si64, 1 : si64], trainable = false} : () -> tensor<256x1024x1x1xf32>
    %output_200 = "oneflow.variable"() {data_type = 2 : i32, device_name = ["@0:0"], device_tag = "cpu", hierarchy = [1], nd_sbp = ["B"], op_name = "FreeEagerTensor-333", output_lbns = ["FreeEagerTensor-333/out"], scope_symbol_id = 4611686018427416575 : i64, shape = [256 : si64], trainable = false} : () -> tensor<256xf32>
    %output_201 = "oneflow.variable"() {data_type = 2 : i32, device_name = ["@0:0"], device_tag = "cpu", hierarchy = [1], nd_sbp = ["B"], op_name = "FreeEagerTensor-334", output_lbns = ["FreeEagerTensor-334/out"], scope_symbol_id = 4611686018427416575 : i64, shape = [256 : si64], trainable = false} : () -> tensor<256xf32>
    %output_202 = "oneflow.variable"() {data_type = 2 : i32, device_name = ["@0:0"], device_tag = "cpu", hierarchy = [1], nd_sbp = ["B"], op_name = "FreeEagerTensor-335", output_lbns = ["FreeEagerTensor-335/out"], scope_symbol_id = 4611686018427416575 : i64, shape = [256 : si64], trainable = false} : () -> tensor<256xf32>
    %output_203 = "oneflow.variable"() {data_type = 2 : i32, device_name = ["@0:0"], device_tag = "cpu", hierarchy = [1], nd_sbp = ["B"], op_name = "FreeEagerTensor-336", output_lbns = ["FreeEagerTensor-336/out"], scope_symbol_id = 4611686018427416575 : i64, shape = [256 : si64], trainable = false} : () -> tensor<256xf32>
    %output_204 = "oneflow.variable"() {data_type = 2 : i32, device_name = ["@0:0"], device_tag = "cpu", hierarchy = [1], nd_sbp = ["B"], op_name = "FreeEagerTensor-339", output_lbns = ["FreeEagerTensor-339/out"], scope_symbol_id = 4611686018427416575 : i64, shape = [256 : si64, 256 : si64, 3 : si64, 3 : si64], trainable = false} : () -> tensor<256x256x3x3xf32>
    %output_205 = "oneflow.variable"() {data_type = 2 : i32, device_name = ["@0:0"], device_tag = "cpu", hierarchy = [1], nd_sbp = ["B"], op_name = "FreeEagerTensor-341", output_lbns = ["FreeEagerTensor-341/out"], scope_symbol_id = 4611686018427416575 : i64, shape = [256 : si64], trainable = false} : () -> tensor<256xf32>
    %output_206 = "oneflow.variable"() {data_type = 2 : i32, device_name = ["@0:0"], device_tag = "cpu", hierarchy = [1], nd_sbp = ["B"], op_name = "FreeEagerTensor-342", output_lbns = ["FreeEagerTensor-342/out"], scope_symbol_id = 4611686018427416575 : i64, shape = [256 : si64], trainable = false} : () -> tensor<256xf32>
    %output_207 = "oneflow.variable"() {data_type = 2 : i32, device_name = ["@0:0"], device_tag = "cpu", hierarchy = [1], nd_sbp = ["B"], op_name = "FreeEagerTensor-343", output_lbns = ["FreeEagerTensor-343/out"], scope_symbol_id = 4611686018427416575 : i64, shape = [256 : si64], trainable = false} : () -> tensor<256xf32>
    %output_208 = "oneflow.variable"() {data_type = 2 : i32, device_name = ["@0:0"], device_tag = "cpu", hierarchy = [1], nd_sbp = ["B"], op_name = "FreeEagerTensor-344", output_lbns = ["FreeEagerTensor-344/out"], scope_symbol_id = 4611686018427416575 : i64, shape = [256 : si64], trainable = false} : () -> tensor<256xf32>
    %output_209 = "oneflow.variable"() {data_type = 2 : i32, device_name = ["@0:0"], device_tag = "cpu", hierarchy = [1], nd_sbp = ["B"], op_name = "FreeEagerTensor-347", output_lbns = ["FreeEagerTensor-347/out"], scope_symbol_id = 4611686018427416575 : i64, shape = [1024 : si64, 256 : si64, 1 : si64, 1 : si64], trainable = false} : () -> tensor<1024x256x1x1xf32>
    %output_210 = "oneflow.variable"() {data_type = 2 : i32, device_name = ["@0:0"], device_tag = "cpu", hierarchy = [1], nd_sbp = ["B"], op_name = "FreeEagerTensor-349", output_lbns = ["FreeEagerTensor-349/out"], scope_symbol_id = 4611686018427416575 : i64, shape = [1024 : si64], trainable = false} : () -> tensor<1024xf32>
    %output_211 = "oneflow.variable"() {data_type = 2 : i32, device_name = ["@0:0"], device_tag = "cpu", hierarchy = [1], nd_sbp = ["B"], op_name = "FreeEagerTensor-350", output_lbns = ["FreeEagerTensor-350/out"], scope_symbol_id = 4611686018427416575 : i64, shape = [1024 : si64], trainable = false} : () -> tensor<1024xf32>
    %output_212 = "oneflow.variable"() {data_type = 2 : i32, device_name = ["@0:0"], device_tag = "cpu", hierarchy = [1], nd_sbp = ["B"], op_name = "FreeEagerTensor-351", output_lbns = ["FreeEagerTensor-351/out"], scope_symbol_id = 4611686018427416575 : i64, shape = [1024 : si64], trainable = false} : () -> tensor<1024xf32>
    %output_213 = "oneflow.variable"() {data_type = 2 : i32, device_name = ["@0:0"], device_tag = "cpu", hierarchy = [1], nd_sbp = ["B"], op_name = "FreeEagerTensor-352", output_lbns = ["FreeEagerTensor-352/out"], scope_symbol_id = 4611686018427416575 : i64, shape = [1024 : si64], trainable = false} : () -> tensor<1024xf32>
    %output_214 = "oneflow.variable"() {data_type = 2 : i32, device_name = ["@0:0"], device_tag = "cpu", hierarchy = [1], nd_sbp = ["B"], op_name = "FreeEagerTensor-356", output_lbns = ["FreeEagerTensor-356/out"], scope_symbol_id = 4611686018427416575 : i64, shape = [512 : si64, 1024 : si64, 1 : si64, 1 : si64], trainable = false} : () -> tensor<512x1024x1x1xf32>
    %output_215 = "oneflow.variable"() {data_type = 2 : i32, device_name = ["@0:0"], device_tag = "cpu", hierarchy = [1], nd_sbp = ["B"], op_name = "FreeEagerTensor-358", output_lbns = ["FreeEagerTensor-358/out"], scope_symbol_id = 4611686018427416575 : i64, shape = [512 : si64], trainable = false} : () -> tensor<512xf32>
    %output_216 = "oneflow.variable"() {data_type = 2 : i32, device_name = ["@0:0"], device_tag = "cpu", hierarchy = [1], nd_sbp = ["B"], op_name = "FreeEagerTensor-359", output_lbns = ["FreeEagerTensor-359/out"], scope_symbol_id = 4611686018427416575 : i64, shape = [512 : si64], trainable = false} : () -> tensor<512xf32>
    %output_217 = "oneflow.variable"() {data_type = 2 : i32, device_name = ["@0:0"], device_tag = "cpu", hierarchy = [1], nd_sbp = ["B"], op_name = "FreeEagerTensor-360", output_lbns = ["FreeEagerTensor-360/out"], scope_symbol_id = 4611686018427416575 : i64, shape = [512 : si64], trainable = false} : () -> tensor<512xf32>
    %output_218 = "oneflow.variable"() {data_type = 2 : i32, device_name = ["@0:0"], device_tag = "cpu", hierarchy = [1], nd_sbp = ["B"], op_name = "FreeEagerTensor-361", output_lbns = ["FreeEagerTensor-361/out"], scope_symbol_id = 4611686018427416575 : i64, shape = [512 : si64], trainable = false} : () -> tensor<512xf32>
    %output_219 = "oneflow.variable"() {data_type = 2 : i32, device_name = ["@0:0"], device_tag = "cpu", hierarchy = [1], nd_sbp = ["B"], op_name = "FreeEagerTensor-364", output_lbns = ["FreeEagerTensor-364/out"], scope_symbol_id = 4611686018427416575 : i64, shape = [512 : si64, 512 : si64, 3 : si64, 3 : si64], trainable = false} : () -> tensor<512x512x3x3xf32>
    %output_220 = "oneflow.variable"() {data_type = 2 : i32, device_name = ["@0:0"], device_tag = "cpu", hierarchy = [1], nd_sbp = ["B"], op_name = "FreeEagerTensor-366", output_lbns = ["FreeEagerTensor-366/out"], scope_symbol_id = 4611686018427416575 : i64, shape = [512 : si64], trainable = false} : () -> tensor<512xf32>
    %output_221 = "oneflow.variable"() {data_type = 2 : i32, device_name = ["@0:0"], device_tag = "cpu", hierarchy = [1], nd_sbp = ["B"], op_name = "FreeEagerTensor-367", output_lbns = ["FreeEagerTensor-367/out"], scope_symbol_id = 4611686018427416575 : i64, shape = [512 : si64], trainable = false} : () -> tensor<512xf32>
    %output_222 = "oneflow.variable"() {data_type = 2 : i32, device_name = ["@0:0"], device_tag = "cpu", hierarchy = [1], nd_sbp = ["B"], op_name = "FreeEagerTensor-368", output_lbns = ["FreeEagerTensor-368/out"], scope_symbol_id = 4611686018427416575 : i64, shape = [512 : si64], trainable = false} : () -> tensor<512xf32>
    %output_223 = "oneflow.variable"() {data_type = 2 : i32, device_name = ["@0:0"], device_tag = "cpu", hierarchy = [1], nd_sbp = ["B"], op_name = "FreeEagerTensor-369", output_lbns = ["FreeEagerTensor-369/out"], scope_symbol_id = 4611686018427416575 : i64, shape = [512 : si64], trainable = false} : () -> tensor<512xf32>
    %output_224 = "oneflow.variable"() {data_type = 2 : i32, device_name = ["@0:0"], device_tag = "cpu", hierarchy = [1], nd_sbp = ["B"], op_name = "FreeEagerTensor-372", output_lbns = ["FreeEagerTensor-372/out"], scope_symbol_id = 4611686018427416575 : i64, shape = [2048 : si64, 512 : si64, 1 : si64, 1 : si64], trainable = false} : () -> tensor<2048x512x1x1xf32>
    %output_225 = "oneflow.variable"() {data_type = 2 : i32, device_name = ["@0:0"], device_tag = "cpu", hierarchy = [1], nd_sbp = ["B"], op_name = "FreeEagerTensor-374", output_lbns = ["FreeEagerTensor-374/out"], scope_symbol_id = 4611686018427416575 : i64, shape = [2048 : si64], trainable = false} : () -> tensor<2048xf32>
    %output_226 = "oneflow.variable"() {data_type = 2 : i32, device_name = ["@0:0"], device_tag = "cpu", hierarchy = [1], nd_sbp = ["B"], op_name = "FreeEagerTensor-375", output_lbns = ["FreeEagerTensor-375/out"], scope_symbol_id = 4611686018427416575 : i64, shape = [2048 : si64], trainable = false} : () -> tensor<2048xf32>
    %output_227 = "oneflow.variable"() {data_type = 2 : i32, device_name = ["@0:0"], device_tag = "cpu", hierarchy = [1], nd_sbp = ["B"], op_name = "FreeEagerTensor-376", output_lbns = ["FreeEagerTensor-376/out"], scope_symbol_id = 4611686018427416575 : i64, shape = [2048 : si64], trainable = false} : () -> tensor<2048xf32>
    %output_228 = "oneflow.variable"() {data_type = 2 : i32, device_name = ["@0:0"], device_tag = "cpu", hierarchy = [1], nd_sbp = ["B"], op_name = "FreeEagerTensor-377", output_lbns = ["FreeEagerTensor-377/out"], scope_symbol_id = 4611686018427416575 : i64, shape = [2048 : si64], trainable = false} : () -> tensor<2048xf32>
    %output_229 = "oneflow.variable"() {data_type = 2 : i32, device_name = ["@0:0"], device_tag = "cpu", hierarchy = [1], nd_sbp = ["B"], op_name = "FreeEagerTensor-379", output_lbns = ["FreeEagerTensor-379/out"], scope_symbol_id = 4611686018427416575 : i64, shape = [2048 : si64, 1024 : si64, 1 : si64, 1 : si64], trainable = false} : () -> tensor<2048x1024x1x1xf32>
    %output_230 = "oneflow.variable"() {data_type = 2 : i32, device_name = ["@0:0"], device_tag = "cpu", hierarchy = [1], nd_sbp = ["B"], op_name = "FreeEagerTensor-381", output_lbns = ["FreeEagerTensor-381/out"], scope_symbol_id = 4611686018427416575 : i64, shape = [2048 : si64], trainable = false} : () -> tensor<2048xf32>
    %output_231 = "oneflow.variable"() {data_type = 2 : i32, device_name = ["@0:0"], device_tag = "cpu", hierarchy = [1], nd_sbp = ["B"], op_name = "FreeEagerTensor-382", output_lbns = ["FreeEagerTensor-382/out"], scope_symbol_id = 4611686018427416575 : i64, shape = [2048 : si64], trainable = false} : () -> tensor<2048xf32>
    %output_232 = "oneflow.variable"() {data_type = 2 : i32, device_name = ["@0:0"], device_tag = "cpu", hierarchy = [1], nd_sbp = ["B"], op_name = "FreeEagerTensor-383", output_lbns = ["FreeEagerTensor-383/out"], scope_symbol_id = 4611686018427416575 : i64, shape = [2048 : si64], trainable = false} : () -> tensor<2048xf32>
    %output_233 = "oneflow.variable"() {data_type = 2 : i32, device_name = ["@0:0"], device_tag = "cpu", hierarchy = [1], nd_sbp = ["B"], op_name = "FreeEagerTensor-384", output_lbns = ["FreeEagerTensor-384/out"], scope_symbol_id = 4611686018427416575 : i64, shape = [2048 : si64], trainable = false} : () -> tensor<2048xf32>
    %output_234 = "oneflow.variable"() {data_type = 2 : i32, device_name = ["@0:0"], device_tag = "cpu", hierarchy = [1], nd_sbp = ["B"], op_name = "FreeEagerTensor-388", output_lbns = ["FreeEagerTensor-388/out"], scope_symbol_id = 4611686018427416575 : i64, shape = [512 : si64, 2048 : si64, 1 : si64, 1 : si64], trainable = false} : () -> tensor<512x2048x1x1xf32>
    %output_235 = "oneflow.variable"() {data_type = 2 : i32, device_name = ["@0:0"], device_tag = "cpu", hierarchy = [1], nd_sbp = ["B"], op_name = "FreeEagerTensor-390", output_lbns = ["FreeEagerTensor-390/out"], scope_symbol_id = 4611686018427416575 : i64, shape = [512 : si64], trainable = false} : () -> tensor<512xf32>
    %output_236 = "oneflow.variable"() {data_type = 2 : i32, device_name = ["@0:0"], device_tag = "cpu", hierarchy = [1], nd_sbp = ["B"], op_name = "FreeEagerTensor-391", output_lbns = ["FreeEagerTensor-391/out"], scope_symbol_id = 4611686018427416575 : i64, shape = [512 : si64], trainable = false} : () -> tensor<512xf32>
    %output_237 = "oneflow.variable"() {data_type = 2 : i32, device_name = ["@0:0"], device_tag = "cpu", hierarchy = [1], nd_sbp = ["B"], op_name = "FreeEagerTensor-392", output_lbns = ["FreeEagerTensor-392/out"], scope_symbol_id = 4611686018427416575 : i64, shape = [512 : si64], trainable = false} : () -> tensor<512xf32>
    %output_238 = "oneflow.variable"() {data_type = 2 : i32, device_name = ["@0:0"], device_tag = "cpu", hierarchy = [1], nd_sbp = ["B"], op_name = "FreeEagerTensor-393", output_lbns = ["FreeEagerTensor-393/out"], scope_symbol_id = 4611686018427416575 : i64, shape = [512 : si64], trainable = false} : () -> tensor<512xf32>
    %output_239 = "oneflow.variable"() {data_type = 2 : i32, device_name = ["@0:0"], device_tag = "cpu", hierarchy = [1], nd_sbp = ["B"], op_name = "FreeEagerTensor-396", output_lbns = ["FreeEagerTensor-396/out"], scope_symbol_id = 4611686018427416575 : i64, shape = [512 : si64, 512 : si64, 3 : si64, 3 : si64], trainable = false} : () -> tensor<512x512x3x3xf32>
    %output_240 = "oneflow.variable"() {data_type = 2 : i32, device_name = ["@0:0"], device_tag = "cpu", hierarchy = [1], nd_sbp = ["B"], op_name = "FreeEagerTensor-398", output_lbns = ["FreeEagerTensor-398/out"], scope_symbol_id = 4611686018427416575 : i64, shape = [512 : si64], trainable = false} : () -> tensor<512xf32>
    %output_241 = "oneflow.variable"() {data_type = 2 : i32, device_name = ["@0:0"], device_tag = "cpu", hierarchy = [1], nd_sbp = ["B"], op_name = "FreeEagerTensor-399", output_lbns = ["FreeEagerTensor-399/out"], scope_symbol_id = 4611686018427416575 : i64, shape = [512 : si64], trainable = false} : () -> tensor<512xf32>
    %output_242 = "oneflow.variable"() {data_type = 2 : i32, device_name = ["@0:0"], device_tag = "cpu", hierarchy = [1], nd_sbp = ["B"], op_name = "FreeEagerTensor-400", output_lbns = ["FreeEagerTensor-400/out"], scope_symbol_id = 4611686018427416575 : i64, shape = [512 : si64], trainable = false} : () -> tensor<512xf32>
    %output_243 = "oneflow.variable"() {data_type = 2 : i32, device_name = ["@0:0"], device_tag = "cpu", hierarchy = [1], nd_sbp = ["B"], op_name = "FreeEagerTensor-401", output_lbns = ["FreeEagerTensor-401/out"], scope_symbol_id = 4611686018427416575 : i64, shape = [512 : si64], trainable = false} : () -> tensor<512xf32>
    %output_244 = "oneflow.variable"() {data_type = 2 : i32, device_name = ["@0:0"], device_tag = "cpu", hierarchy = [1], nd_sbp = ["B"], op_name = "FreeEagerTensor-404", output_lbns = ["FreeEagerTensor-404/out"], scope_symbol_id = 4611686018427416575 : i64, shape = [2048 : si64, 512 : si64, 1 : si64, 1 : si64], trainable = false} : () -> tensor<2048x512x1x1xf32>
    %output_245 = "oneflow.variable"() {data_type = 2 : i32, device_name = ["@0:0"], device_tag = "cpu", hierarchy = [1], nd_sbp = ["B"], op_name = "FreeEagerTensor-406", output_lbns = ["FreeEagerTensor-406/out"], scope_symbol_id = 4611686018427416575 : i64, shape = [2048 : si64], trainable = false} : () -> tensor<2048xf32>
    %output_246 = "oneflow.variable"() {data_type = 2 : i32, device_name = ["@0:0"], device_tag = "cpu", hierarchy = [1], nd_sbp = ["B"], op_name = "FreeEagerTensor-407", output_lbns = ["FreeEagerTensor-407/out"], scope_symbol_id = 4611686018427416575 : i64, shape = [2048 : si64], trainable = false} : () -> tensor<2048xf32>
    %output_247 = "oneflow.variable"() {data_type = 2 : i32, device_name = ["@0:0"], device_tag = "cpu", hierarchy = [1], nd_sbp = ["B"], op_name = "FreeEagerTensor-408", output_lbns = ["FreeEagerTensor-408/out"], scope_symbol_id = 4611686018427416575 : i64, shape = [2048 : si64], trainable = false} : () -> tensor<2048xf32>
    %output_248 = "oneflow.variable"() {data_type = 2 : i32, device_name = ["@0:0"], device_tag = "cpu", hierarchy = [1], nd_sbp = ["B"], op_name = "FreeEagerTensor-409", output_lbns = ["FreeEagerTensor-409/out"], scope_symbol_id = 4611686018427416575 : i64, shape = [2048 : si64], trainable = false} : () -> tensor<2048xf32>
    %output_249 = "oneflow.variable"() {data_type = 2 : i32, device_name = ["@0:0"], device_tag = "cpu", hierarchy = [1], nd_sbp = ["B"], op_name = "FreeEagerTensor-413", output_lbns = ["FreeEagerTensor-413/out"], scope_symbol_id = 4611686018427416575 : i64, shape = [512 : si64, 2048 : si64, 1 : si64, 1 : si64], trainable = false} : () -> tensor<512x2048x1x1xf32>
    %output_250 = "oneflow.variable"() {data_type = 2 : i32, device_name = ["@0:0"], device_tag = "cpu", hierarchy = [1], nd_sbp = ["B"], op_name = "FreeEagerTensor-415", output_lbns = ["FreeEagerTensor-415/out"], scope_symbol_id = 4611686018427416575 : i64, shape = [512 : si64], trainable = false} : () -> tensor<512xf32>
    %output_251 = "oneflow.variable"() {data_type = 2 : i32, device_name = ["@0:0"], device_tag = "cpu", hierarchy = [1], nd_sbp = ["B"], op_name = "FreeEagerTensor-416", output_lbns = ["FreeEagerTensor-416/out"], scope_symbol_id = 4611686018427416575 : i64, shape = [512 : si64], trainable = false} : () -> tensor<512xf32>
    %output_252 = "oneflow.variable"() {data_type = 2 : i32, device_name = ["@0:0"], device_tag = "cpu", hierarchy = [1], nd_sbp = ["B"], op_name = "FreeEagerTensor-417", output_lbns = ["FreeEagerTensor-417/out"], scope_symbol_id = 4611686018427416575 : i64, shape = [512 : si64], trainable = false} : () -> tensor<512xf32>
    %output_253 = "oneflow.variable"() {data_type = 2 : i32, device_name = ["@0:0"], device_tag = "cpu", hierarchy = [1], nd_sbp = ["B"], op_name = "FreeEagerTensor-418", output_lbns = ["FreeEagerTensor-418/out"], scope_symbol_id = 4611686018427416575 : i64, shape = [512 : si64], trainable = false} : () -> tensor<512xf32>
    %output_254 = "oneflow.variable"() {data_type = 2 : i32, device_name = ["@0:0"], device_tag = "cpu", hierarchy = [1], nd_sbp = ["B"], op_name = "FreeEagerTensor-421", output_lbns = ["FreeEagerTensor-421/out"], scope_symbol_id = 4611686018427416575 : i64, shape = [512 : si64, 512 : si64, 3 : si64, 3 : si64], trainable = false} : () -> tensor<512x512x3x3xf32>
    %output_255 = "oneflow.variable"() {data_type = 2 : i32, device_name = ["@0:0"], device_tag = "cpu", hierarchy = [1], nd_sbp = ["B"], op_name = "FreeEagerTensor-423", output_lbns = ["FreeEagerTensor-423/out"], scope_symbol_id = 4611686018427416575 : i64, shape = [512 : si64], trainable = false} : () -> tensor<512xf32>
    %output_256 = "oneflow.variable"() {data_type = 2 : i32, device_name = ["@0:0"], device_tag = "cpu", hierarchy = [1], nd_sbp = ["B"], op_name = "FreeEagerTensor-424", output_lbns = ["FreeEagerTensor-424/out"], scope_symbol_id = 4611686018427416575 : i64, shape = [512 : si64], trainable = false} : () -> tensor<512xf32>
    %output_257 = "oneflow.variable"() {data_type = 2 : i32, device_name = ["@0:0"], device_tag = "cpu", hierarchy = [1], nd_sbp = ["B"], op_name = "FreeEagerTensor-425", output_lbns = ["FreeEagerTensor-425/out"], scope_symbol_id = 4611686018427416575 : i64, shape = [512 : si64], trainable = false} : () -> tensor<512xf32>
    %output_258 = "oneflow.variable"() {data_type = 2 : i32, device_name = ["@0:0"], device_tag = "cpu", hierarchy = [1], nd_sbp = ["B"], op_name = "FreeEagerTensor-426", output_lbns = ["FreeEagerTensor-426/out"], scope_symbol_id = 4611686018427416575 : i64, shape = [512 : si64], trainable = false} : () -> tensor<512xf32>
    %output_259 = "oneflow.variable"() {data_type = 2 : i32, device_name = ["@0:0"], device_tag = "cpu", hierarchy = [1], nd_sbp = ["B"], op_name = "FreeEagerTensor-429", output_lbns = ["FreeEagerTensor-429/out"], scope_symbol_id = 4611686018427416575 : i64, shape = [2048 : si64, 512 : si64, 1 : si64, 1 : si64], trainable = false} : () -> tensor<2048x512x1x1xf32>
    %output_260 = "oneflow.variable"() {data_type = 2 : i32, device_name = ["@0:0"], device_tag = "cpu", hierarchy = [1], nd_sbp = ["B"], op_name = "FreeEagerTensor-431", output_lbns = ["FreeEagerTensor-431/out"], scope_symbol_id = 4611686018427416575 : i64, shape = [2048 : si64], trainable = false} : () -> tensor<2048xf32>
    %output_261 = "oneflow.variable"() {data_type = 2 : i32, device_name = ["@0:0"], device_tag = "cpu", hierarchy = [1], nd_sbp = ["B"], op_name = "FreeEagerTensor-432", output_lbns = ["FreeEagerTensor-432/out"], scope_symbol_id = 4611686018427416575 : i64, shape = [2048 : si64], trainable = false} : () -> tensor<2048xf32>
    %output_262 = "oneflow.variable"() {data_type = 2 : i32, device_name = ["@0:0"], device_tag = "cpu", hierarchy = [1], nd_sbp = ["B"], op_name = "FreeEagerTensor-433", output_lbns = ["FreeEagerTensor-433/out"], scope_symbol_id = 4611686018427416575 : i64, shape = [2048 : si64], trainable = false} : () -> tensor<2048xf32>
    %output_263 = "oneflow.variable"() {data_type = 2 : i32, device_name = ["@0:0"], device_tag = "cpu", hierarchy = [1], nd_sbp = ["B"], op_name = "FreeEagerTensor-434", output_lbns = ["FreeEagerTensor-434/out"], scope_symbol_id = 4611686018427416575 : i64, shape = [2048 : si64], trainable = false} : () -> tensor<2048xf32>
    %output_264 = "oneflow.variable"() {data_type = 2 : i32, device_name = ["@0:0"], device_tag = "cpu", hierarchy = [1], nd_sbp = ["B"], op_name = "FreeEagerTensor-440", output_lbns = ["FreeEagerTensor-440/out"], scope_symbol_id = 4611686018427416575 : i64, shape = [1000 : si64, 2048 : si64], trainable = false} : () -> tensor<1000x2048xf32>
    %output_265 = "oneflow.variable"() {data_type = 2 : i32, device_name = ["@0:0"], device_tag = "cpu", hierarchy = [1], nd_sbp = ["B"], op_name = "FreeEagerTensor-442", output_lbns = ["FreeEagerTensor-442/out"], scope_symbol_id = 4611686018427416575 : i64, shape = [1000 : si64], trainable = false} : () -> tensor<1000xf32>
    %output_266 = "oneflow.input"(%arg0) {data_type = 2 : i32, device_name = ["@0:0"], device_tag = "cpu", hierarchy = [1], is_dynamic = false, nd_sbp = ["B"], op_name = "_ResnetGraph_0_input.0.0_2", output_lbns = ["_ResnetGraph_0_input.0.0_2/out"], scope_symbol_id = 4611686018427416575 : i64, shape = [16 : si64, 3 : si64, 224 : si64, 224 : si64]} : (tensor<16x3x224x224xf32>) -> tensor<16x3x224x224xf32>
    %0 = "oneflow.conv2d"(%output_266, %output) {data_format = "channels_first", device_name = ["@0:0"], device_tag = "cpu", dilation_rate = [1 : si32, 1 : si32], filters = 64 : si32, groups = 1 : si32, hierarchy = [1], kernel_size = [7 : si32, 7 : si32], op_name = "conv2d-0", operand_segment_sizes = dense<[1, 1, 0, 0]> : vector<4xi32>, output_lbns = ["conv2d-0/out_0"], padding_before = [3 : si32, 3 : si32], scope_symbol_id = 4611686018427416575 : i64, strides = [2 : si32, 2 : si32]} : (tensor<16x3x224x224xf32>, tensor<64x3x7x7xf32>) -> tensor<16x64x112x112xf32>
    %y, %mean, %inv_variance = "oneflow.normalization"(%0, %output_0, %output_1, %output_2, %output_3) {axis = 1 : si32, device_name = ["@0:0"], device_tag = "cpu", epsilon = 9.99999974E-6 : f32, hierarchy = [1], momentum = 0.899999976 : f32, op_name = "normalization-2", operand_segment_sizes = dense<[1, 1, 1, 1, 1, 0]> : vector<6xi32>, output_lbns = ["normalization-2/y_0", "normalization-2/mean_0", "normalization-2/inv_variance_0"], result_segment_sizes = dense<1> : vector<3xi32>, scope_symbol_id = 4611686018427416575 : i64, training = true} : (tensor<16x64x112x112xf32>, tensor<64xf32>, tensor<64xf32>, tensor<64xf32>, tensor<64xf32>) -> (tensor<16x64x112x112xf32>, tensor<64xf32>, tensor<64xf32>)
    %1 = "oneflow.relu"(%y) {device_name = ["@0:0"], device_tag = "cpu", hierarchy = [1], op_name = "relu-7", output_lbns = ["relu-7/y_0"], scope_symbol_id = 4611686018427416575 : i64} : (tensor<16x64x112x112xf32>) -> tensor<16x64x112x112xf32>
    %y_267, %indice = "oneflow.maxpool_2d"(%1) {ceil_mode = false, data_format = "channels_first", device_name = ["@0:0"], device_tag = "cpu", dilation = [1 : si32, 1 : si32], hierarchy = [1], kernel_size = [3 : si32, 3 : si32], op_name = "maxpool_2d-8", output_lbns = ["maxpool_2d-8/y_0", "maxpool_2d-8/indice_0"], padding = [1 : si32, 1 : si32], return_indices = false, scope_symbol_id = 4611686018427416575 : i64, stride = [2 : si32, 2 : si32]} : (tensor<16x64x112x112xf32>) -> (tensor<16x64x56x56xf32>, tensor<16x64x56x56xi64>)
    %2 = "oneflow.conv2d"(%y_267, %output_4) {data_format = "channels_first", device_name = ["@0:0"], device_tag = "cpu", dilation_rate = [1 : si32, 1 : si32], filters = 64 : si32, groups = 1 : si32, hierarchy = [1], kernel_size = [1 : si32, 1 : si32], op_name = "conv2d-9", operand_segment_sizes = dense<[1, 1, 0, 0]> : vector<4xi32>, output_lbns = ["conv2d-9/out_0"], padding_before = [0 : si32, 0 : si32], scope_symbol_id = 4611686018427416575 : i64, strides = [1 : si32, 1 : si32]} : (tensor<16x64x56x56xf32>, tensor<64x64x1x1xf32>) -> tensor<16x64x56x56xf32>
    %3 = "oneflow.conv2d"(%y_267, %output_19) {data_format = "channels_first", device_name = ["@0:0"], device_tag = "cpu", dilation_rate = [1 : si32, 1 : si32], filters = 256 : si32, groups = 1 : si32, hierarchy = [1], kernel_size = [1 : si32, 1 : si32], op_name = "conv2d-32", operand_segment_sizes = dense<[1, 1, 0, 0]> : vector<4xi32>, output_lbns = ["conv2d-32/out_0"], padding_before = [0 : si32, 0 : si32], scope_symbol_id = 4611686018427416575 : i64, strides = [1 : si32, 1 : si32]} : (tensor<16x64x56x56xf32>, tensor<256x64x1x1xf32>) -> tensor<16x256x56x56xf32>
    %y_268, %mean_269, %inv_variance_270 = "oneflow.normalization"(%2, %output_5, %output_6, %output_7, %output_8) {axis = 1 : si32, device_name = ["@0:0"], device_tag = "cpu", epsilon = 9.99999974E-6 : f32, hierarchy = [1], momentum = 0.899999976 : f32, op_name = "normalization-11", operand_segment_sizes = dense<[1, 1, 1, 1, 1, 0]> : vector<6xi32>, output_lbns = ["normalization-11/y_0", "normalization-11/mean_0", "normalization-11/inv_variance_0"], result_segment_sizes = dense<1> : vector<3xi32>, scope_symbol_id = 4611686018427416575 : i64, training = true} : (tensor<16x64x56x56xf32>, tensor<64xf32>, tensor<64xf32>, tensor<64xf32>, tensor<64xf32>) -> (tensor<16x64x56x56xf32>, tensor<64xf32>, tensor<64xf32>)
    %y_271, %mean_272, %inv_variance_273 = "oneflow.normalization"(%3, %output_20, %output_21, %output_22, %output_23) {axis = 1 : si32, device_name = ["@0:0"], device_tag = "cpu", epsilon = 9.99999974E-6 : f32, hierarchy = [1], momentum = 0.899999976 : f32, op_name = "normalization-34", operand_segment_sizes = dense<[1, 1, 1, 1, 1, 0]> : vector<6xi32>, output_lbns = ["normalization-34/y_0", "normalization-34/mean_0", "normalization-34/inv_variance_0"], result_segment_sizes = dense<1> : vector<3xi32>, scope_symbol_id = 4611686018427416575 : i64, training = true} : (tensor<16x256x56x56xf32>, tensor<256xf32>, tensor<256xf32>, tensor<256xf32>, tensor<256xf32>) -> (tensor<16x256x56x56xf32>, tensor<256xf32>, tensor<256xf32>)
    %4 = "oneflow.relu"(%y_268) {device_name = ["@0:0"], device_tag = "cpu", hierarchy = [1], op_name = "relu-16", output_lbns = ["relu-16/y_0"], scope_symbol_id = 4611686018427416575 : i64} : (tensor<16x64x56x56xf32>) -> tensor<16x64x56x56xf32>
    %5 = "oneflow.conv2d"(%4, %output_9) {data_format = "channels_first", device_name = ["@0:0"], device_tag = "cpu", dilation_rate = [1 : si32, 1 : si32], filters = 64 : si32, groups = 1 : si32, hierarchy = [1], kernel_size = [3 : si32, 3 : si32], op_name = "conv2d-17", operand_segment_sizes = dense<[1, 1, 0, 0]> : vector<4xi32>, output_lbns = ["conv2d-17/out_0"], padding_before = [1 : si32, 1 : si32], scope_symbol_id = 4611686018427416575 : i64, strides = [1 : si32, 1 : si32]} : (tensor<16x64x56x56xf32>, tensor<64x64x3x3xf32>) -> tensor<16x64x56x56xf32>
    %y_274, %mean_275, %inv_variance_276 = "oneflow.normalization"(%5, %output_10, %output_11, %output_12, %output_13) {axis = 1 : si32, device_name = ["@0:0"], device_tag = "cpu", epsilon = 9.99999974E-6 : f32, hierarchy = [1], momentum = 0.899999976 : f32, op_name = "normalization-19", operand_segment_sizes = dense<[1, 1, 1, 1, 1, 0]> : vector<6xi32>, output_lbns = ["normalization-19/y_0", "normalization-19/mean_0", "normalization-19/inv_variance_0"], result_segment_sizes = dense<1> : vector<3xi32>, scope_symbol_id = 4611686018427416575 : i64, training = true} : (tensor<16x64x56x56xf32>, tensor<64xf32>, tensor<64xf32>, tensor<64xf32>, tensor<64xf32>) -> (tensor<16x64x56x56xf32>, tensor<64xf32>, tensor<64xf32>)
    %6 = "oneflow.relu"(%y_274) {device_name = ["@0:0"], device_tag = "cpu", hierarchy = [1], op_name = "relu-24", output_lbns = ["relu-24/y_0"], scope_symbol_id = 4611686018427416575 : i64} : (tensor<16x64x56x56xf32>) -> tensor<16x64x56x56xf32>
    %7 = "oneflow.conv2d"(%6, %output_14) {data_format = "channels_first", device_name = ["@0:0"], device_tag = "cpu", dilation_rate = [1 : si32, 1 : si32], filters = 256 : si32, groups = 1 : si32, hierarchy = [1], kernel_size = [1 : si32, 1 : si32], op_name = "conv2d-25", operand_segment_sizes = dense<[1, 1, 0, 0]> : vector<4xi32>, output_lbns = ["conv2d-25/out_0"], padding_before = [0 : si32, 0 : si32], scope_symbol_id = 4611686018427416575 : i64, strides = [1 : si32, 1 : si32]} : (tensor<16x64x56x56xf32>, tensor<256x64x1x1xf32>) -> tensor<16x256x56x56xf32>
    %y_277, %reserve_space, %mean_278, %inv_variance_279 = "oneflow.normalization_add_relu"(%7, %y_271, %output_15, %output_16, %output_17, %output_18) {axis = 1 : si32, device_name = ["@0:0"], device_tag = "cpu", epsilon = 9.99999974E-6 : f32, hierarchy = [1], momentum = 0.899999976 : f32, op_name = "normalization-27", operand_segment_sizes = dense<1> : vector<6xi32>, output_lbns = ["normalization-27/y_0", "normalization-27/reserve_space_0", "normalization-27/mean_0", "normalization-27/inv_variance_0"], result_segment_sizes = dense<1> : vector<4xi32>, scope_symbol_id = 4611686018427416575 : i64, training = true} : (tensor<16x256x56x56xf32>, tensor<16x256x56x56xf32>, tensor<256xf32>, tensor<256xf32>, tensor<256xf32>, tensor<256xf32>) -> (tensor<16x256x56x56xf32>, tensor<401408xi32>, tensor<256xf32>, tensor<256xf32>)
    %8 = "oneflow.conv2d"(%y_277, %output_24) {data_format = "channels_first", device_name = ["@0:0"], device_tag = "cpu", dilation_rate = [1 : si32, 1 : si32], filters = 64 : si32, groups = 1 : si32, hierarchy = [1], kernel_size = [1 : si32, 1 : si32], op_name = "conv2d-41", operand_segment_sizes = dense<[1, 1, 0, 0]> : vector<4xi32>, output_lbns = ["conv2d-41/out_0"], padding_before = [0 : si32, 0 : si32], scope_symbol_id = 4611686018427416575 : i64, strides = [1 : si32, 1 : si32]} : (tensor<16x256x56x56xf32>, tensor<64x256x1x1xf32>) -> tensor<16x64x56x56xf32>
    %y_280, %mean_281, %inv_variance_282 = "oneflow.normalization"(%8, %output_25, %output_26, %output_27, %output_28) {axis = 1 : si32, device_name = ["@0:0"], device_tag = "cpu", epsilon = 9.99999974E-6 : f32, hierarchy = [1], momentum = 0.899999976 : f32, op_name = "normalization-43", operand_segment_sizes = dense<[1, 1, 1, 1, 1, 0]> : vector<6xi32>, output_lbns = ["normalization-43/y_0", "normalization-43/mean_0", "normalization-43/inv_variance_0"], result_segment_sizes = dense<1> : vector<3xi32>, scope_symbol_id = 4611686018427416575 : i64, training = true} : (tensor<16x64x56x56xf32>, tensor<64xf32>, tensor<64xf32>, tensor<64xf32>, tensor<64xf32>) -> (tensor<16x64x56x56xf32>, tensor<64xf32>, tensor<64xf32>)
    %9 = "oneflow.relu"(%y_280) {device_name = ["@0:0"], device_tag = "cpu", hierarchy = [1], op_name = "relu-48", output_lbns = ["relu-48/y_0"], scope_symbol_id = 4611686018427416575 : i64} : (tensor<16x64x56x56xf32>) -> tensor<16x64x56x56xf32>
    %10 = "oneflow.conv2d"(%9, %output_29) {data_format = "channels_first", device_name = ["@0:0"], device_tag = "cpu", dilation_rate = [1 : si32, 1 : si32], filters = 64 : si32, groups = 1 : si32, hierarchy = [1], kernel_size = [3 : si32, 3 : si32], op_name = "conv2d-49", operand_segment_sizes = dense<[1, 1, 0, 0]> : vector<4xi32>, output_lbns = ["conv2d-49/out_0"], padding_before = [1 : si32, 1 : si32], scope_symbol_id = 4611686018427416575 : i64, strides = [1 : si32, 1 : si32]} : (tensor<16x64x56x56xf32>, tensor<64x64x3x3xf32>) -> tensor<16x64x56x56xf32>
    %y_283, %mean_284, %inv_variance_285 = "oneflow.normalization"(%10, %output_30, %output_31, %output_32, %output_33) {axis = 1 : si32, device_name = ["@0:0"], device_tag = "cpu", epsilon = 9.99999974E-6 : f32, hierarchy = [1], momentum = 0.899999976 : f32, op_name = "normalization-51", operand_segment_sizes = dense<[1, 1, 1, 1, 1, 0]> : vector<6xi32>, output_lbns = ["normalization-51/y_0", "normalization-51/mean_0", "normalization-51/inv_variance_0"], result_segment_sizes = dense<1> : vector<3xi32>, scope_symbol_id = 4611686018427416575 : i64, training = true} : (tensor<16x64x56x56xf32>, tensor<64xf32>, tensor<64xf32>, tensor<64xf32>, tensor<64xf32>) -> (tensor<16x64x56x56xf32>, tensor<64xf32>, tensor<64xf32>)
    %11 = "oneflow.relu"(%y_283) {device_name = ["@0:0"], device_tag = "cpu", hierarchy = [1], op_name = "relu-56", output_lbns = ["relu-56/y_0"], scope_symbol_id = 4611686018427416575 : i64} : (tensor<16x64x56x56xf32>) -> tensor<16x64x56x56xf32>
    %12 = "oneflow.conv2d"(%11, %output_34) {data_format = "channels_first", device_name = ["@0:0"], device_tag = "cpu", dilation_rate = [1 : si32, 1 : si32], filters = 256 : si32, groups = 1 : si32, hierarchy = [1], kernel_size = [1 : si32, 1 : si32], op_name = "conv2d-57", operand_segment_sizes = dense<[1, 1, 0, 0]> : vector<4xi32>, output_lbns = ["conv2d-57/out_0"], padding_before = [0 : si32, 0 : si32], scope_symbol_id = 4611686018427416575 : i64, strides = [1 : si32, 1 : si32]} : (tensor<16x64x56x56xf32>, tensor<256x64x1x1xf32>) -> tensor<16x256x56x56xf32>
    %y_286, %reserve_space_287, %mean_288, %inv_variance_289 = "oneflow.normalization_add_relu"(%12, %y_277, %output_35, %output_36, %output_37, %output_38) {axis = 1 : si32, device_name = ["@0:0"], device_tag = "cpu", epsilon = 9.99999974E-6 : f32, hierarchy = [1], momentum = 0.899999976 : f32, op_name = "normalization-59", operand_segment_sizes = dense<1> : vector<6xi32>, output_lbns = ["normalization-59/y_0", "normalization-59/reserve_space_0", "normalization-59/mean_0", "normalization-59/inv_variance_0"], result_segment_sizes = dense<1> : vector<4xi32>, scope_symbol_id = 4611686018427416575 : i64, training = true} : (tensor<16x256x56x56xf32>, tensor<16x256x56x56xf32>, tensor<256xf32>, tensor<256xf32>, tensor<256xf32>, tensor<256xf32>) -> (tensor<16x256x56x56xf32>, tensor<401408xi32>, tensor<256xf32>, tensor<256xf32>)
    %13 = "oneflow.conv2d"(%y_286, %output_39) {data_format = "channels_first", device_name = ["@0:0"], device_tag = "cpu", dilation_rate = [1 : si32, 1 : si32], filters = 64 : si32, groups = 1 : si32, hierarchy = [1], kernel_size = [1 : si32, 1 : si32], op_name = "conv2d-66", operand_segment_sizes = dense<[1, 1, 0, 0]> : vector<4xi32>, output_lbns = ["conv2d-66/out_0"], padding_before = [0 : si32, 0 : si32], scope_symbol_id = 4611686018427416575 : i64, strides = [1 : si32, 1 : si32]} : (tensor<16x256x56x56xf32>, tensor<64x256x1x1xf32>) -> tensor<16x64x56x56xf32>
    %y_290, %mean_291, %inv_variance_292 = "oneflow.normalization"(%13, %output_40, %output_41, %output_42, %output_43) {axis = 1 : si32, device_name = ["@0:0"], device_tag = "cpu", epsilon = 9.99999974E-6 : f32, hierarchy = [1], momentum = 0.899999976 : f32, op_name = "normalization-68", operand_segment_sizes = dense<[1, 1, 1, 1, 1, 0]> : vector<6xi32>, output_lbns = ["normalization-68/y_0", "normalization-68/mean_0", "normalization-68/inv_variance_0"], result_segment_sizes = dense<1> : vector<3xi32>, scope_symbol_id = 4611686018427416575 : i64, training = true} : (tensor<16x64x56x56xf32>, tensor<64xf32>, tensor<64xf32>, tensor<64xf32>, tensor<64xf32>) -> (tensor<16x64x56x56xf32>, tensor<64xf32>, tensor<64xf32>)
    %14 = "oneflow.relu"(%y_290) {device_name = ["@0:0"], device_tag = "cpu", hierarchy = [1], op_name = "relu-73", output_lbns = ["relu-73/y_0"], scope_symbol_id = 4611686018427416575 : i64} : (tensor<16x64x56x56xf32>) -> tensor<16x64x56x56xf32>
    %15 = "oneflow.conv2d"(%14, %output_44) {data_format = "channels_first", device_name = ["@0:0"], device_tag = "cpu", dilation_rate = [1 : si32, 1 : si32], filters = 64 : si32, groups = 1 : si32, hierarchy = [1], kernel_size = [3 : si32, 3 : si32], op_name = "conv2d-74", operand_segment_sizes = dense<[1, 1, 0, 0]> : vector<4xi32>, output_lbns = ["conv2d-74/out_0"], padding_before = [1 : si32, 1 : si32], scope_symbol_id = 4611686018427416575 : i64, strides = [1 : si32, 1 : si32]} : (tensor<16x64x56x56xf32>, tensor<64x64x3x3xf32>) -> tensor<16x64x56x56xf32>
    %y_293, %mean_294, %inv_variance_295 = "oneflow.normalization"(%15, %output_45, %output_46, %output_47, %output_48) {axis = 1 : si32, device_name = ["@0:0"], device_tag = "cpu", epsilon = 9.99999974E-6 : f32, hierarchy = [1], momentum = 0.899999976 : f32, op_name = "normalization-76", operand_segment_sizes = dense<[1, 1, 1, 1, 1, 0]> : vector<6xi32>, output_lbns = ["normalization-76/y_0", "normalization-76/mean_0", "normalization-76/inv_variance_0"], result_segment_sizes = dense<1> : vector<3xi32>, scope_symbol_id = 4611686018427416575 : i64, training = true} : (tensor<16x64x56x56xf32>, tensor<64xf32>, tensor<64xf32>, tensor<64xf32>, tensor<64xf32>) -> (tensor<16x64x56x56xf32>, tensor<64xf32>, tensor<64xf32>)
    %16 = "oneflow.relu"(%y_293) {device_name = ["@0:0"], device_tag = "cpu", hierarchy = [1], op_name = "relu-81", output_lbns = ["relu-81/y_0"], scope_symbol_id = 4611686018427416575 : i64} : (tensor<16x64x56x56xf32>) -> tensor<16x64x56x56xf32>
    %17 = "oneflow.conv2d"(%16, %output_49) {data_format = "channels_first", device_name = ["@0:0"], device_tag = "cpu", dilation_rate = [1 : si32, 1 : si32], filters = 256 : si32, groups = 1 : si32, hierarchy = [1], kernel_size = [1 : si32, 1 : si32], op_name = "conv2d-82", operand_segment_sizes = dense<[1, 1, 0, 0]> : vector<4xi32>, output_lbns = ["conv2d-82/out_0"], padding_before = [0 : si32, 0 : si32], scope_symbol_id = 4611686018427416575 : i64, strides = [1 : si32, 1 : si32]} : (tensor<16x64x56x56xf32>, tensor<256x64x1x1xf32>) -> tensor<16x256x56x56xf32>
    %y_296, %reserve_space_297, %mean_298, %inv_variance_299 = "oneflow.normalization_add_relu"(%17, %y_286, %output_50, %output_51, %output_52, %output_53) {axis = 1 : si32, device_name = ["@0:0"], device_tag = "cpu", epsilon = 9.99999974E-6 : f32, hierarchy = [1], momentum = 0.899999976 : f32, op_name = "normalization-84", operand_segment_sizes = dense<1> : vector<6xi32>, output_lbns = ["normalization-84/y_0", "normalization-84/reserve_space_0", "normalization-84/mean_0", "normalization-84/inv_variance_0"], result_segment_sizes = dense<1> : vector<4xi32>, scope_symbol_id = 4611686018427416575 : i64, training = true} : (tensor<16x256x56x56xf32>, tensor<16x256x56x56xf32>, tensor<256xf32>, tensor<256xf32>, tensor<256xf32>, tensor<256xf32>) -> (tensor<16x256x56x56xf32>, tensor<401408xi32>, tensor<256xf32>, tensor<256xf32>)
    %18 = "oneflow.conv2d"(%y_296, %output_54) {data_format = "channels_first", device_name = ["@0:0"], device_tag = "cpu", dilation_rate = [1 : si32, 1 : si32], filters = 128 : si32, groups = 1 : si32, hierarchy = [1], kernel_size = [1 : si32, 1 : si32], op_name = "conv2d-91", operand_segment_sizes = dense<[1, 1, 0, 0]> : vector<4xi32>, output_lbns = ["conv2d-91/out_0"], padding_before = [0 : si32, 0 : si32], scope_symbol_id = 4611686018427416575 : i64, strides = [1 : si32, 1 : si32]} : (tensor<16x256x56x56xf32>, tensor<128x256x1x1xf32>) -> tensor<16x128x56x56xf32>
    %19 = "oneflow.conv2d"(%y_296, %output_69) {data_format = "channels_first", device_name = ["@0:0"], device_tag = "cpu", dilation_rate = [1 : si32, 1 : si32], filters = 512 : si32, groups = 1 : si32, hierarchy = [1], kernel_size = [1 : si32, 1 : si32], op_name = "conv2d-114", operand_segment_sizes = dense<[1, 1, 0, 0]> : vector<4xi32>, output_lbns = ["conv2d-114/out_0"], padding_before = [0 : si32, 0 : si32], scope_symbol_id = 4611686018427416575 : i64, strides = [2 : si32, 2 : si32]} : (tensor<16x256x56x56xf32>, tensor<512x256x1x1xf32>) -> tensor<16x512x28x28xf32>
    %y_300, %mean_301, %inv_variance_302 = "oneflow.normalization"(%18, %output_55, %output_56, %output_57, %output_58) {axis = 1 : si32, device_name = ["@0:0"], device_tag = "cpu", epsilon = 9.99999974E-6 : f32, hierarchy = [1], momentum = 0.899999976 : f32, op_name = "normalization-93", operand_segment_sizes = dense<[1, 1, 1, 1, 1, 0]> : vector<6xi32>, output_lbns = ["normalization-93/y_0", "normalization-93/mean_0", "normalization-93/inv_variance_0"], result_segment_sizes = dense<1> : vector<3xi32>, scope_symbol_id = 4611686018427416575 : i64, training = true} : (tensor<16x128x56x56xf32>, tensor<128xf32>, tensor<128xf32>, tensor<128xf32>, tensor<128xf32>) -> (tensor<16x128x56x56xf32>, tensor<128xf32>, tensor<128xf32>)
    %y_303, %mean_304, %inv_variance_305 = "oneflow.normalization"(%19, %output_70, %output_71, %output_72, %output_73) {axis = 1 : si32, device_name = ["@0:0"], device_tag = "cpu", epsilon = 9.99999974E-6 : f32, hierarchy = [1], momentum = 0.899999976 : f32, op_name = "normalization-116", operand_segment_sizes = dense<[1, 1, 1, 1, 1, 0]> : vector<6xi32>, output_lbns = ["normalization-116/y_0", "normalization-116/mean_0", "normalization-116/inv_variance_0"], result_segment_sizes = dense<1> : vector<3xi32>, scope_symbol_id = 4611686018427416575 : i64, training = true} : (tensor<16x512x28x28xf32>, tensor<512xf32>, tensor<512xf32>, tensor<512xf32>, tensor<512xf32>) -> (tensor<16x512x28x28xf32>, tensor<512xf32>, tensor<512xf32>)
    %20 = "oneflow.relu"(%y_300) {device_name = ["@0:0"], device_tag = "cpu", hierarchy = [1], op_name = "relu-98", output_lbns = ["relu-98/y_0"], scope_symbol_id = 4611686018427416575 : i64} : (tensor<16x128x56x56xf32>) -> tensor<16x128x56x56xf32>
    %21 = "oneflow.conv2d"(%20, %output_59) {data_format = "channels_first", device_name = ["@0:0"], device_tag = "cpu", dilation_rate = [1 : si32, 1 : si32], filters = 128 : si32, groups = 1 : si32, hierarchy = [1], kernel_size = [3 : si32, 3 : si32], op_name = "conv2d-99", operand_segment_sizes = dense<[1, 1, 0, 0]> : vector<4xi32>, output_lbns = ["conv2d-99/out_0"], padding_before = [1 : si32, 1 : si32], scope_symbol_id = 4611686018427416575 : i64, strides = [2 : si32, 2 : si32]} : (tensor<16x128x56x56xf32>, tensor<128x128x3x3xf32>) -> tensor<16x128x28x28xf32>
    %y_306, %mean_307, %inv_variance_308 = "oneflow.normalization"(%21, %output_60, %output_61, %output_62, %output_63) {axis = 1 : si32, device_name = ["@0:0"], device_tag = "cpu", epsilon = 9.99999974E-6 : f32, hierarchy = [1], momentum = 0.899999976 : f32, op_name = "normalization-101", operand_segment_sizes = dense<[1, 1, 1, 1, 1, 0]> : vector<6xi32>, output_lbns = ["normalization-101/y_0", "normalization-101/mean_0", "normalization-101/inv_variance_0"], result_segment_sizes = dense<1> : vector<3xi32>, scope_symbol_id = 4611686018427416575 : i64, training = true} : (tensor<16x128x28x28xf32>, tensor<128xf32>, tensor<128xf32>, tensor<128xf32>, tensor<128xf32>) -> (tensor<16x128x28x28xf32>, tensor<128xf32>, tensor<128xf32>)
    %22 = "oneflow.relu"(%y_306) {device_name = ["@0:0"], device_tag = "cpu", hierarchy = [1], op_name = "relu-106", output_lbns = ["relu-106/y_0"], scope_symbol_id = 4611686018427416575 : i64} : (tensor<16x128x28x28xf32>) -> tensor<16x128x28x28xf32>
    %23 = "oneflow.conv2d"(%22, %output_64) {data_format = "channels_first", device_name = ["@0:0"], device_tag = "cpu", dilation_rate = [1 : si32, 1 : si32], filters = 512 : si32, groups = 1 : si32, hierarchy = [1], kernel_size = [1 : si32, 1 : si32], op_name = "conv2d-107", operand_segment_sizes = dense<[1, 1, 0, 0]> : vector<4xi32>, output_lbns = ["conv2d-107/out_0"], padding_before = [0 : si32, 0 : si32], scope_symbol_id = 4611686018427416575 : i64, strides = [1 : si32, 1 : si32]} : (tensor<16x128x28x28xf32>, tensor<512x128x1x1xf32>) -> tensor<16x512x28x28xf32>
    %y_309, %reserve_space_310, %mean_311, %inv_variance_312 = "oneflow.normalization_add_relu"(%23, %y_303, %output_65, %output_66, %output_67, %output_68) {axis = 1 : si32, device_name = ["@0:0"], device_tag = "cpu", epsilon = 9.99999974E-6 : f32, hierarchy = [1], momentum = 0.899999976 : f32, op_name = "normalization-109", operand_segment_sizes = dense<1> : vector<6xi32>, output_lbns = ["normalization-109/y_0", "normalization-109/reserve_space_0", "normalization-109/mean_0", "normalization-109/inv_variance_0"], result_segment_sizes = dense<1> : vector<4xi32>, scope_symbol_id = 4611686018427416575 : i64, training = true} : (tensor<16x512x28x28xf32>, tensor<16x512x28x28xf32>, tensor<512xf32>, tensor<512xf32>, tensor<512xf32>, tensor<512xf32>) -> (tensor<16x512x28x28xf32>, tensor<200704xi32>, tensor<512xf32>, tensor<512xf32>)
    %24 = "oneflow.conv2d"(%y_309, %output_74) {data_format = "channels_first", device_name = ["@0:0"], device_tag = "cpu", dilation_rate = [1 : si32, 1 : si32], filters = 128 : si32, groups = 1 : si32, hierarchy = [1], kernel_size = [1 : si32, 1 : si32], op_name = "conv2d-123", operand_segment_sizes = dense<[1, 1, 0, 0]> : vector<4xi32>, output_lbns = ["conv2d-123/out_0"], padding_before = [0 : si32, 0 : si32], scope_symbol_id = 4611686018427416575 : i64, strides = [1 : si32, 1 : si32]} : (tensor<16x512x28x28xf32>, tensor<128x512x1x1xf32>) -> tensor<16x128x28x28xf32>
    %y_313, %mean_314, %inv_variance_315 = "oneflow.normalization"(%24, %output_75, %output_76, %output_77, %output_78) {axis = 1 : si32, device_name = ["@0:0"], device_tag = "cpu", epsilon = 9.99999974E-6 : f32, hierarchy = [1], momentum = 0.899999976 : f32, op_name = "normalization-125", operand_segment_sizes = dense<[1, 1, 1, 1, 1, 0]> : vector<6xi32>, output_lbns = ["normalization-125/y_0", "normalization-125/mean_0", "normalization-125/inv_variance_0"], result_segment_sizes = dense<1> : vector<3xi32>, scope_symbol_id = 4611686018427416575 : i64, training = true} : (tensor<16x128x28x28xf32>, tensor<128xf32>, tensor<128xf32>, tensor<128xf32>, tensor<128xf32>) -> (tensor<16x128x28x28xf32>, tensor<128xf32>, tensor<128xf32>)
    %25 = "oneflow.relu"(%y_313) {device_name = ["@0:0"], device_tag = "cpu", hierarchy = [1], op_name = "relu-130", output_lbns = ["relu-130/y_0"], scope_symbol_id = 4611686018427416575 : i64} : (tensor<16x128x28x28xf32>) -> tensor<16x128x28x28xf32>
    %26 = "oneflow.conv2d"(%25, %output_79) {data_format = "channels_first", device_name = ["@0:0"], device_tag = "cpu", dilation_rate = [1 : si32, 1 : si32], filters = 128 : si32, groups = 1 : si32, hierarchy = [1], kernel_size = [3 : si32, 3 : si32], op_name = "conv2d-131", operand_segment_sizes = dense<[1, 1, 0, 0]> : vector<4xi32>, output_lbns = ["conv2d-131/out_0"], padding_before = [1 : si32, 1 : si32], scope_symbol_id = 4611686018427416575 : i64, strides = [1 : si32, 1 : si32]} : (tensor<16x128x28x28xf32>, tensor<128x128x3x3xf32>) -> tensor<16x128x28x28xf32>
    %y_316, %mean_317, %inv_variance_318 = "oneflow.normalization"(%26, %output_80, %output_81, %output_82, %output_83) {axis = 1 : si32, device_name = ["@0:0"], device_tag = "cpu", epsilon = 9.99999974E-6 : f32, hierarchy = [1], momentum = 0.899999976 : f32, op_name = "normalization-133", operand_segment_sizes = dense<[1, 1, 1, 1, 1, 0]> : vector<6xi32>, output_lbns = ["normalization-133/y_0", "normalization-133/mean_0", "normalization-133/inv_variance_0"], result_segment_sizes = dense<1> : vector<3xi32>, scope_symbol_id = 4611686018427416575 : i64, training = true} : (tensor<16x128x28x28xf32>, tensor<128xf32>, tensor<128xf32>, tensor<128xf32>, tensor<128xf32>) -> (tensor<16x128x28x28xf32>, tensor<128xf32>, tensor<128xf32>)
    %27 = "oneflow.relu"(%y_316) {device_name = ["@0:0"], device_tag = "cpu", hierarchy = [1], op_name = "relu-138", output_lbns = ["relu-138/y_0"], scope_symbol_id = 4611686018427416575 : i64} : (tensor<16x128x28x28xf32>) -> tensor<16x128x28x28xf32>
    %28 = "oneflow.conv2d"(%27, %output_84) {data_format = "channels_first", device_name = ["@0:0"], device_tag = "cpu", dilation_rate = [1 : si32, 1 : si32], filters = 512 : si32, groups = 1 : si32, hierarchy = [1], kernel_size = [1 : si32, 1 : si32], op_name = "conv2d-139", operand_segment_sizes = dense<[1, 1, 0, 0]> : vector<4xi32>, output_lbns = ["conv2d-139/out_0"], padding_before = [0 : si32, 0 : si32], scope_symbol_id = 4611686018427416575 : i64, strides = [1 : si32, 1 : si32]} : (tensor<16x128x28x28xf32>, tensor<512x128x1x1xf32>) -> tensor<16x512x28x28xf32>
    %y_319, %reserve_space_320, %mean_321, %inv_variance_322 = "oneflow.normalization_add_relu"(%28, %y_309, %output_85, %output_86, %output_87, %output_88) {axis = 1 : si32, device_name = ["@0:0"], device_tag = "cpu", epsilon = 9.99999974E-6 : f32, hierarchy = [1], momentum = 0.899999976 : f32, op_name = "normalization-141", operand_segment_sizes = dense<1> : vector<6xi32>, output_lbns = ["normalization-141/y_0", "normalization-141/reserve_space_0", "normalization-141/mean_0", "normalization-141/inv_variance_0"], result_segment_sizes = dense<1> : vector<4xi32>, scope_symbol_id = 4611686018427416575 : i64, training = true} : (tensor<16x512x28x28xf32>, tensor<16x512x28x28xf32>, tensor<512xf32>, tensor<512xf32>, tensor<512xf32>, tensor<512xf32>) -> (tensor<16x512x28x28xf32>, tensor<200704xi32>, tensor<512xf32>, tensor<512xf32>)
    %29 = "oneflow.conv2d"(%y_319, %output_89) {data_format = "channels_first", device_name = ["@0:0"], device_tag = "cpu", dilation_rate = [1 : si32, 1 : si32], filters = 128 : si32, groups = 1 : si32, hierarchy = [1], kernel_size = [1 : si32, 1 : si32], op_name = "conv2d-148", operand_segment_sizes = dense<[1, 1, 0, 0]> : vector<4xi32>, output_lbns = ["conv2d-148/out_0"], padding_before = [0 : si32, 0 : si32], scope_symbol_id = 4611686018427416575 : i64, strides = [1 : si32, 1 : si32]} : (tensor<16x512x28x28xf32>, tensor<128x512x1x1xf32>) -> tensor<16x128x28x28xf32>
    %y_323, %mean_324, %inv_variance_325 = "oneflow.normalization"(%29, %output_90, %output_91, %output_92, %output_93) {axis = 1 : si32, device_name = ["@0:0"], device_tag = "cpu", epsilon = 9.99999974E-6 : f32, hierarchy = [1], momentum = 0.899999976 : f32, op_name = "normalization-150", operand_segment_sizes = dense<[1, 1, 1, 1, 1, 0]> : vector<6xi32>, output_lbns = ["normalization-150/y_0", "normalization-150/mean_0", "normalization-150/inv_variance_0"], result_segment_sizes = dense<1> : vector<3xi32>, scope_symbol_id = 4611686018427416575 : i64, training = true} : (tensor<16x128x28x28xf32>, tensor<128xf32>, tensor<128xf32>, tensor<128xf32>, tensor<128xf32>) -> (tensor<16x128x28x28xf32>, tensor<128xf32>, tensor<128xf32>)
    %30 = "oneflow.relu"(%y_323) {device_name = ["@0:0"], device_tag = "cpu", hierarchy = [1], op_name = "relu-155", output_lbns = ["relu-155/y_0"], scope_symbol_id = 4611686018427416575 : i64} : (tensor<16x128x28x28xf32>) -> tensor<16x128x28x28xf32>
    %31 = "oneflow.conv2d"(%30, %output_94) {data_format = "channels_first", device_name = ["@0:0"], device_tag = "cpu", dilation_rate = [1 : si32, 1 : si32], filters = 128 : si32, groups = 1 : si32, hierarchy = [1], kernel_size = [3 : si32, 3 : si32], op_name = "conv2d-156", operand_segment_sizes = dense<[1, 1, 0, 0]> : vector<4xi32>, output_lbns = ["conv2d-156/out_0"], padding_before = [1 : si32, 1 : si32], scope_symbol_id = 4611686018427416575 : i64, strides = [1 : si32, 1 : si32]} : (tensor<16x128x28x28xf32>, tensor<128x128x3x3xf32>) -> tensor<16x128x28x28xf32>
    %y_326, %mean_327, %inv_variance_328 = "oneflow.normalization"(%31, %output_95, %output_96, %output_97, %output_98) {axis = 1 : si32, device_name = ["@0:0"], device_tag = "cpu", epsilon = 9.99999974E-6 : f32, hierarchy = [1], momentum = 0.899999976 : f32, op_name = "normalization-158", operand_segment_sizes = dense<[1, 1, 1, 1, 1, 0]> : vector<6xi32>, output_lbns = ["normalization-158/y_0", "normalization-158/mean_0", "normalization-158/inv_variance_0"], result_segment_sizes = dense<1> : vector<3xi32>, scope_symbol_id = 4611686018427416575 : i64, training = true} : (tensor<16x128x28x28xf32>, tensor<128xf32>, tensor<128xf32>, tensor<128xf32>, tensor<128xf32>) -> (tensor<16x128x28x28xf32>, tensor<128xf32>, tensor<128xf32>)
    %32 = "oneflow.relu"(%y_326) {device_name = ["@0:0"], device_tag = "cpu", hierarchy = [1], op_name = "relu-163", output_lbns = ["relu-163/y_0"], scope_symbol_id = 4611686018427416575 : i64} : (tensor<16x128x28x28xf32>) -> tensor<16x128x28x28xf32>
    %33 = "oneflow.conv2d"(%32, %output_99) {data_format = "channels_first", device_name = ["@0:0"], device_tag = "cpu", dilation_rate = [1 : si32, 1 : si32], filters = 512 : si32, groups = 1 : si32, hierarchy = [1], kernel_size = [1 : si32, 1 : si32], op_name = "conv2d-164", operand_segment_sizes = dense<[1, 1, 0, 0]> : vector<4xi32>, output_lbns = ["conv2d-164/out_0"], padding_before = [0 : si32, 0 : si32], scope_symbol_id = 4611686018427416575 : i64, strides = [1 : si32, 1 : si32]} : (tensor<16x128x28x28xf32>, tensor<512x128x1x1xf32>) -> tensor<16x512x28x28xf32>
    %y_329, %reserve_space_330, %mean_331, %inv_variance_332 = "oneflow.normalization_add_relu"(%33, %y_319, %output_100, %output_101, %output_102, %output_103) {axis = 1 : si32, device_name = ["@0:0"], device_tag = "cpu", epsilon = 9.99999974E-6 : f32, hierarchy = [1], momentum = 0.899999976 : f32, op_name = "normalization-166", operand_segment_sizes = dense<1> : vector<6xi32>, output_lbns = ["normalization-166/y_0", "normalization-166/reserve_space_0", "normalization-166/mean_0", "normalization-166/inv_variance_0"], result_segment_sizes = dense<1> : vector<4xi32>, scope_symbol_id = 4611686018427416575 : i64, training = true} : (tensor<16x512x28x28xf32>, tensor<16x512x28x28xf32>, tensor<512xf32>, tensor<512xf32>, tensor<512xf32>, tensor<512xf32>) -> (tensor<16x512x28x28xf32>, tensor<200704xi32>, tensor<512xf32>, tensor<512xf32>)
    %34 = "oneflow.conv2d"(%y_329, %output_104) {data_format = "channels_first", device_name = ["@0:0"], device_tag = "cpu", dilation_rate = [1 : si32, 1 : si32], filters = 128 : si32, groups = 1 : si32, hierarchy = [1], kernel_size = [1 : si32, 1 : si32], op_name = "conv2d-173", operand_segment_sizes = dense<[1, 1, 0, 0]> : vector<4xi32>, output_lbns = ["conv2d-173/out_0"], padding_before = [0 : si32, 0 : si32], scope_symbol_id = 4611686018427416575 : i64, strides = [1 : si32, 1 : si32]} : (tensor<16x512x28x28xf32>, tensor<128x512x1x1xf32>) -> tensor<16x128x28x28xf32>
    %y_333, %mean_334, %inv_variance_335 = "oneflow.normalization"(%34, %output_105, %output_106, %output_107, %output_108) {axis = 1 : si32, device_name = ["@0:0"], device_tag = "cpu", epsilon = 9.99999974E-6 : f32, hierarchy = [1], momentum = 0.899999976 : f32, op_name = "normalization-175", operand_segment_sizes = dense<[1, 1, 1, 1, 1, 0]> : vector<6xi32>, output_lbns = ["normalization-175/y_0", "normalization-175/mean_0", "normalization-175/inv_variance_0"], result_segment_sizes = dense<1> : vector<3xi32>, scope_symbol_id = 4611686018427416575 : i64, training = true} : (tensor<16x128x28x28xf32>, tensor<128xf32>, tensor<128xf32>, tensor<128xf32>, tensor<128xf32>) -> (tensor<16x128x28x28xf32>, tensor<128xf32>, tensor<128xf32>)
    %35 = "oneflow.relu"(%y_333) {device_name = ["@0:0"], device_tag = "cpu", hierarchy = [1], op_name = "relu-180", output_lbns = ["relu-180/y_0"], scope_symbol_id = 4611686018427416575 : i64} : (tensor<16x128x28x28xf32>) -> tensor<16x128x28x28xf32>
    %36 = "oneflow.conv2d"(%35, %output_109) {data_format = "channels_first", device_name = ["@0:0"], device_tag = "cpu", dilation_rate = [1 : si32, 1 : si32], filters = 128 : si32, groups = 1 : si32, hierarchy = [1], kernel_size = [3 : si32, 3 : si32], op_name = "conv2d-181", operand_segment_sizes = dense<[1, 1, 0, 0]> : vector<4xi32>, output_lbns = ["conv2d-181/out_0"], padding_before = [1 : si32, 1 : si32], scope_symbol_id = 4611686018427416575 : i64, strides = [1 : si32, 1 : si32]} : (tensor<16x128x28x28xf32>, tensor<128x128x3x3xf32>) -> tensor<16x128x28x28xf32>
    %y_336, %mean_337, %inv_variance_338 = "oneflow.normalization"(%36, %output_110, %output_111, %output_112, %output_113) {axis = 1 : si32, device_name = ["@0:0"], device_tag = "cpu", epsilon = 9.99999974E-6 : f32, hierarchy = [1], momentum = 0.899999976 : f32, op_name = "normalization-183", operand_segment_sizes = dense<[1, 1, 1, 1, 1, 0]> : vector<6xi32>, output_lbns = ["normalization-183/y_0", "normalization-183/mean_0", "normalization-183/inv_variance_0"], result_segment_sizes = dense<1> : vector<3xi32>, scope_symbol_id = 4611686018427416575 : i64, training = true} : (tensor<16x128x28x28xf32>, tensor<128xf32>, tensor<128xf32>, tensor<128xf32>, tensor<128xf32>) -> (tensor<16x128x28x28xf32>, tensor<128xf32>, tensor<128xf32>)
    %37 = "oneflow.relu"(%y_336) {device_name = ["@0:0"], device_tag = "cpu", hierarchy = [1], op_name = "relu-188", output_lbns = ["relu-188/y_0"], scope_symbol_id = 4611686018427416575 : i64} : (tensor<16x128x28x28xf32>) -> tensor<16x128x28x28xf32>
    %38 = "oneflow.conv2d"(%37, %output_114) {data_format = "channels_first", device_name = ["@0:0"], device_tag = "cpu", dilation_rate = [1 : si32, 1 : si32], filters = 512 : si32, groups = 1 : si32, hierarchy = [1], kernel_size = [1 : si32, 1 : si32], op_name = "conv2d-189", operand_segment_sizes = dense<[1, 1, 0, 0]> : vector<4xi32>, output_lbns = ["conv2d-189/out_0"], padding_before = [0 : si32, 0 : si32], scope_symbol_id = 4611686018427416575 : i64, strides = [1 : si32, 1 : si32]} : (tensor<16x128x28x28xf32>, tensor<512x128x1x1xf32>) -> tensor<16x512x28x28xf32>
    %y_339, %reserve_space_340, %mean_341, %inv_variance_342 = "oneflow.normalization_add_relu"(%38, %y_329, %output_115, %output_116, %output_117, %output_118) {axis = 1 : si32, device_name = ["@0:0"], device_tag = "cpu", epsilon = 9.99999974E-6 : f32, hierarchy = [1], momentum = 0.899999976 : f32, op_name = "normalization-191", operand_segment_sizes = dense<1> : vector<6xi32>, output_lbns = ["normalization-191/y_0", "normalization-191/reserve_space_0", "normalization-191/mean_0", "normalization-191/inv_variance_0"], result_segment_sizes = dense<1> : vector<4xi32>, scope_symbol_id = 4611686018427416575 : i64, training = true} : (tensor<16x512x28x28xf32>, tensor<16x512x28x28xf32>, tensor<512xf32>, tensor<512xf32>, tensor<512xf32>, tensor<512xf32>) -> (tensor<16x512x28x28xf32>, tensor<200704xi32>, tensor<512xf32>, tensor<512xf32>)
    %39 = "oneflow.conv2d"(%y_339, %output_119) {data_format = "channels_first", device_name = ["@0:0"], device_tag = "cpu", dilation_rate = [1 : si32, 1 : si32], filters = 256 : si32, groups = 1 : si32, hierarchy = [1], kernel_size = [1 : si32, 1 : si32], op_name = "conv2d-198", operand_segment_sizes = dense<[1, 1, 0, 0]> : vector<4xi32>, output_lbns = ["conv2d-198/out_0"], padding_before = [0 : si32, 0 : si32], scope_symbol_id = 4611686018427416575 : i64, strides = [1 : si32, 1 : si32]} : (tensor<16x512x28x28xf32>, tensor<256x512x1x1xf32>) -> tensor<16x256x28x28xf32>
    %40 = "oneflow.conv2d"(%y_339, %output_134) {data_format = "channels_first", device_name = ["@0:0"], device_tag = "cpu", dilation_rate = [1 : si32, 1 : si32], filters = 1024 : si32, groups = 1 : si32, hierarchy = [1], kernel_size = [1 : si32, 1 : si32], op_name = "conv2d-221", operand_segment_sizes = dense<[1, 1, 0, 0]> : vector<4xi32>, output_lbns = ["conv2d-221/out_0"], padding_before = [0 : si32, 0 : si32], scope_symbol_id = 4611686018427416575 : i64, strides = [2 : si32, 2 : si32]} : (tensor<16x512x28x28xf32>, tensor<1024x512x1x1xf32>) -> tensor<16x1024x14x14xf32>
    %y_343, %mean_344, %inv_variance_345 = "oneflow.normalization"(%39, %output_120, %output_121, %output_122, %output_123) {axis = 1 : si32, device_name = ["@0:0"], device_tag = "cpu", epsilon = 9.99999974E-6 : f32, hierarchy = [1], momentum = 0.899999976 : f32, op_name = "normalization-200", operand_segment_sizes = dense<[1, 1, 1, 1, 1, 0]> : vector<6xi32>, output_lbns = ["normalization-200/y_0", "normalization-200/mean_0", "normalization-200/inv_variance_0"], result_segment_sizes = dense<1> : vector<3xi32>, scope_symbol_id = 4611686018427416575 : i64, training = true} : (tensor<16x256x28x28xf32>, tensor<256xf32>, tensor<256xf32>, tensor<256xf32>, tensor<256xf32>) -> (tensor<16x256x28x28xf32>, tensor<256xf32>, tensor<256xf32>)
    %y_346, %mean_347, %inv_variance_348 = "oneflow.normalization"(%40, %output_135, %output_136, %output_137, %output_138) {axis = 1 : si32, device_name = ["@0:0"], device_tag = "cpu", epsilon = 9.99999974E-6 : f32, hierarchy = [1], momentum = 0.899999976 : f32, op_name = "normalization-223", operand_segment_sizes = dense<[1, 1, 1, 1, 1, 0]> : vector<6xi32>, output_lbns = ["normalization-223/y_0", "normalization-223/mean_0", "normalization-223/inv_variance_0"], result_segment_sizes = dense<1> : vector<3xi32>, scope_symbol_id = 4611686018427416575 : i64, training = true} : (tensor<16x1024x14x14xf32>, tensor<1024xf32>, tensor<1024xf32>, tensor<1024xf32>, tensor<1024xf32>) -> (tensor<16x1024x14x14xf32>, tensor<1024xf32>, tensor<1024xf32>)
    %41 = "oneflow.relu"(%y_343) {device_name = ["@0:0"], device_tag = "cpu", hierarchy = [1], op_name = "relu-205", output_lbns = ["relu-205/y_0"], scope_symbol_id = 4611686018427416575 : i64} : (tensor<16x256x28x28xf32>) -> tensor<16x256x28x28xf32>
    %42 = "oneflow.conv2d"(%41, %output_124) {data_format = "channels_first", device_name = ["@0:0"], device_tag = "cpu", dilation_rate = [1 : si32, 1 : si32], filters = 256 : si32, groups = 1 : si32, hierarchy = [1], kernel_size = [3 : si32, 3 : si32], op_name = "conv2d-206", operand_segment_sizes = dense<[1, 1, 0, 0]> : vector<4xi32>, output_lbns = ["conv2d-206/out_0"], padding_before = [1 : si32, 1 : si32], scope_symbol_id = 4611686018427416575 : i64, strides = [2 : si32, 2 : si32]} : (tensor<16x256x28x28xf32>, tensor<256x256x3x3xf32>) -> tensor<16x256x14x14xf32>
    %y_349, %mean_350, %inv_variance_351 = "oneflow.normalization"(%42, %output_125, %output_126, %output_127, %output_128) {axis = 1 : si32, device_name = ["@0:0"], device_tag = "cpu", epsilon = 9.99999974E-6 : f32, hierarchy = [1], momentum = 0.899999976 : f32, op_name = "normalization-208", operand_segment_sizes = dense<[1, 1, 1, 1, 1, 0]> : vector<6xi32>, output_lbns = ["normalization-208/y_0", "normalization-208/mean_0", "normalization-208/inv_variance_0"], result_segment_sizes = dense<1> : vector<3xi32>, scope_symbol_id = 4611686018427416575 : i64, training = true} : (tensor<16x256x14x14xf32>, tensor<256xf32>, tensor<256xf32>, tensor<256xf32>, tensor<256xf32>) -> (tensor<16x256x14x14xf32>, tensor<256xf32>, tensor<256xf32>)
    %43 = "oneflow.relu"(%y_349) {device_name = ["@0:0"], device_tag = "cpu", hierarchy = [1], op_name = "relu-213", output_lbns = ["relu-213/y_0"], scope_symbol_id = 4611686018427416575 : i64} : (tensor<16x256x14x14xf32>) -> tensor<16x256x14x14xf32>
    %44 = "oneflow.conv2d"(%43, %output_129) {data_format = "channels_first", device_name = ["@0:0"], device_tag = "cpu", dilation_rate = [1 : si32, 1 : si32], filters = 1024 : si32, groups = 1 : si32, hierarchy = [1], kernel_size = [1 : si32, 1 : si32], op_name = "conv2d-214", operand_segment_sizes = dense<[1, 1, 0, 0]> : vector<4xi32>, output_lbns = ["conv2d-214/out_0"], padding_before = [0 : si32, 0 : si32], scope_symbol_id = 4611686018427416575 : i64, strides = [1 : si32, 1 : si32]} : (tensor<16x256x14x14xf32>, tensor<1024x256x1x1xf32>) -> tensor<16x1024x14x14xf32>
    %y_352, %reserve_space_353, %mean_354, %inv_variance_355 = "oneflow.normalization_add_relu"(%44, %y_346, %output_130, %output_131, %output_132, %output_133) {axis = 1 : si32, device_name = ["@0:0"], device_tag = "cpu", epsilon = 9.99999974E-6 : f32, hierarchy = [1], momentum = 0.899999976 : f32, op_name = "normalization-216", operand_segment_sizes = dense<1> : vector<6xi32>, output_lbns = ["normalization-216/y_0", "normalization-216/reserve_space_0", "normalization-216/mean_0", "normalization-216/inv_variance_0"], result_segment_sizes = dense<1> : vector<4xi32>, scope_symbol_id = 4611686018427416575 : i64, training = true} : (tensor<16x1024x14x14xf32>, tensor<16x1024x14x14xf32>, tensor<1024xf32>, tensor<1024xf32>, tensor<1024xf32>, tensor<1024xf32>) -> (tensor<16x1024x14x14xf32>, tensor<100352xi32>, tensor<1024xf32>, tensor<1024xf32>)
    %45 = "oneflow.conv2d"(%y_352, %output_139) {data_format = "channels_first", device_name = ["@0:0"], device_tag = "cpu", dilation_rate = [1 : si32, 1 : si32], filters = 256 : si32, groups = 1 : si32, hierarchy = [1], kernel_size = [1 : si32, 1 : si32], op_name = "conv2d-230", operand_segment_sizes = dense<[1, 1, 0, 0]> : vector<4xi32>, output_lbns = ["conv2d-230/out_0"], padding_before = [0 : si32, 0 : si32], scope_symbol_id = 4611686018427416575 : i64, strides = [1 : si32, 1 : si32]} : (tensor<16x1024x14x14xf32>, tensor<256x1024x1x1xf32>) -> tensor<16x256x14x14xf32>
    %y_356, %mean_357, %inv_variance_358 = "oneflow.normalization"(%45, %output_140, %output_141, %output_142, %output_143) {axis = 1 : si32, device_name = ["@0:0"], device_tag = "cpu", epsilon = 9.99999974E-6 : f32, hierarchy = [1], momentum = 0.899999976 : f32, op_name = "normalization-232", operand_segment_sizes = dense<[1, 1, 1, 1, 1, 0]> : vector<6xi32>, output_lbns = ["normalization-232/y_0", "normalization-232/mean_0", "normalization-232/inv_variance_0"], result_segment_sizes = dense<1> : vector<3xi32>, scope_symbol_id = 4611686018427416575 : i64, training = true} : (tensor<16x256x14x14xf32>, tensor<256xf32>, tensor<256xf32>, tensor<256xf32>, tensor<256xf32>) -> (tensor<16x256x14x14xf32>, tensor<256xf32>, tensor<256xf32>)
    %46 = "oneflow.relu"(%y_356) {device_name = ["@0:0"], device_tag = "cpu", hierarchy = [1], op_name = "relu-237", output_lbns = ["relu-237/y_0"], scope_symbol_id = 4611686018427416575 : i64} : (tensor<16x256x14x14xf32>) -> tensor<16x256x14x14xf32>
    %47 = "oneflow.conv2d"(%46, %output_144) {data_format = "channels_first", device_name = ["@0:0"], device_tag = "cpu", dilation_rate = [1 : si32, 1 : si32], filters = 256 : si32, groups = 1 : si32, hierarchy = [1], kernel_size = [3 : si32, 3 : si32], op_name = "conv2d-238", operand_segment_sizes = dense<[1, 1, 0, 0]> : vector<4xi32>, output_lbns = ["conv2d-238/out_0"], padding_before = [1 : si32, 1 : si32], scope_symbol_id = 4611686018427416575 : i64, strides = [1 : si32, 1 : si32]} : (tensor<16x256x14x14xf32>, tensor<256x256x3x3xf32>) -> tensor<16x256x14x14xf32>
    %y_359, %mean_360, %inv_variance_361 = "oneflow.normalization"(%47, %output_145, %output_146, %output_147, %output_148) {axis = 1 : si32, device_name = ["@0:0"], device_tag = "cpu", epsilon = 9.99999974E-6 : f32, hierarchy = [1], momentum = 0.899999976 : f32, op_name = "normalization-240", operand_segment_sizes = dense<[1, 1, 1, 1, 1, 0]> : vector<6xi32>, output_lbns = ["normalization-240/y_0", "normalization-240/mean_0", "normalization-240/inv_variance_0"], result_segment_sizes = dense<1> : vector<3xi32>, scope_symbol_id = 4611686018427416575 : i64, training = true} : (tensor<16x256x14x14xf32>, tensor<256xf32>, tensor<256xf32>, tensor<256xf32>, tensor<256xf32>) -> (tensor<16x256x14x14xf32>, tensor<256xf32>, tensor<256xf32>)
    %48 = "oneflow.relu"(%y_359) {device_name = ["@0:0"], device_tag = "cpu", hierarchy = [1], op_name = "relu-245", output_lbns = ["relu-245/y_0"], scope_symbol_id = 4611686018427416575 : i64} : (tensor<16x256x14x14xf32>) -> tensor<16x256x14x14xf32>
    %49 = "oneflow.conv2d"(%48, %output_149) {data_format = "channels_first", device_name = ["@0:0"], device_tag = "cpu", dilation_rate = [1 : si32, 1 : si32], filters = 1024 : si32, groups = 1 : si32, hierarchy = [1], kernel_size = [1 : si32, 1 : si32], op_name = "conv2d-246", operand_segment_sizes = dense<[1, 1, 0, 0]> : vector<4xi32>, output_lbns = ["conv2d-246/out_0"], padding_before = [0 : si32, 0 : si32], scope_symbol_id = 4611686018427416575 : i64, strides = [1 : si32, 1 : si32]} : (tensor<16x256x14x14xf32>, tensor<1024x256x1x1xf32>) -> tensor<16x1024x14x14xf32>
    %y_362, %reserve_space_363, %mean_364, %inv_variance_365 = "oneflow.normalization_add_relu"(%49, %y_352, %output_150, %output_151, %output_152, %output_153) {axis = 1 : si32, device_name = ["@0:0"], device_tag = "cpu", epsilon = 9.99999974E-6 : f32, hierarchy = [1], momentum = 0.899999976 : f32, op_name = "normalization-248", operand_segment_sizes = dense<1> : vector<6xi32>, output_lbns = ["normalization-248/y_0", "normalization-248/reserve_space_0", "normalization-248/mean_0", "normalization-248/inv_variance_0"], result_segment_sizes = dense<1> : vector<4xi32>, scope_symbol_id = 4611686018427416575 : i64, training = true} : (tensor<16x1024x14x14xf32>, tensor<16x1024x14x14xf32>, tensor<1024xf32>, tensor<1024xf32>, tensor<1024xf32>, tensor<1024xf32>) -> (tensor<16x1024x14x14xf32>, tensor<100352xi32>, tensor<1024xf32>, tensor<1024xf32>)
    %50 = "oneflow.conv2d"(%y_362, %output_154) {data_format = "channels_first", device_name = ["@0:0"], device_tag = "cpu", dilation_rate = [1 : si32, 1 : si32], filters = 256 : si32, groups = 1 : si32, hierarchy = [1], kernel_size = [1 : si32, 1 : si32], op_name = "conv2d-255", operand_segment_sizes = dense<[1, 1, 0, 0]> : vector<4xi32>, output_lbns = ["conv2d-255/out_0"], padding_before = [0 : si32, 0 : si32], scope_symbol_id = 4611686018427416575 : i64, strides = [1 : si32, 1 : si32]} : (tensor<16x1024x14x14xf32>, tensor<256x1024x1x1xf32>) -> tensor<16x256x14x14xf32>
    %y_366, %mean_367, %inv_variance_368 = "oneflow.normalization"(%50, %output_155, %output_156, %output_157, %output_158) {axis = 1 : si32, device_name = ["@0:0"], device_tag = "cpu", epsilon = 9.99999974E-6 : f32, hierarchy = [1], momentum = 0.899999976 : f32, op_name = "normalization-257", operand_segment_sizes = dense<[1, 1, 1, 1, 1, 0]> : vector<6xi32>, output_lbns = ["normalization-257/y_0", "normalization-257/mean_0", "normalization-257/inv_variance_0"], result_segment_sizes = dense<1> : vector<3xi32>, scope_symbol_id = 4611686018427416575 : i64, training = true} : (tensor<16x256x14x14xf32>, tensor<256xf32>, tensor<256xf32>, tensor<256xf32>, tensor<256xf32>) -> (tensor<16x256x14x14xf32>, tensor<256xf32>, tensor<256xf32>)
    %51 = "oneflow.relu"(%y_366) {device_name = ["@0:0"], device_tag = "cpu", hierarchy = [1], op_name = "relu-262", output_lbns = ["relu-262/y_0"], scope_symbol_id = 4611686018427416575 : i64} : (tensor<16x256x14x14xf32>) -> tensor<16x256x14x14xf32>
    %52 = "oneflow.conv2d"(%51, %output_159) {data_format = "channels_first", device_name = ["@0:0"], device_tag = "cpu", dilation_rate = [1 : si32, 1 : si32], filters = 256 : si32, groups = 1 : si32, hierarchy = [1], kernel_size = [3 : si32, 3 : si32], op_name = "conv2d-263", operand_segment_sizes = dense<[1, 1, 0, 0]> : vector<4xi32>, output_lbns = ["conv2d-263/out_0"], padding_before = [1 : si32, 1 : si32], scope_symbol_id = 4611686018427416575 : i64, strides = [1 : si32, 1 : si32]} : (tensor<16x256x14x14xf32>, tensor<256x256x3x3xf32>) -> tensor<16x256x14x14xf32>
    %y_369, %mean_370, %inv_variance_371 = "oneflow.normalization"(%52, %output_160, %output_161, %output_162, %output_163) {axis = 1 : si32, device_name = ["@0:0"], device_tag = "cpu", epsilon = 9.99999974E-6 : f32, hierarchy = [1], momentum = 0.899999976 : f32, op_name = "normalization-265", operand_segment_sizes = dense<[1, 1, 1, 1, 1, 0]> : vector<6xi32>, output_lbns = ["normalization-265/y_0", "normalization-265/mean_0", "normalization-265/inv_variance_0"], result_segment_sizes = dense<1> : vector<3xi32>, scope_symbol_id = 4611686018427416575 : i64, training = true} : (tensor<16x256x14x14xf32>, tensor<256xf32>, tensor<256xf32>, tensor<256xf32>, tensor<256xf32>) -> (tensor<16x256x14x14xf32>, tensor<256xf32>, tensor<256xf32>)
    %53 = "oneflow.relu"(%y_369) {device_name = ["@0:0"], device_tag = "cpu", hierarchy = [1], op_name = "relu-270", output_lbns = ["relu-270/y_0"], scope_symbol_id = 4611686018427416575 : i64} : (tensor<16x256x14x14xf32>) -> tensor<16x256x14x14xf32>
    %54 = "oneflow.conv2d"(%53, %output_164) {data_format = "channels_first", device_name = ["@0:0"], device_tag = "cpu", dilation_rate = [1 : si32, 1 : si32], filters = 1024 : si32, groups = 1 : si32, hierarchy = [1], kernel_size = [1 : si32, 1 : si32], op_name = "conv2d-271", operand_segment_sizes = dense<[1, 1, 0, 0]> : vector<4xi32>, output_lbns = ["conv2d-271/out_0"], padding_before = [0 : si32, 0 : si32], scope_symbol_id = 4611686018427416575 : i64, strides = [1 : si32, 1 : si32]} : (tensor<16x256x14x14xf32>, tensor<1024x256x1x1xf32>) -> tensor<16x1024x14x14xf32>
    %y_372, %reserve_space_373, %mean_374, %inv_variance_375 = "oneflow.normalization_add_relu"(%54, %y_362, %output_165, %output_166, %output_167, %output_168) {axis = 1 : si32, device_name = ["@0:0"], device_tag = "cpu", epsilon = 9.99999974E-6 : f32, hierarchy = [1], momentum = 0.899999976 : f32, op_name = "normalization-273", operand_segment_sizes = dense<1> : vector<6xi32>, output_lbns = ["normalization-273/y_0", "normalization-273/reserve_space_0", "normalization-273/mean_0", "normalization-273/inv_variance_0"], result_segment_sizes = dense<1> : vector<4xi32>, scope_symbol_id = 4611686018427416575 : i64, training = true} : (tensor<16x1024x14x14xf32>, tensor<16x1024x14x14xf32>, tensor<1024xf32>, tensor<1024xf32>, tensor<1024xf32>, tensor<1024xf32>) -> (tensor<16x1024x14x14xf32>, tensor<100352xi32>, tensor<1024xf32>, tensor<1024xf32>)
    %55 = "oneflow.conv2d"(%y_372, %output_169) {data_format = "channels_first", device_name = ["@0:0"], device_tag = "cpu", dilation_rate = [1 : si32, 1 : si32], filters = 256 : si32, groups = 1 : si32, hierarchy = [1], kernel_size = [1 : si32, 1 : si32], op_name = "conv2d-280", operand_segment_sizes = dense<[1, 1, 0, 0]> : vector<4xi32>, output_lbns = ["conv2d-280/out_0"], padding_before = [0 : si32, 0 : si32], scope_symbol_id = 4611686018427416575 : i64, strides = [1 : si32, 1 : si32]} : (tensor<16x1024x14x14xf32>, tensor<256x1024x1x1xf32>) -> tensor<16x256x14x14xf32>
    %y_376, %mean_377, %inv_variance_378 = "oneflow.normalization"(%55, %output_170, %output_171, %output_172, %output_173) {axis = 1 : si32, device_name = ["@0:0"], device_tag = "cpu", epsilon = 9.99999974E-6 : f32, hierarchy = [1], momentum = 0.899999976 : f32, op_name = "normalization-282", operand_segment_sizes = dense<[1, 1, 1, 1, 1, 0]> : vector<6xi32>, output_lbns = ["normalization-282/y_0", "normalization-282/mean_0", "normalization-282/inv_variance_0"], result_segment_sizes = dense<1> : vector<3xi32>, scope_symbol_id = 4611686018427416575 : i64, training = true} : (tensor<16x256x14x14xf32>, tensor<256xf32>, tensor<256xf32>, tensor<256xf32>, tensor<256xf32>) -> (tensor<16x256x14x14xf32>, tensor<256xf32>, tensor<256xf32>)
    %56 = "oneflow.relu"(%y_376) {device_name = ["@0:0"], device_tag = "cpu", hierarchy = [1], op_name = "relu-287", output_lbns = ["relu-287/y_0"], scope_symbol_id = 4611686018427416575 : i64} : (tensor<16x256x14x14xf32>) -> tensor<16x256x14x14xf32>
    %57 = "oneflow.conv2d"(%56, %output_174) {data_format = "channels_first", device_name = ["@0:0"], device_tag = "cpu", dilation_rate = [1 : si32, 1 : si32], filters = 256 : si32, groups = 1 : si32, hierarchy = [1], kernel_size = [3 : si32, 3 : si32], op_name = "conv2d-288", operand_segment_sizes = dense<[1, 1, 0, 0]> : vector<4xi32>, output_lbns = ["conv2d-288/out_0"], padding_before = [1 : si32, 1 : si32], scope_symbol_id = 4611686018427416575 : i64, strides = [1 : si32, 1 : si32]} : (tensor<16x256x14x14xf32>, tensor<256x256x3x3xf32>) -> tensor<16x256x14x14xf32>
    %y_379, %mean_380, %inv_variance_381 = "oneflow.normalization"(%57, %output_175, %output_176, %output_177, %output_178) {axis = 1 : si32, device_name = ["@0:0"], device_tag = "cpu", epsilon = 9.99999974E-6 : f32, hierarchy = [1], momentum = 0.899999976 : f32, op_name = "normalization-290", operand_segment_sizes = dense<[1, 1, 1, 1, 1, 0]> : vector<6xi32>, output_lbns = ["normalization-290/y_0", "normalization-290/mean_0", "normalization-290/inv_variance_0"], result_segment_sizes = dense<1> : vector<3xi32>, scope_symbol_id = 4611686018427416575 : i64, training = true} : (tensor<16x256x14x14xf32>, tensor<256xf32>, tensor<256xf32>, tensor<256xf32>, tensor<256xf32>) -> (tensor<16x256x14x14xf32>, tensor<256xf32>, tensor<256xf32>)
    %58 = "oneflow.relu"(%y_379) {device_name = ["@0:0"], device_tag = "cpu", hierarchy = [1], op_name = "relu-295", output_lbns = ["relu-295/y_0"], scope_symbol_id = 4611686018427416575 : i64} : (tensor<16x256x14x14xf32>) -> tensor<16x256x14x14xf32>
    %59 = "oneflow.conv2d"(%58, %output_179) {data_format = "channels_first", device_name = ["@0:0"], device_tag = "cpu", dilation_rate = [1 : si32, 1 : si32], filters = 1024 : si32, groups = 1 : si32, hierarchy = [1], kernel_size = [1 : si32, 1 : si32], op_name = "conv2d-296", operand_segment_sizes = dense<[1, 1, 0, 0]> : vector<4xi32>, output_lbns = ["conv2d-296/out_0"], padding_before = [0 : si32, 0 : si32], scope_symbol_id = 4611686018427416575 : i64, strides = [1 : si32, 1 : si32]} : (tensor<16x256x14x14xf32>, tensor<1024x256x1x1xf32>) -> tensor<16x1024x14x14xf32>
    %y_382, %reserve_space_383, %mean_384, %inv_variance_385 = "oneflow.normalization_add_relu"(%59, %y_372, %output_180, %output_181, %output_182, %output_183) {axis = 1 : si32, device_name = ["@0:0"], device_tag = "cpu", epsilon = 9.99999974E-6 : f32, hierarchy = [1], momentum = 0.899999976 : f32, op_name = "normalization-298", operand_segment_sizes = dense<1> : vector<6xi32>, output_lbns = ["normalization-298/y_0", "normalization-298/reserve_space_0", "normalization-298/mean_0", "normalization-298/inv_variance_0"], result_segment_sizes = dense<1> : vector<4xi32>, scope_symbol_id = 4611686018427416575 : i64, training = true} : (tensor<16x1024x14x14xf32>, tensor<16x1024x14x14xf32>, tensor<1024xf32>, tensor<1024xf32>, tensor<1024xf32>, tensor<1024xf32>) -> (tensor<16x1024x14x14xf32>, tensor<100352xi32>, tensor<1024xf32>, tensor<1024xf32>)
    %60 = "oneflow.conv2d"(%y_382, %output_184) {data_format = "channels_first", device_name = ["@0:0"], device_tag = "cpu", dilation_rate = [1 : si32, 1 : si32], filters = 256 : si32, groups = 1 : si32, hierarchy = [1], kernel_size = [1 : si32, 1 : si32], op_name = "conv2d-305", operand_segment_sizes = dense<[1, 1, 0, 0]> : vector<4xi32>, output_lbns = ["conv2d-305/out_0"], padding_before = [0 : si32, 0 : si32], scope_symbol_id = 4611686018427416575 : i64, strides = [1 : si32, 1 : si32]} : (tensor<16x1024x14x14xf32>, tensor<256x1024x1x1xf32>) -> tensor<16x256x14x14xf32>
    %y_386, %mean_387, %inv_variance_388 = "oneflow.normalization"(%60, %output_185, %output_186, %output_187, %output_188) {axis = 1 : si32, device_name = ["@0:0"], device_tag = "cpu", epsilon = 9.99999974E-6 : f32, hierarchy = [1], momentum = 0.899999976 : f32, op_name = "normalization-307", operand_segment_sizes = dense<[1, 1, 1, 1, 1, 0]> : vector<6xi32>, output_lbns = ["normalization-307/y_0", "normalization-307/mean_0", "normalization-307/inv_variance_0"], result_segment_sizes = dense<1> : vector<3xi32>, scope_symbol_id = 4611686018427416575 : i64, training = true} : (tensor<16x256x14x14xf32>, tensor<256xf32>, tensor<256xf32>, tensor<256xf32>, tensor<256xf32>) -> (tensor<16x256x14x14xf32>, tensor<256xf32>, tensor<256xf32>)
    %61 = "oneflow.relu"(%y_386) {device_name = ["@0:0"], device_tag = "cpu", hierarchy = [1], op_name = "relu-312", output_lbns = ["relu-312/y_0"], scope_symbol_id = 4611686018427416575 : i64} : (tensor<16x256x14x14xf32>) -> tensor<16x256x14x14xf32>
    %62 = "oneflow.conv2d"(%61, %output_189) {data_format = "channels_first", device_name = ["@0:0"], device_tag = "cpu", dilation_rate = [1 : si32, 1 : si32], filters = 256 : si32, groups = 1 : si32, hierarchy = [1], kernel_size = [3 : si32, 3 : si32], op_name = "conv2d-313", operand_segment_sizes = dense<[1, 1, 0, 0]> : vector<4xi32>, output_lbns = ["conv2d-313/out_0"], padding_before = [1 : si32, 1 : si32], scope_symbol_id = 4611686018427416575 : i64, strides = [1 : si32, 1 : si32]} : (tensor<16x256x14x14xf32>, tensor<256x256x3x3xf32>) -> tensor<16x256x14x14xf32>
    %y_389, %mean_390, %inv_variance_391 = "oneflow.normalization"(%62, %output_190, %output_191, %output_192, %output_193) {axis = 1 : si32, device_name = ["@0:0"], device_tag = "cpu", epsilon = 9.99999974E-6 : f32, hierarchy = [1], momentum = 0.899999976 : f32, op_name = "normalization-315", operand_segment_sizes = dense<[1, 1, 1, 1, 1, 0]> : vector<6xi32>, output_lbns = ["normalization-315/y_0", "normalization-315/mean_0", "normalization-315/inv_variance_0"], result_segment_sizes = dense<1> : vector<3xi32>, scope_symbol_id = 4611686018427416575 : i64, training = true} : (tensor<16x256x14x14xf32>, tensor<256xf32>, tensor<256xf32>, tensor<256xf32>, tensor<256xf32>) -> (tensor<16x256x14x14xf32>, tensor<256xf32>, tensor<256xf32>)
    %63 = "oneflow.relu"(%y_389) {device_name = ["@0:0"], device_tag = "cpu", hierarchy = [1], op_name = "relu-320", output_lbns = ["relu-320/y_0"], scope_symbol_id = 4611686018427416575 : i64} : (tensor<16x256x14x14xf32>) -> tensor<16x256x14x14xf32>
    %64 = "oneflow.conv2d"(%63, %output_194) {data_format = "channels_first", device_name = ["@0:0"], device_tag = "cpu", dilation_rate = [1 : si32, 1 : si32], filters = 1024 : si32, groups = 1 : si32, hierarchy = [1], kernel_size = [1 : si32, 1 : si32], op_name = "conv2d-321", operand_segment_sizes = dense<[1, 1, 0, 0]> : vector<4xi32>, output_lbns = ["conv2d-321/out_0"], padding_before = [0 : si32, 0 : si32], scope_symbol_id = 4611686018427416575 : i64, strides = [1 : si32, 1 : si32]} : (tensor<16x256x14x14xf32>, tensor<1024x256x1x1xf32>) -> tensor<16x1024x14x14xf32>
    %y_392, %reserve_space_393, %mean_394, %inv_variance_395 = "oneflow.normalization_add_relu"(%64, %y_382, %output_195, %output_196, %output_197, %output_198) {axis = 1 : si32, device_name = ["@0:0"], device_tag = "cpu", epsilon = 9.99999974E-6 : f32, hierarchy = [1], momentum = 0.899999976 : f32, op_name = "normalization-323", operand_segment_sizes = dense<1> : vector<6xi32>, output_lbns = ["normalization-323/y_0", "normalization-323/reserve_space_0", "normalization-323/mean_0", "normalization-323/inv_variance_0"], result_segment_sizes = dense<1> : vector<4xi32>, scope_symbol_id = 4611686018427416575 : i64, training = true} : (tensor<16x1024x14x14xf32>, tensor<16x1024x14x14xf32>, tensor<1024xf32>, tensor<1024xf32>, tensor<1024xf32>, tensor<1024xf32>) -> (tensor<16x1024x14x14xf32>, tensor<100352xi32>, tensor<1024xf32>, tensor<1024xf32>)
    %65 = "oneflow.conv2d"(%y_392, %output_199) {data_format = "channels_first", device_name = ["@0:0"], device_tag = "cpu", dilation_rate = [1 : si32, 1 : si32], filters = 256 : si32, groups = 1 : si32, hierarchy = [1], kernel_size = [1 : si32, 1 : si32], op_name = "conv2d-330", operand_segment_sizes = dense<[1, 1, 0, 0]> : vector<4xi32>, output_lbns = ["conv2d-330/out_0"], padding_before = [0 : si32, 0 : si32], scope_symbol_id = 4611686018427416575 : i64, strides = [1 : si32, 1 : si32]} : (tensor<16x1024x14x14xf32>, tensor<256x1024x1x1xf32>) -> tensor<16x256x14x14xf32>
    %y_396, %mean_397, %inv_variance_398 = "oneflow.normalization"(%65, %output_200, %output_201, %output_202, %output_203) {axis = 1 : si32, device_name = ["@0:0"], device_tag = "cpu", epsilon = 9.99999974E-6 : f32, hierarchy = [1], momentum = 0.899999976 : f32, op_name = "normalization-332", operand_segment_sizes = dense<[1, 1, 1, 1, 1, 0]> : vector<6xi32>, output_lbns = ["normalization-332/y_0", "normalization-332/mean_0", "normalization-332/inv_variance_0"], result_segment_sizes = dense<1> : vector<3xi32>, scope_symbol_id = 4611686018427416575 : i64, training = true} : (tensor<16x256x14x14xf32>, tensor<256xf32>, tensor<256xf32>, tensor<256xf32>, tensor<256xf32>) -> (tensor<16x256x14x14xf32>, tensor<256xf32>, tensor<256xf32>)
    %66 = "oneflow.relu"(%y_396) {device_name = ["@0:0"], device_tag = "cpu", hierarchy = [1], op_name = "relu-337", output_lbns = ["relu-337/y_0"], scope_symbol_id = 4611686018427416575 : i64} : (tensor<16x256x14x14xf32>) -> tensor<16x256x14x14xf32>
    %67 = "oneflow.conv2d"(%66, %output_204) {data_format = "channels_first", device_name = ["@0:0"], device_tag = "cpu", dilation_rate = [1 : si32, 1 : si32], filters = 256 : si32, groups = 1 : si32, hierarchy = [1], kernel_size = [3 : si32, 3 : si32], op_name = "conv2d-338", operand_segment_sizes = dense<[1, 1, 0, 0]> : vector<4xi32>, output_lbns = ["conv2d-338/out_0"], padding_before = [1 : si32, 1 : si32], scope_symbol_id = 4611686018427416575 : i64, strides = [1 : si32, 1 : si32]} : (tensor<16x256x14x14xf32>, tensor<256x256x3x3xf32>) -> tensor<16x256x14x14xf32>
    %y_399, %mean_400, %inv_variance_401 = "oneflow.normalization"(%67, %output_205, %output_206, %output_207, %output_208) {axis = 1 : si32, device_name = ["@0:0"], device_tag = "cpu", epsilon = 9.99999974E-6 : f32, hierarchy = [1], momentum = 0.899999976 : f32, op_name = "normalization-340", operand_segment_sizes = dense<[1, 1, 1, 1, 1, 0]> : vector<6xi32>, output_lbns = ["normalization-340/y_0", "normalization-340/mean_0", "normalization-340/inv_variance_0"], result_segment_sizes = dense<1> : vector<3xi32>, scope_symbol_id = 4611686018427416575 : i64, training = true} : (tensor<16x256x14x14xf32>, tensor<256xf32>, tensor<256xf32>, tensor<256xf32>, tensor<256xf32>) -> (tensor<16x256x14x14xf32>, tensor<256xf32>, tensor<256xf32>)
    %68 = "oneflow.relu"(%y_399) {device_name = ["@0:0"], device_tag = "cpu", hierarchy = [1], op_name = "relu-345", output_lbns = ["relu-345/y_0"], scope_symbol_id = 4611686018427416575 : i64} : (tensor<16x256x14x14xf32>) -> tensor<16x256x14x14xf32>
    %69 = "oneflow.conv2d"(%68, %output_209) {data_format = "channels_first", device_name = ["@0:0"], device_tag = "cpu", dilation_rate = [1 : si32, 1 : si32], filters = 1024 : si32, groups = 1 : si32, hierarchy = [1], kernel_size = [1 : si32, 1 : si32], op_name = "conv2d-346", operand_segment_sizes = dense<[1, 1, 0, 0]> : vector<4xi32>, output_lbns = ["conv2d-346/out_0"], padding_before = [0 : si32, 0 : si32], scope_symbol_id = 4611686018427416575 : i64, strides = [1 : si32, 1 : si32]} : (tensor<16x256x14x14xf32>, tensor<1024x256x1x1xf32>) -> tensor<16x1024x14x14xf32>
    %y_402, %reserve_space_403, %mean_404, %inv_variance_405 = "oneflow.normalization_add_relu"(%69, %y_392, %output_210, %output_211, %output_212, %output_213) {axis = 1 : si32, device_name = ["@0:0"], device_tag = "cpu", epsilon = 9.99999974E-6 : f32, hierarchy = [1], momentum = 0.899999976 : f32, op_name = "normalization-348", operand_segment_sizes = dense<1> : vector<6xi32>, output_lbns = ["normalization-348/y_0", "normalization-348/reserve_space_0", "normalization-348/mean_0", "normalization-348/inv_variance_0"], result_segment_sizes = dense<1> : vector<4xi32>, scope_symbol_id = 4611686018427416575 : i64, training = true} : (tensor<16x1024x14x14xf32>, tensor<16x1024x14x14xf32>, tensor<1024xf32>, tensor<1024xf32>, tensor<1024xf32>, tensor<1024xf32>) -> (tensor<16x1024x14x14xf32>, tensor<100352xi32>, tensor<1024xf32>, tensor<1024xf32>)
    %70 = "oneflow.conv2d"(%y_402, %output_214) {data_format = "channels_first", device_name = ["@0:0"], device_tag = "cpu", dilation_rate = [1 : si32, 1 : si32], filters = 512 : si32, groups = 1 : si32, hierarchy = [1], kernel_size = [1 : si32, 1 : si32], op_name = "conv2d-355", operand_segment_sizes = dense<[1, 1, 0, 0]> : vector<4xi32>, output_lbns = ["conv2d-355/out_0"], padding_before = [0 : si32, 0 : si32], scope_symbol_id = 4611686018427416575 : i64, strides = [1 : si32, 1 : si32]} : (tensor<16x1024x14x14xf32>, tensor<512x1024x1x1xf32>) -> tensor<16x512x14x14xf32>
    %71 = "oneflow.conv2d"(%y_402, %output_229) {data_format = "channels_first", device_name = ["@0:0"], device_tag = "cpu", dilation_rate = [1 : si32, 1 : si32], filters = 2048 : si32, groups = 1 : si32, hierarchy = [1], kernel_size = [1 : si32, 1 : si32], op_name = "conv2d-378", operand_segment_sizes = dense<[1, 1, 0, 0]> : vector<4xi32>, output_lbns = ["conv2d-378/out_0"], padding_before = [0 : si32, 0 : si32], scope_symbol_id = 4611686018427416575 : i64, strides = [2 : si32, 2 : si32]} : (tensor<16x1024x14x14xf32>, tensor<2048x1024x1x1xf32>) -> tensor<16x2048x7x7xf32>
    %y_406, %mean_407, %inv_variance_408 = "oneflow.normalization"(%70, %output_215, %output_216, %output_217, %output_218) {axis = 1 : si32, device_name = ["@0:0"], device_tag = "cpu", epsilon = 9.99999974E-6 : f32, hierarchy = [1], momentum = 0.899999976 : f32, op_name = "normalization-357", operand_segment_sizes = dense<[1, 1, 1, 1, 1, 0]> : vector<6xi32>, output_lbns = ["normalization-357/y_0", "normalization-357/mean_0", "normalization-357/inv_variance_0"], result_segment_sizes = dense<1> : vector<3xi32>, scope_symbol_id = 4611686018427416575 : i64, training = true} : (tensor<16x512x14x14xf32>, tensor<512xf32>, tensor<512xf32>, tensor<512xf32>, tensor<512xf32>) -> (tensor<16x512x14x14xf32>, tensor<512xf32>, tensor<512xf32>)
    %y_409, %mean_410, %inv_variance_411 = "oneflow.normalization"(%71, %output_230, %output_231, %output_232, %output_233) {axis = 1 : si32, device_name = ["@0:0"], device_tag = "cpu", epsilon = 9.99999974E-6 : f32, hierarchy = [1], momentum = 0.899999976 : f32, op_name = "normalization-380", operand_segment_sizes = dense<[1, 1, 1, 1, 1, 0]> : vector<6xi32>, output_lbns = ["normalization-380/y_0", "normalization-380/mean_0", "normalization-380/inv_variance_0"], result_segment_sizes = dense<1> : vector<3xi32>, scope_symbol_id = 4611686018427416575 : i64, training = true} : (tensor<16x2048x7x7xf32>, tensor<2048xf32>, tensor<2048xf32>, tensor<2048xf32>, tensor<2048xf32>) -> (tensor<16x2048x7x7xf32>, tensor<2048xf32>, tensor<2048xf32>)
    %72 = "oneflow.relu"(%y_406) {device_name = ["@0:0"], device_tag = "cpu", hierarchy = [1], op_name = "relu-362", output_lbns = ["relu-362/y_0"], scope_symbol_id = 4611686018427416575 : i64} : (tensor<16x512x14x14xf32>) -> tensor<16x512x14x14xf32>
    %73 = "oneflow.conv2d"(%72, %output_219) {data_format = "channels_first", device_name = ["@0:0"], device_tag = "cpu", dilation_rate = [1 : si32, 1 : si32], filters = 512 : si32, groups = 1 : si32, hierarchy = [1], kernel_size = [3 : si32, 3 : si32], op_name = "conv2d-363", operand_segment_sizes = dense<[1, 1, 0, 0]> : vector<4xi32>, output_lbns = ["conv2d-363/out_0"], padding_before = [1 : si32, 1 : si32], scope_symbol_id = 4611686018427416575 : i64, strides = [2 : si32, 2 : si32]} : (tensor<16x512x14x14xf32>, tensor<512x512x3x3xf32>) -> tensor<16x512x7x7xf32>
    %y_412, %mean_413, %inv_variance_414 = "oneflow.normalization"(%73, %output_220, %output_221, %output_222, %output_223) {axis = 1 : si32, device_name = ["@0:0"], device_tag = "cpu", epsilon = 9.99999974E-6 : f32, hierarchy = [1], momentum = 0.899999976 : f32, op_name = "normalization-365", operand_segment_sizes = dense<[1, 1, 1, 1, 1, 0]> : vector<6xi32>, output_lbns = ["normalization-365/y_0", "normalization-365/mean_0", "normalization-365/inv_variance_0"], result_segment_sizes = dense<1> : vector<3xi32>, scope_symbol_id = 4611686018427416575 : i64, training = true} : (tensor<16x512x7x7xf32>, tensor<512xf32>, tensor<512xf32>, tensor<512xf32>, tensor<512xf32>) -> (tensor<16x512x7x7xf32>, tensor<512xf32>, tensor<512xf32>)
    %74 = "oneflow.relu"(%y_412) {device_name = ["@0:0"], device_tag = "cpu", hierarchy = [1], op_name = "relu-370", output_lbns = ["relu-370/y_0"], scope_symbol_id = 4611686018427416575 : i64} : (tensor<16x512x7x7xf32>) -> tensor<16x512x7x7xf32>
    %75 = "oneflow.conv2d"(%74, %output_224) {data_format = "channels_first", device_name = ["@0:0"], device_tag = "cpu", dilation_rate = [1 : si32, 1 : si32], filters = 2048 : si32, groups = 1 : si32, hierarchy = [1], kernel_size = [1 : si32, 1 : si32], op_name = "conv2d-371", operand_segment_sizes = dense<[1, 1, 0, 0]> : vector<4xi32>, output_lbns = ["conv2d-371/out_0"], padding_before = [0 : si32, 0 : si32], scope_symbol_id = 4611686018427416575 : i64, strides = [1 : si32, 1 : si32]} : (tensor<16x512x7x7xf32>, tensor<2048x512x1x1xf32>) -> tensor<16x2048x7x7xf32>
    %y_415, %reserve_space_416, %mean_417, %inv_variance_418 = "oneflow.normalization_add_relu"(%75, %y_409, %output_225, %output_226, %output_227, %output_228) {axis = 1 : si32, device_name = ["@0:0"], device_tag = "cpu", epsilon = 9.99999974E-6 : f32, hierarchy = [1], momentum = 0.899999976 : f32, op_name = "normalization-373", operand_segment_sizes = dense<1> : vector<6xi32>, output_lbns = ["normalization-373/y_0", "normalization-373/reserve_space_0", "normalization-373/mean_0", "normalization-373/inv_variance_0"], result_segment_sizes = dense<1> : vector<4xi32>, scope_symbol_id = 4611686018427416575 : i64, training = true} : (tensor<16x2048x7x7xf32>, tensor<16x2048x7x7xf32>, tensor<2048xf32>, tensor<2048xf32>, tensor<2048xf32>, tensor<2048xf32>) -> (tensor<16x2048x7x7xf32>, tensor<50176xi32>, tensor<2048xf32>, tensor<2048xf32>)
    %76 = "oneflow.conv2d"(%y_415, %output_234) {data_format = "channels_first", device_name = ["@0:0"], device_tag = "cpu", dilation_rate = [1 : si32, 1 : si32], filters = 512 : si32, groups = 1 : si32, hierarchy = [1], kernel_size = [1 : si32, 1 : si32], op_name = "conv2d-387", operand_segment_sizes = dense<[1, 1, 0, 0]> : vector<4xi32>, output_lbns = ["conv2d-387/out_0"], padding_before = [0 : si32, 0 : si32], scope_symbol_id = 4611686018427416575 : i64, strides = [1 : si32, 1 : si32]} : (tensor<16x2048x7x7xf32>, tensor<512x2048x1x1xf32>) -> tensor<16x512x7x7xf32>
    %y_419, %mean_420, %inv_variance_421 = "oneflow.normalization"(%76, %output_235, %output_236, %output_237, %output_238) {axis = 1 : si32, device_name = ["@0:0"], device_tag = "cpu", epsilon = 9.99999974E-6 : f32, hierarchy = [1], momentum = 0.899999976 : f32, op_name = "normalization-389", operand_segment_sizes = dense<[1, 1, 1, 1, 1, 0]> : vector<6xi32>, output_lbns = ["normalization-389/y_0", "normalization-389/mean_0", "normalization-389/inv_variance_0"], result_segment_sizes = dense<1> : vector<3xi32>, scope_symbol_id = 4611686018427416575 : i64, training = true} : (tensor<16x512x7x7xf32>, tensor<512xf32>, tensor<512xf32>, tensor<512xf32>, tensor<512xf32>) -> (tensor<16x512x7x7xf32>, tensor<512xf32>, tensor<512xf32>)
    %77 = "oneflow.relu"(%y_419) {device_name = ["@0:0"], device_tag = "cpu", hierarchy = [1], op_name = "relu-394", output_lbns = ["relu-394/y_0"], scope_symbol_id = 4611686018427416575 : i64} : (tensor<16x512x7x7xf32>) -> tensor<16x512x7x7xf32>
    %78 = "oneflow.conv2d"(%77, %output_239) {data_format = "channels_first", device_name = ["@0:0"], device_tag = "cpu", dilation_rate = [1 : si32, 1 : si32], filters = 512 : si32, groups = 1 : si32, hierarchy = [1], kernel_size = [3 : si32, 3 : si32], op_name = "conv2d-395", operand_segment_sizes = dense<[1, 1, 0, 0]> : vector<4xi32>, output_lbns = ["conv2d-395/out_0"], padding_before = [1 : si32, 1 : si32], scope_symbol_id = 4611686018427416575 : i64, strides = [1 : si32, 1 : si32]} : (tensor<16x512x7x7xf32>, tensor<512x512x3x3xf32>) -> tensor<16x512x7x7xf32>
    %y_422, %mean_423, %inv_variance_424 = "oneflow.normalization"(%78, %output_240, %output_241, %output_242, %output_243) {axis = 1 : si32, device_name = ["@0:0"], device_tag = "cpu", epsilon = 9.99999974E-6 : f32, hierarchy = [1], momentum = 0.899999976 : f32, op_name = "normalization-397", operand_segment_sizes = dense<[1, 1, 1, 1, 1, 0]> : vector<6xi32>, output_lbns = ["normalization-397/y_0", "normalization-397/mean_0", "normalization-397/inv_variance_0"], result_segment_sizes = dense<1> : vector<3xi32>, scope_symbol_id = 4611686018427416575 : i64, training = true} : (tensor<16x512x7x7xf32>, tensor<512xf32>, tensor<512xf32>, tensor<512xf32>, tensor<512xf32>) -> (tensor<16x512x7x7xf32>, tensor<512xf32>, tensor<512xf32>)
    %79 = "oneflow.relu"(%y_422) {device_name = ["@0:0"], device_tag = "cpu", hierarchy = [1], op_name = "relu-402", output_lbns = ["relu-402/y_0"], scope_symbol_id = 4611686018427416575 : i64} : (tensor<16x512x7x7xf32>) -> tensor<16x512x7x7xf32>
    %80 = "oneflow.conv2d"(%79, %output_244) {data_format = "channels_first", device_name = ["@0:0"], device_tag = "cpu", dilation_rate = [1 : si32, 1 : si32], filters = 2048 : si32, groups = 1 : si32, hierarchy = [1], kernel_size = [1 : si32, 1 : si32], op_name = "conv2d-403", operand_segment_sizes = dense<[1, 1, 0, 0]> : vector<4xi32>, output_lbns = ["conv2d-403/out_0"], padding_before = [0 : si32, 0 : si32], scope_symbol_id = 4611686018427416575 : i64, strides = [1 : si32, 1 : si32]} : (tensor<16x512x7x7xf32>, tensor<2048x512x1x1xf32>) -> tensor<16x2048x7x7xf32>
    %y_425, %reserve_space_426, %mean_427, %inv_variance_428 = "oneflow.normalization_add_relu"(%80, %y_415, %output_245, %output_246, %output_247, %output_248) {axis = 1 : si32, device_name = ["@0:0"], device_tag = "cpu", epsilon = 9.99999974E-6 : f32, hierarchy = [1], momentum = 0.899999976 : f32, op_name = "normalization-405", operand_segment_sizes = dense<1> : vector<6xi32>, output_lbns = ["normalization-405/y_0", "normalization-405/reserve_space_0", "normalization-405/mean_0", "normalization-405/inv_variance_0"], result_segment_sizes = dense<1> : vector<4xi32>, scope_symbol_id = 4611686018427416575 : i64, training = true} : (tensor<16x2048x7x7xf32>, tensor<16x2048x7x7xf32>, tensor<2048xf32>, tensor<2048xf32>, tensor<2048xf32>, tensor<2048xf32>) -> (tensor<16x2048x7x7xf32>, tensor<50176xi32>, tensor<2048xf32>, tensor<2048xf32>)
    %81 = "oneflow.conv2d"(%y_425, %output_249) {data_format = "channels_first", device_name = ["@0:0"], device_tag = "cpu", dilation_rate = [1 : si32, 1 : si32], filters = 512 : si32, groups = 1 : si32, hierarchy = [1], kernel_size = [1 : si32, 1 : si32], op_name = "conv2d-412", operand_segment_sizes = dense<[1, 1, 0, 0]> : vector<4xi32>, output_lbns = ["conv2d-412/out_0"], padding_before = [0 : si32, 0 : si32], scope_symbol_id = 4611686018427416575 : i64, strides = [1 : si32, 1 : si32]} : (tensor<16x2048x7x7xf32>, tensor<512x2048x1x1xf32>) -> tensor<16x512x7x7xf32>
    %y_429, %mean_430, %inv_variance_431 = "oneflow.normalization"(%81, %output_250, %output_251, %output_252, %output_253) {axis = 1 : si32, device_name = ["@0:0"], device_tag = "cpu", epsilon = 9.99999974E-6 : f32, hierarchy = [1], momentum = 0.899999976 : f32, op_name = "normalization-414", operand_segment_sizes = dense<[1, 1, 1, 1, 1, 0]> : vector<6xi32>, output_lbns = ["normalization-414/y_0", "normalization-414/mean_0", "normalization-414/inv_variance_0"], result_segment_sizes = dense<1> : vector<3xi32>, scope_symbol_id = 4611686018427416575 : i64, training = true} : (tensor<16x512x7x7xf32>, tensor<512xf32>, tensor<512xf32>, tensor<512xf32>, tensor<512xf32>) -> (tensor<16x512x7x7xf32>, tensor<512xf32>, tensor<512xf32>)
    %82 = "oneflow.relu"(%y_429) {device_name = ["@0:0"], device_tag = "cpu", hierarchy = [1], op_name = "relu-419", output_lbns = ["relu-419/y_0"], scope_symbol_id = 4611686018427416575 : i64} : (tensor<16x512x7x7xf32>) -> tensor<16x512x7x7xf32>
    %83 = "oneflow.conv2d"(%82, %output_254) {data_format = "channels_first", device_name = ["@0:0"], device_tag = "cpu", dilation_rate = [1 : si32, 1 : si32], filters = 512 : si32, groups = 1 : si32, hierarchy = [1], kernel_size = [3 : si32, 3 : si32], op_name = "conv2d-420", operand_segment_sizes = dense<[1, 1, 0, 0]> : vector<4xi32>, output_lbns = ["conv2d-420/out_0"], padding_before = [1 : si32, 1 : si32], scope_symbol_id = 4611686018427416575 : i64, strides = [1 : si32, 1 : si32]} : (tensor<16x512x7x7xf32>, tensor<512x512x3x3xf32>) -> tensor<16x512x7x7xf32>
    %y_432, %mean_433, %inv_variance_434 = "oneflow.normalization"(%83, %output_255, %output_256, %output_257, %output_258) {axis = 1 : si32, device_name = ["@0:0"], device_tag = "cpu", epsilon = 9.99999974E-6 : f32, hierarchy = [1], momentum = 0.899999976 : f32, op_name = "normalization-422", operand_segment_sizes = dense<[1, 1, 1, 1, 1, 0]> : vector<6xi32>, output_lbns = ["normalization-422/y_0", "normalization-422/mean_0", "normalization-422/inv_variance_0"], result_segment_sizes = dense<1> : vector<3xi32>, scope_symbol_id = 4611686018427416575 : i64, training = true} : (tensor<16x512x7x7xf32>, tensor<512xf32>, tensor<512xf32>, tensor<512xf32>, tensor<512xf32>) -> (tensor<16x512x7x7xf32>, tensor<512xf32>, tensor<512xf32>)
    %84 = "oneflow.relu"(%y_432) {device_name = ["@0:0"], device_tag = "cpu", hierarchy = [1], op_name = "relu-427", output_lbns = ["relu-427/y_0"], scope_symbol_id = 4611686018427416575 : i64} : (tensor<16x512x7x7xf32>) -> tensor<16x512x7x7xf32>
    %85 = "oneflow.conv2d"(%84, %output_259) {data_format = "channels_first", device_name = ["@0:0"], device_tag = "cpu", dilation_rate = [1 : si32, 1 : si32], filters = 2048 : si32, groups = 1 : si32, hierarchy = [1], kernel_size = [1 : si32, 1 : si32], op_name = "conv2d-428", operand_segment_sizes = dense<[1, 1, 0, 0]> : vector<4xi32>, output_lbns = ["conv2d-428/out_0"], padding_before = [0 : si32, 0 : si32], scope_symbol_id = 4611686018427416575 : i64, strides = [1 : si32, 1 : si32]} : (tensor<16x512x7x7xf32>, tensor<2048x512x1x1xf32>) -> tensor<16x2048x7x7xf32>
    %y_435, %reserve_space_436, %mean_437, %inv_variance_438 = "oneflow.normalization_add_relu"(%85, %y_425, %output_260, %output_261, %output_262, %output_263) {axis = 1 : si32, device_name = ["@0:0"], device_tag = "cpu", epsilon = 9.99999974E-6 : f32, hierarchy = [1], momentum = 0.899999976 : f32, op_name = "normalization-430", operand_segment_sizes = dense<1> : vector<6xi32>, output_lbns = ["normalization-430/y_0", "normalization-430/reserve_space_0", "normalization-430/mean_0", "normalization-430/inv_variance_0"], result_segment_sizes = dense<1> : vector<4xi32>, scope_symbol_id = 4611686018427416575 : i64, training = true} : (tensor<16x2048x7x7xf32>, tensor<16x2048x7x7xf32>, tensor<2048xf32>, tensor<2048xf32>, tensor<2048xf32>, tensor<2048xf32>) -> (tensor<16x2048x7x7xf32>, tensor<50176xi32>, tensor<2048xf32>, tensor<2048xf32>)
    %86 = "oneflow.avgpool_2d"(%y_435) {ceil_mode = false, count_include_pad = true, data_format = "channels_first", device_name = ["@0:0"], device_tag = "cpu", divisor_override = 0 : si32, hierarchy = [1], kernel_size = [7 : si32, 7 : si32], op_name = "avgpool_2d-437", output_lbns = ["avgpool_2d-437/y_0"], padding = [0 : si32, 0 : si32], scope_symbol_id = 4611686018427416575 : i64, stride = [7 : si32, 7 : si32]} : (tensor<16x2048x7x7xf32>) -> tensor<16x2048x1x1xf32>
    %87 = "oneflow.flatten"(%86) {device_name = ["@0:0"], device_tag = "cpu", end_dim = -1 : si32, hierarchy = [1], op_name = "flatten-438", output_lbns = ["flatten-438/out_0"], scope_symbol_id = 4611686018427416575 : i64, start_dim = 1 : si32} : (tensor<16x2048x1x1xf32>) -> tensor<16x2048xf32>
    %88 = "oneflow.matmul"(%87, %output_264) {alpha = 1.000000e+00 : f64, device_name = ["@0:0"], device_tag = "cpu", hierarchy = [1], op_name = "matmul-439", output_lbns = ["matmul-439/out_0"], scope_symbol_id = 4611686018427416575 : i64, transpose_a = false, transpose_b = true} : (tensor<16x2048xf32>, tensor<1000x2048xf32>) -> tensor<16x1000xf32>
    %89 = "oneflow.broadcast_add"(%88, %output_265) {device_name = ["@0:0"], device_tag = "cpu", hierarchy = [1], op_name = "broadcast_add-441", output_lbns = ["broadcast_add-441/z_0"], scope_symbol_id = 4611686018427416575 : i64} : (tensor<16x1000xf32>, tensor<1000xf32>) -> tensor<16x1000xf32>
    %output_439 = "oneflow.output"(%89) {data_type = 2 : i32, device_name = ["@0:0"], device_tag = "cpu", hierarchy = [1], is_dynamic = false, nd_sbp = ["B"], op_name = "_ResnetGraph_0_output.0.0_2", output_lbns = ["_ResnetGraph_0_output.0.0_2/out"], scope_symbol_id = 4611686018427416575 : i64, shape = [16 : si64, 1000 : si64]} : (tensor<16x1000xf32>) -> tensor<16x1000xf32>
    oneflow.return %output_439 : tensor<16x1000xf32>
  }
}
