module {
  oneflow.job @Graph_0(%arg0: tensor<1x3x224x224xf32>) -> tensor<1x1000xf32> {
    %output = "oneflow.input"(%arg0) {data_type = 2 : i32, device_name = ["@0:0"], device_tag = "cpu", hierarchy = [1], is_dynamic = false, nd_sbp = ["B"], op_name = "_Graph_0_input.0.0_2", output_lbns = ["_Graph_0_input.0.0_2/out"], scope_symbol_id = 4611686018427412479 : i64, shape = [1 : si64, 3 : si64, 224 : si64, 224 : si64]} : (tensor<1x3x224x224xf32>) -> tensor<1x3x224x224xf32>
    %output_0 = "oneflow.variable"() {data_type = 2 : i32, device_name = ["@0:0"], device_tag = "cpu", hierarchy = [1], nd_sbp = ["B"], op_name = "model.conv1.weight", output_lbns = ["model.conv1.weight/out"], scope_symbol_id = 4611686018427428863 : i64, shape = [64 : si64, 3 : si64, 7 : si64, 7 : si64]} : () -> tensor<64x3x7x7xf32>
    %output_1 = "oneflow.variable"() {data_type = 6 : i32, device_name = ["@0:0"], device_tag = "cpu", hierarchy = [1], nd_sbp = ["B"], op_name = "model.bn1.num_batches_tracked", output_lbns = ["model.bn1.num_batches_tracked/out"], scope_symbol_id = 4611686018427445247 : i64, shape = [], trainable = false} : () -> tensor<i64>
    %output_2 = "oneflow.variable"() {data_type = 2 : i32, device_name = ["@0:0"], device_tag = "cpu", hierarchy = [1], nd_sbp = ["B"], op_name = "model.bn1.running_mean", output_lbns = ["model.bn1.running_mean/out"], scope_symbol_id = 4611686018427457535 : i64, shape = [64 : si64], trainable = false} : () -> tensor<64xf32>
    %output_3 = "oneflow.variable"() {data_type = 2 : i32, device_name = ["@0:0"], device_tag = "cpu", hierarchy = [1], nd_sbp = ["B"], op_name = "model.bn1.running_var", output_lbns = ["model.bn1.running_var/out"], scope_symbol_id = 4611686018427465727 : i64, shape = [64 : si64], trainable = false} : () -> tensor<64xf32>
    %output_4 = "oneflow.variable"() {data_type = 2 : i32, device_name = ["@0:0"], device_tag = "cpu", hierarchy = [1], nd_sbp = ["B"], op_name = "model.bn1.weight", output_lbns = ["model.bn1.weight/out"], scope_symbol_id = 4611686018427473919 : i64, shape = [64 : si64]} : () -> tensor<64xf32>
    %output_5 = "oneflow.variable"() {data_type = 2 : i32, device_name = ["@0:0"], device_tag = "cpu", hierarchy = [1], nd_sbp = ["B"], op_name = "model.bn1.bias", output_lbns = ["model.bn1.bias/out"], scope_symbol_id = 4611686018427482111 : i64, shape = [64 : si64]} : () -> tensor<64xf32>
    %output_6 = "oneflow.variable"() {data_type = 2 : i32, device_name = ["@0:0"], device_tag = "cpu", hierarchy = [1], nd_sbp = ["B"], op_name = "model.layer1.0.conv1.weight", output_lbns = ["model.layer1.0.conv1.weight/out"], scope_symbol_id = 4611686018427518975 : i64, shape = [64 : si64, 64 : si64, 1 : si64, 1 : si64]} : () -> tensor<64x64x1x1xf32>
    %output_7 = "oneflow.variable"() {data_type = 6 : i32, device_name = ["@0:0"], device_tag = "cpu", hierarchy = [1], nd_sbp = ["B"], op_name = "model.layer1.0.bn1.num_batches_tracked", output_lbns = ["model.layer1.0.bn1.num_batches_tracked/out"], scope_symbol_id = 4611686018427535359 : i64, shape = [], trainable = false} : () -> tensor<i64>
    %output_8 = "oneflow.variable"() {data_type = 2 : i32, device_name = ["@0:0"], device_tag = "cpu", hierarchy = [1], nd_sbp = ["B"], op_name = "model.layer1.0.bn1.running_mean", output_lbns = ["model.layer1.0.bn1.running_mean/out"], scope_symbol_id = 4611686018427547647 : i64, shape = [64 : si64], trainable = false} : () -> tensor<64xf32>
    %output_9 = "oneflow.variable"() {data_type = 2 : i32, device_name = ["@0:0"], device_tag = "cpu", hierarchy = [1], nd_sbp = ["B"], op_name = "model.layer1.0.bn1.running_var", output_lbns = ["model.layer1.0.bn1.running_var/out"], scope_symbol_id = 4611686018427555839 : i64, shape = [64 : si64], trainable = false} : () -> tensor<64xf32>
    %output_10 = "oneflow.variable"() {data_type = 2 : i32, device_name = ["@0:0"], device_tag = "cpu", hierarchy = [1], nd_sbp = ["B"], op_name = "model.layer1.0.bn1.weight", output_lbns = ["model.layer1.0.bn1.weight/out"], scope_symbol_id = 4611686018427564031 : i64, shape = [64 : si64]} : () -> tensor<64xf32>
    %output_11 = "oneflow.variable"() {data_type = 2 : i32, device_name = ["@0:0"], device_tag = "cpu", hierarchy = [1], nd_sbp = ["B"], op_name = "model.layer1.0.bn1.bias", output_lbns = ["model.layer1.0.bn1.bias/out"], scope_symbol_id = 4611686018427572223 : i64, shape = [64 : si64]} : () -> tensor<64xf32>
    %output_12 = "oneflow.variable"() {data_type = 2 : i32, device_name = ["@0:0"], device_tag = "cpu", hierarchy = [1], nd_sbp = ["B"], op_name = "model.layer1.0.conv2.weight", output_lbns = ["model.layer1.0.conv2.weight/out"], scope_symbol_id = 4611686018427592703 : i64, shape = [64 : si64, 64 : si64, 3 : si64, 3 : si64]} : () -> tensor<64x64x3x3xf32>
    %output_13 = "oneflow.variable"() {data_type = 6 : i32, device_name = ["@0:0"], device_tag = "cpu", hierarchy = [1], nd_sbp = ["B"], op_name = "model.layer1.0.bn2.num_batches_tracked", output_lbns = ["model.layer1.0.bn2.num_batches_tracked/out"], scope_symbol_id = 4611686018427609087 : i64, shape = [], trainable = false} : () -> tensor<i64>
    %output_14 = "oneflow.variable"() {data_type = 2 : i32, device_name = ["@0:0"], device_tag = "cpu", hierarchy = [1], nd_sbp = ["B"], op_name = "model.layer1.0.bn2.running_mean", output_lbns = ["model.layer1.0.bn2.running_mean/out"], scope_symbol_id = 4611686018427621375 : i64, shape = [64 : si64], trainable = false} : () -> tensor<64xf32>
    %output_15 = "oneflow.variable"() {data_type = 2 : i32, device_name = ["@0:0"], device_tag = "cpu", hierarchy = [1], nd_sbp = ["B"], op_name = "model.layer1.0.bn2.running_var", output_lbns = ["model.layer1.0.bn2.running_var/out"], scope_symbol_id = 4611686018427629567 : i64, shape = [64 : si64], trainable = false} : () -> tensor<64xf32>
    %output_16 = "oneflow.variable"() {data_type = 2 : i32, device_name = ["@0:0"], device_tag = "cpu", hierarchy = [1], nd_sbp = ["B"], op_name = "model.layer1.0.bn2.weight", output_lbns = ["model.layer1.0.bn2.weight/out"], scope_symbol_id = 4611686018427637759 : i64, shape = [64 : si64]} : () -> tensor<64xf32>
    %output_17 = "oneflow.variable"() {data_type = 2 : i32, device_name = ["@0:0"], device_tag = "cpu", hierarchy = [1], nd_sbp = ["B"], op_name = "model.layer1.0.bn2.bias", output_lbns = ["model.layer1.0.bn2.bias/out"], scope_symbol_id = 4611686018427645951 : i64, shape = [64 : si64]} : () -> tensor<64xf32>
    %output_18 = "oneflow.variable"() {data_type = 2 : i32, device_name = ["@0:0"], device_tag = "cpu", hierarchy = [1], nd_sbp = ["B"], op_name = "model.layer1.0.conv3.weight", output_lbns = ["model.layer1.0.conv3.weight/out"], scope_symbol_id = 4611686018427658239 : i64, shape = [256 : si64, 64 : si64, 1 : si64, 1 : si64]} : () -> tensor<256x64x1x1xf32>
    %output_19 = "oneflow.variable"() {data_type = 6 : i32, device_name = ["@0:0"], device_tag = "cpu", hierarchy = [1], nd_sbp = ["B"], op_name = "model.layer1.0.bn3.num_batches_tracked", output_lbns = ["model.layer1.0.bn3.num_batches_tracked/out"], scope_symbol_id = 4611686018427674623 : i64, shape = [], trainable = false} : () -> tensor<i64>
    %output_20 = "oneflow.variable"() {data_type = 2 : i32, device_name = ["@0:0"], device_tag = "cpu", hierarchy = [1], nd_sbp = ["B"], op_name = "model.layer1.0.bn3.running_mean", output_lbns = ["model.layer1.0.bn3.running_mean/out"], scope_symbol_id = 4611686018427686911 : i64, shape = [256 : si64], trainable = false} : () -> tensor<256xf32>
    %output_21 = "oneflow.variable"() {data_type = 2 : i32, device_name = ["@0:0"], device_tag = "cpu", hierarchy = [1], nd_sbp = ["B"], op_name = "model.layer1.0.bn3.running_var", output_lbns = ["model.layer1.0.bn3.running_var/out"], scope_symbol_id = 4611686018427695103 : i64, shape = [256 : si64], trainable = false} : () -> tensor<256xf32>
    %output_22 = "oneflow.variable"() {data_type = 2 : i32, device_name = ["@0:0"], device_tag = "cpu", hierarchy = [1], nd_sbp = ["B"], op_name = "model.layer1.0.bn3.weight", output_lbns = ["model.layer1.0.bn3.weight/out"], scope_symbol_id = 4611686018427703295 : i64, shape = [256 : si64]} : () -> tensor<256xf32>
    %output_23 = "oneflow.variable"() {data_type = 2 : i32, device_name = ["@0:0"], device_tag = "cpu", hierarchy = [1], nd_sbp = ["B"], op_name = "model.layer1.0.bn3.bias", output_lbns = ["model.layer1.0.bn3.bias/out"], scope_symbol_id = 4611686018427711487 : i64, shape = [256 : si64]} : () -> tensor<256xf32>
    %output_24 = "oneflow.variable"() {data_type = 2 : i32, device_name = ["@0:0"], device_tag = "cpu", hierarchy = [1], nd_sbp = ["B"], op_name = "model.layer1.0.downsample.0.weight", output_lbns = ["model.layer1.0.downsample.0.weight/out"], scope_symbol_id = 4611686018427727871 : i64, shape = [256 : si64, 64 : si64, 1 : si64, 1 : si64]} : () -> tensor<256x64x1x1xf32>
    %output_25 = "oneflow.variable"() {data_type = 6 : i32, device_name = ["@0:0"], device_tag = "cpu", hierarchy = [1], nd_sbp = ["B"], op_name = "model.layer1.0.downsample.1.num_batches_tracked", output_lbns = ["model.layer1.0.downsample.1.num_batches_tracked/out"], scope_symbol_id = 4611686018427744255 : i64, shape = [], trainable = false} : () -> tensor<i64>
    %output_26 = "oneflow.variable"() {data_type = 2 : i32, device_name = ["@0:0"], device_tag = "cpu", hierarchy = [1], nd_sbp = ["B"], op_name = "model.layer1.0.downsample.1.running_mean", output_lbns = ["model.layer1.0.downsample.1.running_mean/out"], scope_symbol_id = 4611686018427756543 : i64, shape = [256 : si64], trainable = false} : () -> tensor<256xf32>
    %output_27 = "oneflow.variable"() {data_type = 2 : i32, device_name = ["@0:0"], device_tag = "cpu", hierarchy = [1], nd_sbp = ["B"], op_name = "model.layer1.0.downsample.1.running_var", output_lbns = ["model.layer1.0.downsample.1.running_var/out"], scope_symbol_id = 4611686018427764735 : i64, shape = [256 : si64], trainable = false} : () -> tensor<256xf32>
    %output_28 = "oneflow.variable"() {data_type = 2 : i32, device_name = ["@0:0"], device_tag = "cpu", hierarchy = [1], nd_sbp = ["B"], op_name = "model.layer1.0.downsample.1.weight", output_lbns = ["model.layer1.0.downsample.1.weight/out"], scope_symbol_id = 4611686018427772927 : i64, shape = [256 : si64]} : () -> tensor<256xf32>
    %output_29 = "oneflow.variable"() {data_type = 2 : i32, device_name = ["@0:0"], device_tag = "cpu", hierarchy = [1], nd_sbp = ["B"], op_name = "model.layer1.0.downsample.1.bias", output_lbns = ["model.layer1.0.downsample.1.bias/out"], scope_symbol_id = 4611686018427781119 : i64, shape = [256 : si64]} : () -> tensor<256xf32>
    %output_30 = "oneflow.variable"() {data_type = 2 : i32, device_name = ["@0:0"], device_tag = "cpu", hierarchy = [1], nd_sbp = ["B"], op_name = "model.layer1.1.conv1.weight", output_lbns = ["model.layer1.1.conv1.weight/out"], scope_symbol_id = 4611686018427801599 : i64, shape = [64 : si64, 256 : si64, 1 : si64, 1 : si64]} : () -> tensor<64x256x1x1xf32>
    %output_31 = "oneflow.variable"() {data_type = 6 : i32, device_name = ["@0:0"], device_tag = "cpu", hierarchy = [1], nd_sbp = ["B"], op_name = "model.layer1.1.bn1.num_batches_tracked", output_lbns = ["model.layer1.1.bn1.num_batches_tracked/out"], scope_symbol_id = 4611686018427817983 : i64, shape = [], trainable = false} : () -> tensor<i64>
    %output_32 = "oneflow.variable"() {data_type = 2 : i32, device_name = ["@0:0"], device_tag = "cpu", hierarchy = [1], nd_sbp = ["B"], op_name = "model.layer1.1.bn1.running_mean", output_lbns = ["model.layer1.1.bn1.running_mean/out"], scope_symbol_id = 4611686018427830271 : i64, shape = [64 : si64], trainable = false} : () -> tensor<64xf32>
    %output_33 = "oneflow.variable"() {data_type = 2 : i32, device_name = ["@0:0"], device_tag = "cpu", hierarchy = [1], nd_sbp = ["B"], op_name = "model.layer1.1.bn1.running_var", output_lbns = ["model.layer1.1.bn1.running_var/out"], scope_symbol_id = 4611686018427838463 : i64, shape = [64 : si64], trainable = false} : () -> tensor<64xf32>
    %output_34 = "oneflow.variable"() {data_type = 2 : i32, device_name = ["@0:0"], device_tag = "cpu", hierarchy = [1], nd_sbp = ["B"], op_name = "model.layer1.1.bn1.weight", output_lbns = ["model.layer1.1.bn1.weight/out"], scope_symbol_id = 4611686018427846655 : i64, shape = [64 : si64]} : () -> tensor<64xf32>
    %output_35 = "oneflow.variable"() {data_type = 2 : i32, device_name = ["@0:0"], device_tag = "cpu", hierarchy = [1], nd_sbp = ["B"], op_name = "model.layer1.1.bn1.bias", output_lbns = ["model.layer1.1.bn1.bias/out"], scope_symbol_id = 4611686018427854847 : i64, shape = [64 : si64]} : () -> tensor<64xf32>
    %output_36 = "oneflow.variable"() {data_type = 2 : i32, device_name = ["@0:0"], device_tag = "cpu", hierarchy = [1], nd_sbp = ["B"], op_name = "model.layer1.1.conv2.weight", output_lbns = ["model.layer1.1.conv2.weight/out"], scope_symbol_id = 4611686018427875327 : i64, shape = [64 : si64, 64 : si64, 3 : si64, 3 : si64]} : () -> tensor<64x64x3x3xf32>
    %output_37 = "oneflow.variable"() {data_type = 6 : i32, device_name = ["@0:0"], device_tag = "cpu", hierarchy = [1], nd_sbp = ["B"], op_name = "model.layer1.1.bn2.num_batches_tracked", output_lbns = ["model.layer1.1.bn2.num_batches_tracked/out"], scope_symbol_id = 4611686018427891711 : i64, shape = [], trainable = false} : () -> tensor<i64>
    %output_38 = "oneflow.variable"() {data_type = 2 : i32, device_name = ["@0:0"], device_tag = "cpu", hierarchy = [1], nd_sbp = ["B"], op_name = "model.layer1.1.bn2.running_mean", output_lbns = ["model.layer1.1.bn2.running_mean/out"], scope_symbol_id = 4611686018427903999 : i64, shape = [64 : si64], trainable = false} : () -> tensor<64xf32>
    %output_39 = "oneflow.variable"() {data_type = 2 : i32, device_name = ["@0:0"], device_tag = "cpu", hierarchy = [1], nd_sbp = ["B"], op_name = "model.layer1.1.bn2.running_var", output_lbns = ["model.layer1.1.bn2.running_var/out"], scope_symbol_id = 4611686018427912191 : i64, shape = [64 : si64], trainable = false} : () -> tensor<64xf32>
    %output_40 = "oneflow.variable"() {data_type = 2 : i32, device_name = ["@0:0"], device_tag = "cpu", hierarchy = [1], nd_sbp = ["B"], op_name = "model.layer1.1.bn2.weight", output_lbns = ["model.layer1.1.bn2.weight/out"], scope_symbol_id = 4611686018427920383 : i64, shape = [64 : si64]} : () -> tensor<64xf32>
    %output_41 = "oneflow.variable"() {data_type = 2 : i32, device_name = ["@0:0"], device_tag = "cpu", hierarchy = [1], nd_sbp = ["B"], op_name = "model.layer1.1.bn2.bias", output_lbns = ["model.layer1.1.bn2.bias/out"], scope_symbol_id = 4611686018427928575 : i64, shape = [64 : si64]} : () -> tensor<64xf32>
    %output_42 = "oneflow.variable"() {data_type = 2 : i32, device_name = ["@0:0"], device_tag = "cpu", hierarchy = [1], nd_sbp = ["B"], op_name = "model.layer1.1.conv3.weight", output_lbns = ["model.layer1.1.conv3.weight/out"], scope_symbol_id = 4611686018427940863 : i64, shape = [256 : si64, 64 : si64, 1 : si64, 1 : si64]} : () -> tensor<256x64x1x1xf32>
    %output_43 = "oneflow.variable"() {data_type = 6 : i32, device_name = ["@0:0"], device_tag = "cpu", hierarchy = [1], nd_sbp = ["B"], op_name = "model.layer1.1.bn3.num_batches_tracked", output_lbns = ["model.layer1.1.bn3.num_batches_tracked/out"], scope_symbol_id = 4611686018427957247 : i64, shape = [], trainable = false} : () -> tensor<i64>
    %output_44 = "oneflow.variable"() {data_type = 2 : i32, device_name = ["@0:0"], device_tag = "cpu", hierarchy = [1], nd_sbp = ["B"], op_name = "model.layer1.1.bn3.running_mean", output_lbns = ["model.layer1.1.bn3.running_mean/out"], scope_symbol_id = 4611686018427969535 : i64, shape = [256 : si64], trainable = false} : () -> tensor<256xf32>
    %output_45 = "oneflow.variable"() {data_type = 2 : i32, device_name = ["@0:0"], device_tag = "cpu", hierarchy = [1], nd_sbp = ["B"], op_name = "model.layer1.1.bn3.running_var", output_lbns = ["model.layer1.1.bn3.running_var/out"], scope_symbol_id = 4611686018427977727 : i64, shape = [256 : si64], trainable = false} : () -> tensor<256xf32>
    %output_46 = "oneflow.variable"() {data_type = 2 : i32, device_name = ["@0:0"], device_tag = "cpu", hierarchy = [1], nd_sbp = ["B"], op_name = "model.layer1.1.bn3.weight", output_lbns = ["model.layer1.1.bn3.weight/out"], scope_symbol_id = 4611686018427985919 : i64, shape = [256 : si64]} : () -> tensor<256xf32>
    %output_47 = "oneflow.variable"() {data_type = 2 : i32, device_name = ["@0:0"], device_tag = "cpu", hierarchy = [1], nd_sbp = ["B"], op_name = "model.layer1.1.bn3.bias", output_lbns = ["model.layer1.1.bn3.bias/out"], scope_symbol_id = 4611686018427994111 : i64, shape = [256 : si64]} : () -> tensor<256xf32>
    %output_48 = "oneflow.variable"() {data_type = 2 : i32, device_name = ["@0:0"], device_tag = "cpu", hierarchy = [1], nd_sbp = ["B"], op_name = "model.layer1.2.conv1.weight", output_lbns = ["model.layer1.2.conv1.weight/out"], scope_symbol_id = 4611686018428014591 : i64, shape = [64 : si64, 256 : si64, 1 : si64, 1 : si64]} : () -> tensor<64x256x1x1xf32>
    %output_49 = "oneflow.variable"() {data_type = 6 : i32, device_name = ["@0:0"], device_tag = "cpu", hierarchy = [1], nd_sbp = ["B"], op_name = "model.layer1.2.bn1.num_batches_tracked", output_lbns = ["model.layer1.2.bn1.num_batches_tracked/out"], scope_symbol_id = 4611686018428030975 : i64, shape = [], trainable = false} : () -> tensor<i64>
    %output_50 = "oneflow.variable"() {data_type = 2 : i32, device_name = ["@0:0"], device_tag = "cpu", hierarchy = [1], nd_sbp = ["B"], op_name = "model.layer1.2.bn1.running_mean", output_lbns = ["model.layer1.2.bn1.running_mean/out"], scope_symbol_id = 4611686018428043263 : i64, shape = [64 : si64], trainable = false} : () -> tensor<64xf32>
    %output_51 = "oneflow.variable"() {data_type = 2 : i32, device_name = ["@0:0"], device_tag = "cpu", hierarchy = [1], nd_sbp = ["B"], op_name = "model.layer1.2.bn1.running_var", output_lbns = ["model.layer1.2.bn1.running_var/out"], scope_symbol_id = 4611686018428051455 : i64, shape = [64 : si64], trainable = false} : () -> tensor<64xf32>
    %output_52 = "oneflow.variable"() {data_type = 2 : i32, device_name = ["@0:0"], device_tag = "cpu", hierarchy = [1], nd_sbp = ["B"], op_name = "model.layer1.2.bn1.weight", output_lbns = ["model.layer1.2.bn1.weight/out"], scope_symbol_id = 4611686018428059647 : i64, shape = [64 : si64]} : () -> tensor<64xf32>
    %output_53 = "oneflow.variable"() {data_type = 2 : i32, device_name = ["@0:0"], device_tag = "cpu", hierarchy = [1], nd_sbp = ["B"], op_name = "model.layer1.2.bn1.bias", output_lbns = ["model.layer1.2.bn1.bias/out"], scope_symbol_id = 4611686018428067839 : i64, shape = [64 : si64]} : () -> tensor<64xf32>
    %output_54 = "oneflow.variable"() {data_type = 2 : i32, device_name = ["@0:0"], device_tag = "cpu", hierarchy = [1], nd_sbp = ["B"], op_name = "model.layer1.2.conv2.weight", output_lbns = ["model.layer1.2.conv2.weight/out"], scope_symbol_id = 4611686018428088319 : i64, shape = [64 : si64, 64 : si64, 3 : si64, 3 : si64]} : () -> tensor<64x64x3x3xf32>
    %output_55 = "oneflow.variable"() {data_type = 6 : i32, device_name = ["@0:0"], device_tag = "cpu", hierarchy = [1], nd_sbp = ["B"], op_name = "model.layer1.2.bn2.num_batches_tracked", output_lbns = ["model.layer1.2.bn2.num_batches_tracked/out"], scope_symbol_id = 4611686018428104703 : i64, shape = [], trainable = false} : () -> tensor<i64>
    %output_56 = "oneflow.variable"() {data_type = 2 : i32, device_name = ["@0:0"], device_tag = "cpu", hierarchy = [1], nd_sbp = ["B"], op_name = "model.layer1.2.bn2.running_mean", output_lbns = ["model.layer1.2.bn2.running_mean/out"], scope_symbol_id = 4611686018428116991 : i64, shape = [64 : si64], trainable = false} : () -> tensor<64xf32>
    %output_57 = "oneflow.variable"() {data_type = 2 : i32, device_name = ["@0:0"], device_tag = "cpu", hierarchy = [1], nd_sbp = ["B"], op_name = "model.layer1.2.bn2.running_var", output_lbns = ["model.layer1.2.bn2.running_var/out"], scope_symbol_id = 4611686018428125183 : i64, shape = [64 : si64], trainable = false} : () -> tensor<64xf32>
    %output_58 = "oneflow.variable"() {data_type = 2 : i32, device_name = ["@0:0"], device_tag = "cpu", hierarchy = [1], nd_sbp = ["B"], op_name = "model.layer1.2.bn2.weight", output_lbns = ["model.layer1.2.bn2.weight/out"], scope_symbol_id = 4611686018428133375 : i64, shape = [64 : si64]} : () -> tensor<64xf32>
    %output_59 = "oneflow.variable"() {data_type = 2 : i32, device_name = ["@0:0"], device_tag = "cpu", hierarchy = [1], nd_sbp = ["B"], op_name = "model.layer1.2.bn2.bias", output_lbns = ["model.layer1.2.bn2.bias/out"], scope_symbol_id = 4611686018428141567 : i64, shape = [64 : si64]} : () -> tensor<64xf32>
    %output_60 = "oneflow.variable"() {data_type = 2 : i32, device_name = ["@0:0"], device_tag = "cpu", hierarchy = [1], nd_sbp = ["B"], op_name = "model.layer1.2.conv3.weight", output_lbns = ["model.layer1.2.conv3.weight/out"], scope_symbol_id = 4611686018428153855 : i64, shape = [256 : si64, 64 : si64, 1 : si64, 1 : si64]} : () -> tensor<256x64x1x1xf32>
    %output_61 = "oneflow.variable"() {data_type = 6 : i32, device_name = ["@0:0"], device_tag = "cpu", hierarchy = [1], nd_sbp = ["B"], op_name = "model.layer1.2.bn3.num_batches_tracked", output_lbns = ["model.layer1.2.bn3.num_batches_tracked/out"], scope_symbol_id = 4611686018428170239 : i64, shape = [], trainable = false} : () -> tensor<i64>
    %output_62 = "oneflow.variable"() {data_type = 2 : i32, device_name = ["@0:0"], device_tag = "cpu", hierarchy = [1], nd_sbp = ["B"], op_name = "model.layer1.2.bn3.running_mean", output_lbns = ["model.layer1.2.bn3.running_mean/out"], scope_symbol_id = 4611686018428182527 : i64, shape = [256 : si64], trainable = false} : () -> tensor<256xf32>
    %output_63 = "oneflow.variable"() {data_type = 2 : i32, device_name = ["@0:0"], device_tag = "cpu", hierarchy = [1], nd_sbp = ["B"], op_name = "model.layer1.2.bn3.running_var", output_lbns = ["model.layer1.2.bn3.running_var/out"], scope_symbol_id = 4611686018428190719 : i64, shape = [256 : si64], trainable = false} : () -> tensor<256xf32>
    %output_64 = "oneflow.variable"() {data_type = 2 : i32, device_name = ["@0:0"], device_tag = "cpu", hierarchy = [1], nd_sbp = ["B"], op_name = "model.layer1.2.bn3.weight", output_lbns = ["model.layer1.2.bn3.weight/out"], scope_symbol_id = 4611686018428198911 : i64, shape = [256 : si64]} : () -> tensor<256xf32>
    %output_65 = "oneflow.variable"() {data_type = 2 : i32, device_name = ["@0:0"], device_tag = "cpu", hierarchy = [1], nd_sbp = ["B"], op_name = "model.layer1.2.bn3.bias", output_lbns = ["model.layer1.2.bn3.bias/out"], scope_symbol_id = 4611686018428207103 : i64, shape = [256 : si64]} : () -> tensor<256xf32>
    %output_66 = "oneflow.variable"() {data_type = 2 : i32, device_name = ["@0:0"], device_tag = "cpu", hierarchy = [1], nd_sbp = ["B"], op_name = "model.layer2.0.conv1.weight", output_lbns = ["model.layer2.0.conv1.weight/out"], scope_symbol_id = 4611686018428231679 : i64, shape = [128 : si64, 256 : si64, 1 : si64, 1 : si64]} : () -> tensor<128x256x1x1xf32>
    %output_67 = "oneflow.variable"() {data_type = 6 : i32, device_name = ["@0:0"], device_tag = "cpu", hierarchy = [1], nd_sbp = ["B"], op_name = "model.layer2.0.bn1.num_batches_tracked", output_lbns = ["model.layer2.0.bn1.num_batches_tracked/out"], scope_symbol_id = 4611686018428248063 : i64, shape = [], trainable = false} : () -> tensor<i64>
    %output_68 = "oneflow.variable"() {data_type = 2 : i32, device_name = ["@0:0"], device_tag = "cpu", hierarchy = [1], nd_sbp = ["B"], op_name = "model.layer2.0.bn1.running_mean", output_lbns = ["model.layer2.0.bn1.running_mean/out"], scope_symbol_id = 4611686018428260351 : i64, shape = [128 : si64], trainable = false} : () -> tensor<128xf32>
    %output_69 = "oneflow.variable"() {data_type = 2 : i32, device_name = ["@0:0"], device_tag = "cpu", hierarchy = [1], nd_sbp = ["B"], op_name = "model.layer2.0.bn1.running_var", output_lbns = ["model.layer2.0.bn1.running_var/out"], scope_symbol_id = 4611686018428268543 : i64, shape = [128 : si64], trainable = false} : () -> tensor<128xf32>
    %output_70 = "oneflow.variable"() {data_type = 2 : i32, device_name = ["@0:0"], device_tag = "cpu", hierarchy = [1], nd_sbp = ["B"], op_name = "model.layer2.0.bn1.weight", output_lbns = ["model.layer2.0.bn1.weight/out"], scope_symbol_id = 4611686018428276735 : i64, shape = [128 : si64]} : () -> tensor<128xf32>
    %output_71 = "oneflow.variable"() {data_type = 2 : i32, device_name = ["@0:0"], device_tag = "cpu", hierarchy = [1], nd_sbp = ["B"], op_name = "model.layer2.0.bn1.bias", output_lbns = ["model.layer2.0.bn1.bias/out"], scope_symbol_id = 4611686018428284927 : i64, shape = [128 : si64]} : () -> tensor<128xf32>
    %output_72 = "oneflow.variable"() {data_type = 2 : i32, device_name = ["@0:0"], device_tag = "cpu", hierarchy = [1], nd_sbp = ["B"], op_name = "model.layer2.0.conv2.weight", output_lbns = ["model.layer2.0.conv2.weight/out"], scope_symbol_id = 4611686018428305407 : i64, shape = [128 : si64, 128 : si64, 3 : si64, 3 : si64]} : () -> tensor<128x128x3x3xf32>
    %output_73 = "oneflow.variable"() {data_type = 6 : i32, device_name = ["@0:0"], device_tag = "cpu", hierarchy = [1], nd_sbp = ["B"], op_name = "model.layer2.0.bn2.num_batches_tracked", output_lbns = ["model.layer2.0.bn2.num_batches_tracked/out"], scope_symbol_id = 4611686018428321791 : i64, shape = [], trainable = false} : () -> tensor<i64>
    %output_74 = "oneflow.variable"() {data_type = 2 : i32, device_name = ["@0:0"], device_tag = "cpu", hierarchy = [1], nd_sbp = ["B"], op_name = "model.layer2.0.bn2.running_mean", output_lbns = ["model.layer2.0.bn2.running_mean/out"], scope_symbol_id = 4611686018428334079 : i64, shape = [128 : si64], trainable = false} : () -> tensor<128xf32>
    %output_75 = "oneflow.variable"() {data_type = 2 : i32, device_name = ["@0:0"], device_tag = "cpu", hierarchy = [1], nd_sbp = ["B"], op_name = "model.layer2.0.bn2.running_var", output_lbns = ["model.layer2.0.bn2.running_var/out"], scope_symbol_id = 4611686018428342271 : i64, shape = [128 : si64], trainable = false} : () -> tensor<128xf32>
    %output_76 = "oneflow.variable"() {data_type = 2 : i32, device_name = ["@0:0"], device_tag = "cpu", hierarchy = [1], nd_sbp = ["B"], op_name = "model.layer2.0.bn2.weight", output_lbns = ["model.layer2.0.bn2.weight/out"], scope_symbol_id = 4611686018428350463 : i64, shape = [128 : si64]} : () -> tensor<128xf32>
    %output_77 = "oneflow.variable"() {data_type = 2 : i32, device_name = ["@0:0"], device_tag = "cpu", hierarchy = [1], nd_sbp = ["B"], op_name = "model.layer2.0.bn2.bias", output_lbns = ["model.layer2.0.bn2.bias/out"], scope_symbol_id = 4611686018428358655 : i64, shape = [128 : si64]} : () -> tensor<128xf32>
    %output_78 = "oneflow.variable"() {data_type = 2 : i32, device_name = ["@0:0"], device_tag = "cpu", hierarchy = [1], nd_sbp = ["B"], op_name = "model.layer2.0.conv3.weight", output_lbns = ["model.layer2.0.conv3.weight/out"], scope_symbol_id = 4611686018428370943 : i64, shape = [512 : si64, 128 : si64, 1 : si64, 1 : si64]} : () -> tensor<512x128x1x1xf32>
    %output_79 = "oneflow.variable"() {data_type = 6 : i32, device_name = ["@0:0"], device_tag = "cpu", hierarchy = [1], nd_sbp = ["B"], op_name = "model.layer2.0.bn3.num_batches_tracked", output_lbns = ["model.layer2.0.bn3.num_batches_tracked/out"], scope_symbol_id = 4611686018428387327 : i64, shape = [], trainable = false} : () -> tensor<i64>
    %output_80 = "oneflow.variable"() {data_type = 2 : i32, device_name = ["@0:0"], device_tag = "cpu", hierarchy = [1], nd_sbp = ["B"], op_name = "model.layer2.0.bn3.running_mean", output_lbns = ["model.layer2.0.bn3.running_mean/out"], scope_symbol_id = 4611686018428399615 : i64, shape = [512 : si64], trainable = false} : () -> tensor<512xf32>
    %output_81 = "oneflow.variable"() {data_type = 2 : i32, device_name = ["@0:0"], device_tag = "cpu", hierarchy = [1], nd_sbp = ["B"], op_name = "model.layer2.0.bn3.running_var", output_lbns = ["model.layer2.0.bn3.running_var/out"], scope_symbol_id = 4611686018428407807 : i64, shape = [512 : si64], trainable = false} : () -> tensor<512xf32>
    %output_82 = "oneflow.variable"() {data_type = 2 : i32, device_name = ["@0:0"], device_tag = "cpu", hierarchy = [1], nd_sbp = ["B"], op_name = "model.layer2.0.bn3.weight", output_lbns = ["model.layer2.0.bn3.weight/out"], scope_symbol_id = 4611686018428415999 : i64, shape = [512 : si64]} : () -> tensor<512xf32>
    %output_83 = "oneflow.variable"() {data_type = 2 : i32, device_name = ["@0:0"], device_tag = "cpu", hierarchy = [1], nd_sbp = ["B"], op_name = "model.layer2.0.bn3.bias", output_lbns = ["model.layer2.0.bn3.bias/out"], scope_symbol_id = 4611686018428424191 : i64, shape = [512 : si64]} : () -> tensor<512xf32>
    %output_84 = "oneflow.variable"() {data_type = 2 : i32, device_name = ["@0:0"], device_tag = "cpu", hierarchy = [1], nd_sbp = ["B"], op_name = "model.layer2.0.downsample.0.weight", output_lbns = ["model.layer2.0.downsample.0.weight/out"], scope_symbol_id = 4611686018428440575 : i64, shape = [512 : si64, 256 : si64, 1 : si64, 1 : si64]} : () -> tensor<512x256x1x1xf32>
    %output_85 = "oneflow.variable"() {data_type = 6 : i32, device_name = ["@0:0"], device_tag = "cpu", hierarchy = [1], nd_sbp = ["B"], op_name = "model.layer2.0.downsample.1.num_batches_tracked", output_lbns = ["model.layer2.0.downsample.1.num_batches_tracked/out"], scope_symbol_id = 4611686018428456959 : i64, shape = [], trainable = false} : () -> tensor<i64>
    %output_86 = "oneflow.variable"() {data_type = 2 : i32, device_name = ["@0:0"], device_tag = "cpu", hierarchy = [1], nd_sbp = ["B"], op_name = "model.layer2.0.downsample.1.running_mean", output_lbns = ["model.layer2.0.downsample.1.running_mean/out"], scope_symbol_id = 4611686018428469247 : i64, shape = [512 : si64], trainable = false} : () -> tensor<512xf32>
    %output_87 = "oneflow.variable"() {data_type = 2 : i32, device_name = ["@0:0"], device_tag = "cpu", hierarchy = [1], nd_sbp = ["B"], op_name = "model.layer2.0.downsample.1.running_var", output_lbns = ["model.layer2.0.downsample.1.running_var/out"], scope_symbol_id = 4611686018428477439 : i64, shape = [512 : si64], trainable = false} : () -> tensor<512xf32>
    %output_88 = "oneflow.variable"() {data_type = 2 : i32, device_name = ["@0:0"], device_tag = "cpu", hierarchy = [1], nd_sbp = ["B"], op_name = "model.layer2.0.downsample.1.weight", output_lbns = ["model.layer2.0.downsample.1.weight/out"], scope_symbol_id = 4611686018428485631 : i64, shape = [512 : si64]} : () -> tensor<512xf32>
    %output_89 = "oneflow.variable"() {data_type = 2 : i32, device_name = ["@0:0"], device_tag = "cpu", hierarchy = [1], nd_sbp = ["B"], op_name = "model.layer2.0.downsample.1.bias", output_lbns = ["model.layer2.0.downsample.1.bias/out"], scope_symbol_id = 4611686018428493823 : i64, shape = [512 : si64]} : () -> tensor<512xf32>
    %output_90 = "oneflow.variable"() {data_type = 2 : i32, device_name = ["@0:0"], device_tag = "cpu", hierarchy = [1], nd_sbp = ["B"], op_name = "model.layer2.1.conv1.weight", output_lbns = ["model.layer2.1.conv1.weight/out"], scope_symbol_id = 4611686018428514303 : i64, shape = [128 : si64, 512 : si64, 1 : si64, 1 : si64]} : () -> tensor<128x512x1x1xf32>
    %output_91 = "oneflow.variable"() {data_type = 6 : i32, device_name = ["@0:0"], device_tag = "cpu", hierarchy = [1], nd_sbp = ["B"], op_name = "model.layer2.1.bn1.num_batches_tracked", output_lbns = ["model.layer2.1.bn1.num_batches_tracked/out"], scope_symbol_id = 4611686018428530687 : i64, shape = [], trainable = false} : () -> tensor<i64>
    %output_92 = "oneflow.variable"() {data_type = 2 : i32, device_name = ["@0:0"], device_tag = "cpu", hierarchy = [1], nd_sbp = ["B"], op_name = "model.layer2.1.bn1.running_mean", output_lbns = ["model.layer2.1.bn1.running_mean/out"], scope_symbol_id = 4611686018428542975 : i64, shape = [128 : si64], trainable = false} : () -> tensor<128xf32>
    %output_93 = "oneflow.variable"() {data_type = 2 : i32, device_name = ["@0:0"], device_tag = "cpu", hierarchy = [1], nd_sbp = ["B"], op_name = "model.layer2.1.bn1.running_var", output_lbns = ["model.layer2.1.bn1.running_var/out"], scope_symbol_id = 4611686018428551167 : i64, shape = [128 : si64], trainable = false} : () -> tensor<128xf32>
    %output_94 = "oneflow.variable"() {data_type = 2 : i32, device_name = ["@0:0"], device_tag = "cpu", hierarchy = [1], nd_sbp = ["B"], op_name = "model.layer2.1.bn1.weight", output_lbns = ["model.layer2.1.bn1.weight/out"], scope_symbol_id = 4611686018428559359 : i64, shape = [128 : si64]} : () -> tensor<128xf32>
    %output_95 = "oneflow.variable"() {data_type = 2 : i32, device_name = ["@0:0"], device_tag = "cpu", hierarchy = [1], nd_sbp = ["B"], op_name = "model.layer2.1.bn1.bias", output_lbns = ["model.layer2.1.bn1.bias/out"], scope_symbol_id = 4611686018428567551 : i64, shape = [128 : si64]} : () -> tensor<128xf32>
    %output_96 = "oneflow.variable"() {data_type = 2 : i32, device_name = ["@0:0"], device_tag = "cpu", hierarchy = [1], nd_sbp = ["B"], op_name = "model.layer2.1.conv2.weight", output_lbns = ["model.layer2.1.conv2.weight/out"], scope_symbol_id = 4611686018428588031 : i64, shape = [128 : si64, 128 : si64, 3 : si64, 3 : si64]} : () -> tensor<128x128x3x3xf32>
    %output_97 = "oneflow.variable"() {data_type = 6 : i32, device_name = ["@0:0"], device_tag = "cpu", hierarchy = [1], nd_sbp = ["B"], op_name = "model.layer2.1.bn2.num_batches_tracked", output_lbns = ["model.layer2.1.bn2.num_batches_tracked/out"], scope_symbol_id = 4611686018428604415 : i64, shape = [], trainable = false} : () -> tensor<i64>
    %output_98 = "oneflow.variable"() {data_type = 2 : i32, device_name = ["@0:0"], device_tag = "cpu", hierarchy = [1], nd_sbp = ["B"], op_name = "model.layer2.1.bn2.running_mean", output_lbns = ["model.layer2.1.bn2.running_mean/out"], scope_symbol_id = 4611686018428616703 : i64, shape = [128 : si64], trainable = false} : () -> tensor<128xf32>
    %output_99 = "oneflow.variable"() {data_type = 2 : i32, device_name = ["@0:0"], device_tag = "cpu", hierarchy = [1], nd_sbp = ["B"], op_name = "model.layer2.1.bn2.running_var", output_lbns = ["model.layer2.1.bn2.running_var/out"], scope_symbol_id = 4611686018428624895 : i64, shape = [128 : si64], trainable = false} : () -> tensor<128xf32>
    %output_100 = "oneflow.variable"() {data_type = 2 : i32, device_name = ["@0:0"], device_tag = "cpu", hierarchy = [1], nd_sbp = ["B"], op_name = "model.layer2.1.bn2.weight", output_lbns = ["model.layer2.1.bn2.weight/out"], scope_symbol_id = 4611686018428633087 : i64, shape = [128 : si64]} : () -> tensor<128xf32>
    %output_101 = "oneflow.variable"() {data_type = 2 : i32, device_name = ["@0:0"], device_tag = "cpu", hierarchy = [1], nd_sbp = ["B"], op_name = "model.layer2.1.bn2.bias", output_lbns = ["model.layer2.1.bn2.bias/out"], scope_symbol_id = 4611686018428641279 : i64, shape = [128 : si64]} : () -> tensor<128xf32>
    %output_102 = "oneflow.variable"() {data_type = 2 : i32, device_name = ["@0:0"], device_tag = "cpu", hierarchy = [1], nd_sbp = ["B"], op_name = "model.layer2.1.conv3.weight", output_lbns = ["model.layer2.1.conv3.weight/out"], scope_symbol_id = 4611686018428653567 : i64, shape = [512 : si64, 128 : si64, 1 : si64, 1 : si64]} : () -> tensor<512x128x1x1xf32>
    %output_103 = "oneflow.variable"() {data_type = 6 : i32, device_name = ["@0:0"], device_tag = "cpu", hierarchy = [1], nd_sbp = ["B"], op_name = "model.layer2.1.bn3.num_batches_tracked", output_lbns = ["model.layer2.1.bn3.num_batches_tracked/out"], scope_symbol_id = 4611686018428669951 : i64, shape = [], trainable = false} : () -> tensor<i64>
    %output_104 = "oneflow.variable"() {data_type = 2 : i32, device_name = ["@0:0"], device_tag = "cpu", hierarchy = [1], nd_sbp = ["B"], op_name = "model.layer2.1.bn3.running_mean", output_lbns = ["model.layer2.1.bn3.running_mean/out"], scope_symbol_id = 4611686018428682239 : i64, shape = [512 : si64], trainable = false} : () -> tensor<512xf32>
    %output_105 = "oneflow.variable"() {data_type = 2 : i32, device_name = ["@0:0"], device_tag = "cpu", hierarchy = [1], nd_sbp = ["B"], op_name = "model.layer2.1.bn3.running_var", output_lbns = ["model.layer2.1.bn3.running_var/out"], scope_symbol_id = 4611686018428690431 : i64, shape = [512 : si64], trainable = false} : () -> tensor<512xf32>
    %output_106 = "oneflow.variable"() {data_type = 2 : i32, device_name = ["@0:0"], device_tag = "cpu", hierarchy = [1], nd_sbp = ["B"], op_name = "model.layer2.1.bn3.weight", output_lbns = ["model.layer2.1.bn3.weight/out"], scope_symbol_id = 4611686018428698623 : i64, shape = [512 : si64]} : () -> tensor<512xf32>
    %output_107 = "oneflow.variable"() {data_type = 2 : i32, device_name = ["@0:0"], device_tag = "cpu", hierarchy = [1], nd_sbp = ["B"], op_name = "model.layer2.1.bn3.bias", output_lbns = ["model.layer2.1.bn3.bias/out"], scope_symbol_id = 4611686018428706815 : i64, shape = [512 : si64]} : () -> tensor<512xf32>
    %output_108 = "oneflow.variable"() {data_type = 2 : i32, device_name = ["@0:0"], device_tag = "cpu", hierarchy = [1], nd_sbp = ["B"], op_name = "model.layer2.2.conv1.weight", output_lbns = ["model.layer2.2.conv1.weight/out"], scope_symbol_id = 4611686018428727295 : i64, shape = [128 : si64, 512 : si64, 1 : si64, 1 : si64]} : () -> tensor<128x512x1x1xf32>
    %output_109 = "oneflow.variable"() {data_type = 6 : i32, device_name = ["@0:0"], device_tag = "cpu", hierarchy = [1], nd_sbp = ["B"], op_name = "model.layer2.2.bn1.num_batches_tracked", output_lbns = ["model.layer2.2.bn1.num_batches_tracked/out"], scope_symbol_id = 4611686018428743679 : i64, shape = [], trainable = false} : () -> tensor<i64>
    %output_110 = "oneflow.variable"() {data_type = 2 : i32, device_name = ["@0:0"], device_tag = "cpu", hierarchy = [1], nd_sbp = ["B"], op_name = "model.layer2.2.bn1.running_mean", output_lbns = ["model.layer2.2.bn1.running_mean/out"], scope_symbol_id = 4611686018428755967 : i64, shape = [128 : si64], trainable = false} : () -> tensor<128xf32>
    %output_111 = "oneflow.variable"() {data_type = 2 : i32, device_name = ["@0:0"], device_tag = "cpu", hierarchy = [1], nd_sbp = ["B"], op_name = "model.layer2.2.bn1.running_var", output_lbns = ["model.layer2.2.bn1.running_var/out"], scope_symbol_id = 4611686018428764159 : i64, shape = [128 : si64], trainable = false} : () -> tensor<128xf32>
    %output_112 = "oneflow.variable"() {data_type = 2 : i32, device_name = ["@0:0"], device_tag = "cpu", hierarchy = [1], nd_sbp = ["B"], op_name = "model.layer2.2.bn1.weight", output_lbns = ["model.layer2.2.bn1.weight/out"], scope_symbol_id = 4611686018428772351 : i64, shape = [128 : si64]} : () -> tensor<128xf32>
    %output_113 = "oneflow.variable"() {data_type = 2 : i32, device_name = ["@0:0"], device_tag = "cpu", hierarchy = [1], nd_sbp = ["B"], op_name = "model.layer2.2.bn1.bias", output_lbns = ["model.layer2.2.bn1.bias/out"], scope_symbol_id = 4611686018428780543 : i64, shape = [128 : si64]} : () -> tensor<128xf32>
    %output_114 = "oneflow.variable"() {data_type = 2 : i32, device_name = ["@0:0"], device_tag = "cpu", hierarchy = [1], nd_sbp = ["B"], op_name = "model.layer2.2.conv2.weight", output_lbns = ["model.layer2.2.conv2.weight/out"], scope_symbol_id = 4611686018428801023 : i64, shape = [128 : si64, 128 : si64, 3 : si64, 3 : si64]} : () -> tensor<128x128x3x3xf32>
    %output_115 = "oneflow.variable"() {data_type = 6 : i32, device_name = ["@0:0"], device_tag = "cpu", hierarchy = [1], nd_sbp = ["B"], op_name = "model.layer2.2.bn2.num_batches_tracked", output_lbns = ["model.layer2.2.bn2.num_batches_tracked/out"], scope_symbol_id = 4611686018428817407 : i64, shape = [], trainable = false} : () -> tensor<i64>
    %output_116 = "oneflow.variable"() {data_type = 2 : i32, device_name = ["@0:0"], device_tag = "cpu", hierarchy = [1], nd_sbp = ["B"], op_name = "model.layer2.2.bn2.running_mean", output_lbns = ["model.layer2.2.bn2.running_mean/out"], scope_symbol_id = 4611686018428829695 : i64, shape = [128 : si64], trainable = false} : () -> tensor<128xf32>
    %output_117 = "oneflow.variable"() {data_type = 2 : i32, device_name = ["@0:0"], device_tag = "cpu", hierarchy = [1], nd_sbp = ["B"], op_name = "model.layer2.2.bn2.running_var", output_lbns = ["model.layer2.2.bn2.running_var/out"], scope_symbol_id = 4611686018428837887 : i64, shape = [128 : si64], trainable = false} : () -> tensor<128xf32>
    %output_118 = "oneflow.variable"() {data_type = 2 : i32, device_name = ["@0:0"], device_tag = "cpu", hierarchy = [1], nd_sbp = ["B"], op_name = "model.layer2.2.bn2.weight", output_lbns = ["model.layer2.2.bn2.weight/out"], scope_symbol_id = 4611686018428846079 : i64, shape = [128 : si64]} : () -> tensor<128xf32>
    %output_119 = "oneflow.variable"() {data_type = 2 : i32, device_name = ["@0:0"], device_tag = "cpu", hierarchy = [1], nd_sbp = ["B"], op_name = "model.layer2.2.bn2.bias", output_lbns = ["model.layer2.2.bn2.bias/out"], scope_symbol_id = 4611686018428854271 : i64, shape = [128 : si64]} : () -> tensor<128xf32>
    %output_120 = "oneflow.variable"() {data_type = 2 : i32, device_name = ["@0:0"], device_tag = "cpu", hierarchy = [1], nd_sbp = ["B"], op_name = "model.layer2.2.conv3.weight", output_lbns = ["model.layer2.2.conv3.weight/out"], scope_symbol_id = 4611686018428866559 : i64, shape = [512 : si64, 128 : si64, 1 : si64, 1 : si64]} : () -> tensor<512x128x1x1xf32>
    %output_121 = "oneflow.variable"() {data_type = 6 : i32, device_name = ["@0:0"], device_tag = "cpu", hierarchy = [1], nd_sbp = ["B"], op_name = "model.layer2.2.bn3.num_batches_tracked", output_lbns = ["model.layer2.2.bn3.num_batches_tracked/out"], scope_symbol_id = 4611686018428882943 : i64, shape = [], trainable = false} : () -> tensor<i64>
    %output_122 = "oneflow.variable"() {data_type = 2 : i32, device_name = ["@0:0"], device_tag = "cpu", hierarchy = [1], nd_sbp = ["B"], op_name = "model.layer2.2.bn3.running_mean", output_lbns = ["model.layer2.2.bn3.running_mean/out"], scope_symbol_id = 4611686018428895231 : i64, shape = [512 : si64], trainable = false} : () -> tensor<512xf32>
    %output_123 = "oneflow.variable"() {data_type = 2 : i32, device_name = ["@0:0"], device_tag = "cpu", hierarchy = [1], nd_sbp = ["B"], op_name = "model.layer2.2.bn3.running_var", output_lbns = ["model.layer2.2.bn3.running_var/out"], scope_symbol_id = 4611686018428903423 : i64, shape = [512 : si64], trainable = false} : () -> tensor<512xf32>
    %output_124 = "oneflow.variable"() {data_type = 2 : i32, device_name = ["@0:0"], device_tag = "cpu", hierarchy = [1], nd_sbp = ["B"], op_name = "model.layer2.2.bn3.weight", output_lbns = ["model.layer2.2.bn3.weight/out"], scope_symbol_id = 4611686018428911615 : i64, shape = [512 : si64]} : () -> tensor<512xf32>
    %output_125 = "oneflow.variable"() {data_type = 2 : i32, device_name = ["@0:0"], device_tag = "cpu", hierarchy = [1], nd_sbp = ["B"], op_name = "model.layer2.2.bn3.bias", output_lbns = ["model.layer2.2.bn3.bias/out"], scope_symbol_id = 4611686018428919807 : i64, shape = [512 : si64]} : () -> tensor<512xf32>
    %output_126 = "oneflow.variable"() {data_type = 2 : i32, device_name = ["@0:0"], device_tag = "cpu", hierarchy = [1], nd_sbp = ["B"], op_name = "model.layer2.3.conv1.weight", output_lbns = ["model.layer2.3.conv1.weight/out"], scope_symbol_id = 4611686018428940287 : i64, shape = [128 : si64, 512 : si64, 1 : si64, 1 : si64]} : () -> tensor<128x512x1x1xf32>
    %output_127 = "oneflow.variable"() {data_type = 6 : i32, device_name = ["@0:0"], device_tag = "cpu", hierarchy = [1], nd_sbp = ["B"], op_name = "model.layer2.3.bn1.num_batches_tracked", output_lbns = ["model.layer2.3.bn1.num_batches_tracked/out"], scope_symbol_id = 4611686018428956671 : i64, shape = [], trainable = false} : () -> tensor<i64>
    %output_128 = "oneflow.variable"() {data_type = 2 : i32, device_name = ["@0:0"], device_tag = "cpu", hierarchy = [1], nd_sbp = ["B"], op_name = "model.layer2.3.bn1.running_mean", output_lbns = ["model.layer2.3.bn1.running_mean/out"], scope_symbol_id = 4611686018428968959 : i64, shape = [128 : si64], trainable = false} : () -> tensor<128xf32>
    %output_129 = "oneflow.variable"() {data_type = 2 : i32, device_name = ["@0:0"], device_tag = "cpu", hierarchy = [1], nd_sbp = ["B"], op_name = "model.layer2.3.bn1.running_var", output_lbns = ["model.layer2.3.bn1.running_var/out"], scope_symbol_id = 4611686018428977151 : i64, shape = [128 : si64], trainable = false} : () -> tensor<128xf32>
    %output_130 = "oneflow.variable"() {data_type = 2 : i32, device_name = ["@0:0"], device_tag = "cpu", hierarchy = [1], nd_sbp = ["B"], op_name = "model.layer2.3.bn1.weight", output_lbns = ["model.layer2.3.bn1.weight/out"], scope_symbol_id = 4611686018428985343 : i64, shape = [128 : si64]} : () -> tensor<128xf32>
    %output_131 = "oneflow.variable"() {data_type = 2 : i32, device_name = ["@0:0"], device_tag = "cpu", hierarchy = [1], nd_sbp = ["B"], op_name = "model.layer2.3.bn1.bias", output_lbns = ["model.layer2.3.bn1.bias/out"], scope_symbol_id = 4611686018428993535 : i64, shape = [128 : si64]} : () -> tensor<128xf32>
    %output_132 = "oneflow.variable"() {data_type = 2 : i32, device_name = ["@0:0"], device_tag = "cpu", hierarchy = [1], nd_sbp = ["B"], op_name = "model.layer2.3.conv2.weight", output_lbns = ["model.layer2.3.conv2.weight/out"], scope_symbol_id = 4611686018429014015 : i64, shape = [128 : si64, 128 : si64, 3 : si64, 3 : si64]} : () -> tensor<128x128x3x3xf32>
    %output_133 = "oneflow.variable"() {data_type = 6 : i32, device_name = ["@0:0"], device_tag = "cpu", hierarchy = [1], nd_sbp = ["B"], op_name = "model.layer2.3.bn2.num_batches_tracked", output_lbns = ["model.layer2.3.bn2.num_batches_tracked/out"], scope_symbol_id = 4611686018429030399 : i64, shape = [], trainable = false} : () -> tensor<i64>
    %output_134 = "oneflow.variable"() {data_type = 2 : i32, device_name = ["@0:0"], device_tag = "cpu", hierarchy = [1], nd_sbp = ["B"], op_name = "model.layer2.3.bn2.running_mean", output_lbns = ["model.layer2.3.bn2.running_mean/out"], scope_symbol_id = 4611686018429042687 : i64, shape = [128 : si64], trainable = false} : () -> tensor<128xf32>
    %output_135 = "oneflow.variable"() {data_type = 2 : i32, device_name = ["@0:0"], device_tag = "cpu", hierarchy = [1], nd_sbp = ["B"], op_name = "model.layer2.3.bn2.running_var", output_lbns = ["model.layer2.3.bn2.running_var/out"], scope_symbol_id = 4611686018429050879 : i64, shape = [128 : si64], trainable = false} : () -> tensor<128xf32>
    %output_136 = "oneflow.variable"() {data_type = 2 : i32, device_name = ["@0:0"], device_tag = "cpu", hierarchy = [1], nd_sbp = ["B"], op_name = "model.layer2.3.bn2.weight", output_lbns = ["model.layer2.3.bn2.weight/out"], scope_symbol_id = 4611686018429059071 : i64, shape = [128 : si64]} : () -> tensor<128xf32>
    %output_137 = "oneflow.variable"() {data_type = 2 : i32, device_name = ["@0:0"], device_tag = "cpu", hierarchy = [1], nd_sbp = ["B"], op_name = "model.layer2.3.bn2.bias", output_lbns = ["model.layer2.3.bn2.bias/out"], scope_symbol_id = 4611686018429067263 : i64, shape = [128 : si64]} : () -> tensor<128xf32>
    %output_138 = "oneflow.variable"() {data_type = 2 : i32, device_name = ["@0:0"], device_tag = "cpu", hierarchy = [1], nd_sbp = ["B"], op_name = "model.layer2.3.conv3.weight", output_lbns = ["model.layer2.3.conv3.weight/out"], scope_symbol_id = 4611686018429079551 : i64, shape = [512 : si64, 128 : si64, 1 : si64, 1 : si64]} : () -> tensor<512x128x1x1xf32>
    %output_139 = "oneflow.variable"() {data_type = 6 : i32, device_name = ["@0:0"], device_tag = "cpu", hierarchy = [1], nd_sbp = ["B"], op_name = "model.layer2.3.bn3.num_batches_tracked", output_lbns = ["model.layer2.3.bn3.num_batches_tracked/out"], scope_symbol_id = 4611686018429095935 : i64, shape = [], trainable = false} : () -> tensor<i64>
    %output_140 = "oneflow.variable"() {data_type = 2 : i32, device_name = ["@0:0"], device_tag = "cpu", hierarchy = [1], nd_sbp = ["B"], op_name = "model.layer2.3.bn3.running_mean", output_lbns = ["model.layer2.3.bn3.running_mean/out"], scope_symbol_id = 4611686018429108223 : i64, shape = [512 : si64], trainable = false} : () -> tensor<512xf32>
    %output_141 = "oneflow.variable"() {data_type = 2 : i32, device_name = ["@0:0"], device_tag = "cpu", hierarchy = [1], nd_sbp = ["B"], op_name = "model.layer2.3.bn3.running_var", output_lbns = ["model.layer2.3.bn3.running_var/out"], scope_symbol_id = 4611686018429116415 : i64, shape = [512 : si64], trainable = false} : () -> tensor<512xf32>
    %output_142 = "oneflow.variable"() {data_type = 2 : i32, device_name = ["@0:0"], device_tag = "cpu", hierarchy = [1], nd_sbp = ["B"], op_name = "model.layer2.3.bn3.weight", output_lbns = ["model.layer2.3.bn3.weight/out"], scope_symbol_id = 4611686018429124607 : i64, shape = [512 : si64]} : () -> tensor<512xf32>
    %output_143 = "oneflow.variable"() {data_type = 2 : i32, device_name = ["@0:0"], device_tag = "cpu", hierarchy = [1], nd_sbp = ["B"], op_name = "model.layer2.3.bn3.bias", output_lbns = ["model.layer2.3.bn3.bias/out"], scope_symbol_id = 4611686018429132799 : i64, shape = [512 : si64]} : () -> tensor<512xf32>
    %output_144 = "oneflow.variable"() {data_type = 2 : i32, device_name = ["@0:0"], device_tag = "cpu", hierarchy = [1], nd_sbp = ["B"], op_name = "model.layer3.0.conv1.weight", output_lbns = ["model.layer3.0.conv1.weight/out"], scope_symbol_id = 4611686018429157375 : i64, shape = [256 : si64, 512 : si64, 1 : si64, 1 : si64]} : () -> tensor<256x512x1x1xf32>
    %output_145 = "oneflow.variable"() {data_type = 6 : i32, device_name = ["@0:0"], device_tag = "cpu", hierarchy = [1], nd_sbp = ["B"], op_name = "model.layer3.0.bn1.num_batches_tracked", output_lbns = ["model.layer3.0.bn1.num_batches_tracked/out"], scope_symbol_id = 4611686018429173759 : i64, shape = [], trainable = false} : () -> tensor<i64>
    %output_146 = "oneflow.variable"() {data_type = 2 : i32, device_name = ["@0:0"], device_tag = "cpu", hierarchy = [1], nd_sbp = ["B"], op_name = "model.layer3.0.bn1.running_mean", output_lbns = ["model.layer3.0.bn1.running_mean/out"], scope_symbol_id = 4611686018429186047 : i64, shape = [256 : si64], trainable = false} : () -> tensor<256xf32>
    %output_147 = "oneflow.variable"() {data_type = 2 : i32, device_name = ["@0:0"], device_tag = "cpu", hierarchy = [1], nd_sbp = ["B"], op_name = "model.layer3.0.bn1.running_var", output_lbns = ["model.layer3.0.bn1.running_var/out"], scope_symbol_id = 4611686018429194239 : i64, shape = [256 : si64], trainable = false} : () -> tensor<256xf32>
    %output_148 = "oneflow.variable"() {data_type = 2 : i32, device_name = ["@0:0"], device_tag = "cpu", hierarchy = [1], nd_sbp = ["B"], op_name = "model.layer3.0.bn1.weight", output_lbns = ["model.layer3.0.bn1.weight/out"], scope_symbol_id = 4611686018429202431 : i64, shape = [256 : si64]} : () -> tensor<256xf32>
    %output_149 = "oneflow.variable"() {data_type = 2 : i32, device_name = ["@0:0"], device_tag = "cpu", hierarchy = [1], nd_sbp = ["B"], op_name = "model.layer3.0.bn1.bias", output_lbns = ["model.layer3.0.bn1.bias/out"], scope_symbol_id = 4611686018429210623 : i64, shape = [256 : si64]} : () -> tensor<256xf32>
    %output_150 = "oneflow.variable"() {data_type = 2 : i32, device_name = ["@0:0"], device_tag = "cpu", hierarchy = [1], nd_sbp = ["B"], op_name = "model.layer3.0.conv2.weight", output_lbns = ["model.layer3.0.conv2.weight/out"], scope_symbol_id = 4611686018429231103 : i64, shape = [256 : si64, 256 : si64, 3 : si64, 3 : si64]} : () -> tensor<256x256x3x3xf32>
    %output_151 = "oneflow.variable"() {data_type = 6 : i32, device_name = ["@0:0"], device_tag = "cpu", hierarchy = [1], nd_sbp = ["B"], op_name = "model.layer3.0.bn2.num_batches_tracked", output_lbns = ["model.layer3.0.bn2.num_batches_tracked/out"], scope_symbol_id = 4611686018429247487 : i64, shape = [], trainable = false} : () -> tensor<i64>
    %output_152 = "oneflow.variable"() {data_type = 2 : i32, device_name = ["@0:0"], device_tag = "cpu", hierarchy = [1], nd_sbp = ["B"], op_name = "model.layer3.0.bn2.running_mean", output_lbns = ["model.layer3.0.bn2.running_mean/out"], scope_symbol_id = 4611686018429259775 : i64, shape = [256 : si64], trainable = false} : () -> tensor<256xf32>
    %output_153 = "oneflow.variable"() {data_type = 2 : i32, device_name = ["@0:0"], device_tag = "cpu", hierarchy = [1], nd_sbp = ["B"], op_name = "model.layer3.0.bn2.running_var", output_lbns = ["model.layer3.0.bn2.running_var/out"], scope_symbol_id = 4611686018429267967 : i64, shape = [256 : si64], trainable = false} : () -> tensor<256xf32>
    %output_154 = "oneflow.variable"() {data_type = 2 : i32, device_name = ["@0:0"], device_tag = "cpu", hierarchy = [1], nd_sbp = ["B"], op_name = "model.layer3.0.bn2.weight", output_lbns = ["model.layer3.0.bn2.weight/out"], scope_symbol_id = 4611686018429276159 : i64, shape = [256 : si64]} : () -> tensor<256xf32>
    %output_155 = "oneflow.variable"() {data_type = 2 : i32, device_name = ["@0:0"], device_tag = "cpu", hierarchy = [1], nd_sbp = ["B"], op_name = "model.layer3.0.bn2.bias", output_lbns = ["model.layer3.0.bn2.bias/out"], scope_symbol_id = 4611686018429284351 : i64, shape = [256 : si64]} : () -> tensor<256xf32>
    %output_156 = "oneflow.variable"() {data_type = 2 : i32, device_name = ["@0:0"], device_tag = "cpu", hierarchy = [1], nd_sbp = ["B"], op_name = "model.layer3.0.conv3.weight", output_lbns = ["model.layer3.0.conv3.weight/out"], scope_symbol_id = 4611686018429296639 : i64, shape = [1024 : si64, 256 : si64, 1 : si64, 1 : si64]} : () -> tensor<1024x256x1x1xf32>
    %output_157 = "oneflow.variable"() {data_type = 6 : i32, device_name = ["@0:0"], device_tag = "cpu", hierarchy = [1], nd_sbp = ["B"], op_name = "model.layer3.0.bn3.num_batches_tracked", output_lbns = ["model.layer3.0.bn3.num_batches_tracked/out"], scope_symbol_id = 4611686018429313023 : i64, shape = [], trainable = false} : () -> tensor<i64>
    %output_158 = "oneflow.variable"() {data_type = 2 : i32, device_name = ["@0:0"], device_tag = "cpu", hierarchy = [1], nd_sbp = ["B"], op_name = "model.layer3.0.bn3.running_mean", output_lbns = ["model.layer3.0.bn3.running_mean/out"], scope_symbol_id = 4611686018429325311 : i64, shape = [1024 : si64], trainable = false} : () -> tensor<1024xf32>
    %output_159 = "oneflow.variable"() {data_type = 2 : i32, device_name = ["@0:0"], device_tag = "cpu", hierarchy = [1], nd_sbp = ["B"], op_name = "model.layer3.0.bn3.running_var", output_lbns = ["model.layer3.0.bn3.running_var/out"], scope_symbol_id = 4611686018429333503 : i64, shape = [1024 : si64], trainable = false} : () -> tensor<1024xf32>
    %output_160 = "oneflow.variable"() {data_type = 2 : i32, device_name = ["@0:0"], device_tag = "cpu", hierarchy = [1], nd_sbp = ["B"], op_name = "model.layer3.0.bn3.weight", output_lbns = ["model.layer3.0.bn3.weight/out"], scope_symbol_id = 4611686018429341695 : i64, shape = [1024 : si64]} : () -> tensor<1024xf32>
    %output_161 = "oneflow.variable"() {data_type = 2 : i32, device_name = ["@0:0"], device_tag = "cpu", hierarchy = [1], nd_sbp = ["B"], op_name = "model.layer3.0.bn3.bias", output_lbns = ["model.layer3.0.bn3.bias/out"], scope_symbol_id = 4611686018429349887 : i64, shape = [1024 : si64]} : () -> tensor<1024xf32>
    %output_162 = "oneflow.variable"() {data_type = 2 : i32, device_name = ["@0:0"], device_tag = "cpu", hierarchy = [1], nd_sbp = ["B"], op_name = "model.layer3.0.downsample.0.weight", output_lbns = ["model.layer3.0.downsample.0.weight/out"], scope_symbol_id = 4611686018429366271 : i64, shape = [1024 : si64, 512 : si64, 1 : si64, 1 : si64]} : () -> tensor<1024x512x1x1xf32>
    %output_163 = "oneflow.variable"() {data_type = 6 : i32, device_name = ["@0:0"], device_tag = "cpu", hierarchy = [1], nd_sbp = ["B"], op_name = "model.layer3.0.downsample.1.num_batches_tracked", output_lbns = ["model.layer3.0.downsample.1.num_batches_tracked/out"], scope_symbol_id = 4611686018429382655 : i64, shape = [], trainable = false} : () -> tensor<i64>
    %output_164 = "oneflow.variable"() {data_type = 2 : i32, device_name = ["@0:0"], device_tag = "cpu", hierarchy = [1], nd_sbp = ["B"], op_name = "model.layer3.0.downsample.1.running_mean", output_lbns = ["model.layer3.0.downsample.1.running_mean/out"], scope_symbol_id = 4611686018429394943 : i64, shape = [1024 : si64], trainable = false} : () -> tensor<1024xf32>
    %output_165 = "oneflow.variable"() {data_type = 2 : i32, device_name = ["@0:0"], device_tag = "cpu", hierarchy = [1], nd_sbp = ["B"], op_name = "model.layer3.0.downsample.1.running_var", output_lbns = ["model.layer3.0.downsample.1.running_var/out"], scope_symbol_id = 4611686018429403135 : i64, shape = [1024 : si64], trainable = false} : () -> tensor<1024xf32>
    %output_166 = "oneflow.variable"() {data_type = 2 : i32, device_name = ["@0:0"], device_tag = "cpu", hierarchy = [1], nd_sbp = ["B"], op_name = "model.layer3.0.downsample.1.weight", output_lbns = ["model.layer3.0.downsample.1.weight/out"], scope_symbol_id = 4611686018429411327 : i64, shape = [1024 : si64]} : () -> tensor<1024xf32>
    %output_167 = "oneflow.variable"() {data_type = 2 : i32, device_name = ["@0:0"], device_tag = "cpu", hierarchy = [1], nd_sbp = ["B"], op_name = "model.layer3.0.downsample.1.bias", output_lbns = ["model.layer3.0.downsample.1.bias/out"], scope_symbol_id = 4611686018429419519 : i64, shape = [1024 : si64]} : () -> tensor<1024xf32>
    %output_168 = "oneflow.variable"() {data_type = 2 : i32, device_name = ["@0:0"], device_tag = "cpu", hierarchy = [1], nd_sbp = ["B"], op_name = "model.layer3.1.conv1.weight", output_lbns = ["model.layer3.1.conv1.weight/out"], scope_symbol_id = 4611686018429439999 : i64, shape = [256 : si64, 1024 : si64, 1 : si64, 1 : si64]} : () -> tensor<256x1024x1x1xf32>
    %output_169 = "oneflow.variable"() {data_type = 6 : i32, device_name = ["@0:0"], device_tag = "cpu", hierarchy = [1], nd_sbp = ["B"], op_name = "model.layer3.1.bn1.num_batches_tracked", output_lbns = ["model.layer3.1.bn1.num_batches_tracked/out"], scope_symbol_id = 4611686018429456383 : i64, shape = [], trainable = false} : () -> tensor<i64>
    %output_170 = "oneflow.variable"() {data_type = 2 : i32, device_name = ["@0:0"], device_tag = "cpu", hierarchy = [1], nd_sbp = ["B"], op_name = "model.layer3.1.bn1.running_mean", output_lbns = ["model.layer3.1.bn1.running_mean/out"], scope_symbol_id = 4611686018429468671 : i64, shape = [256 : si64], trainable = false} : () -> tensor<256xf32>
    %output_171 = "oneflow.variable"() {data_type = 2 : i32, device_name = ["@0:0"], device_tag = "cpu", hierarchy = [1], nd_sbp = ["B"], op_name = "model.layer3.1.bn1.running_var", output_lbns = ["model.layer3.1.bn1.running_var/out"], scope_symbol_id = 4611686018429476863 : i64, shape = [256 : si64], trainable = false} : () -> tensor<256xf32>
    %output_172 = "oneflow.variable"() {data_type = 2 : i32, device_name = ["@0:0"], device_tag = "cpu", hierarchy = [1], nd_sbp = ["B"], op_name = "model.layer3.1.bn1.weight", output_lbns = ["model.layer3.1.bn1.weight/out"], scope_symbol_id = 4611686018429485055 : i64, shape = [256 : si64]} : () -> tensor<256xf32>
    %output_173 = "oneflow.variable"() {data_type = 2 : i32, device_name = ["@0:0"], device_tag = "cpu", hierarchy = [1], nd_sbp = ["B"], op_name = "model.layer3.1.bn1.bias", output_lbns = ["model.layer3.1.bn1.bias/out"], scope_symbol_id = 4611686018429493247 : i64, shape = [256 : si64]} : () -> tensor<256xf32>
    %output_174 = "oneflow.variable"() {data_type = 2 : i32, device_name = ["@0:0"], device_tag = "cpu", hierarchy = [1], nd_sbp = ["B"], op_name = "model.layer3.1.conv2.weight", output_lbns = ["model.layer3.1.conv2.weight/out"], scope_symbol_id = 4611686018429513727 : i64, shape = [256 : si64, 256 : si64, 3 : si64, 3 : si64]} : () -> tensor<256x256x3x3xf32>
    %output_175 = "oneflow.variable"() {data_type = 6 : i32, device_name = ["@0:0"], device_tag = "cpu", hierarchy = [1], nd_sbp = ["B"], op_name = "model.layer3.1.bn2.num_batches_tracked", output_lbns = ["model.layer3.1.bn2.num_batches_tracked/out"], scope_symbol_id = 4611686018429530111 : i64, shape = [], trainable = false} : () -> tensor<i64>
    %output_176 = "oneflow.variable"() {data_type = 2 : i32, device_name = ["@0:0"], device_tag = "cpu", hierarchy = [1], nd_sbp = ["B"], op_name = "model.layer3.1.bn2.running_mean", output_lbns = ["model.layer3.1.bn2.running_mean/out"], scope_symbol_id = 4611686018429542399 : i64, shape = [256 : si64], trainable = false} : () -> tensor<256xf32>
    %output_177 = "oneflow.variable"() {data_type = 2 : i32, device_name = ["@0:0"], device_tag = "cpu", hierarchy = [1], nd_sbp = ["B"], op_name = "model.layer3.1.bn2.running_var", output_lbns = ["model.layer3.1.bn2.running_var/out"], scope_symbol_id = 4611686018429550591 : i64, shape = [256 : si64], trainable = false} : () -> tensor<256xf32>
    %output_178 = "oneflow.variable"() {data_type = 2 : i32, device_name = ["@0:0"], device_tag = "cpu", hierarchy = [1], nd_sbp = ["B"], op_name = "model.layer3.1.bn2.weight", output_lbns = ["model.layer3.1.bn2.weight/out"], scope_symbol_id = 4611686018429558783 : i64, shape = [256 : si64]} : () -> tensor<256xf32>
    %output_179 = "oneflow.variable"() {data_type = 2 : i32, device_name = ["@0:0"], device_tag = "cpu", hierarchy = [1], nd_sbp = ["B"], op_name = "model.layer3.1.bn2.bias", output_lbns = ["model.layer3.1.bn2.bias/out"], scope_symbol_id = 4611686018429566975 : i64, shape = [256 : si64]} : () -> tensor<256xf32>
    %output_180 = "oneflow.variable"() {data_type = 2 : i32, device_name = ["@0:0"], device_tag = "cpu", hierarchy = [1], nd_sbp = ["B"], op_name = "model.layer3.1.conv3.weight", output_lbns = ["model.layer3.1.conv3.weight/out"], scope_symbol_id = 4611686018429579263 : i64, shape = [1024 : si64, 256 : si64, 1 : si64, 1 : si64]} : () -> tensor<1024x256x1x1xf32>
    %output_181 = "oneflow.variable"() {data_type = 6 : i32, device_name = ["@0:0"], device_tag = "cpu", hierarchy = [1], nd_sbp = ["B"], op_name = "model.layer3.1.bn3.num_batches_tracked", output_lbns = ["model.layer3.1.bn3.num_batches_tracked/out"], scope_symbol_id = 4611686018429595647 : i64, shape = [], trainable = false} : () -> tensor<i64>
    %output_182 = "oneflow.variable"() {data_type = 2 : i32, device_name = ["@0:0"], device_tag = "cpu", hierarchy = [1], nd_sbp = ["B"], op_name = "model.layer3.1.bn3.running_mean", output_lbns = ["model.layer3.1.bn3.running_mean/out"], scope_symbol_id = 4611686018429607935 : i64, shape = [1024 : si64], trainable = false} : () -> tensor<1024xf32>
    %output_183 = "oneflow.variable"() {data_type = 2 : i32, device_name = ["@0:0"], device_tag = "cpu", hierarchy = [1], nd_sbp = ["B"], op_name = "model.layer3.1.bn3.running_var", output_lbns = ["model.layer3.1.bn3.running_var/out"], scope_symbol_id = 4611686018429616127 : i64, shape = [1024 : si64], trainable = false} : () -> tensor<1024xf32>
    %output_184 = "oneflow.variable"() {data_type = 2 : i32, device_name = ["@0:0"], device_tag = "cpu", hierarchy = [1], nd_sbp = ["B"], op_name = "model.layer3.1.bn3.weight", output_lbns = ["model.layer3.1.bn3.weight/out"], scope_symbol_id = 4611686018429624319 : i64, shape = [1024 : si64]} : () -> tensor<1024xf32>
    %output_185 = "oneflow.variable"() {data_type = 2 : i32, device_name = ["@0:0"], device_tag = "cpu", hierarchy = [1], nd_sbp = ["B"], op_name = "model.layer3.1.bn3.bias", output_lbns = ["model.layer3.1.bn3.bias/out"], scope_symbol_id = 4611686018429632511 : i64, shape = [1024 : si64]} : () -> tensor<1024xf32>
    %output_186 = "oneflow.variable"() {data_type = 2 : i32, device_name = ["@0:0"], device_tag = "cpu", hierarchy = [1], nd_sbp = ["B"], op_name = "model.layer3.2.conv1.weight", output_lbns = ["model.layer3.2.conv1.weight/out"], scope_symbol_id = 4611686018429652991 : i64, shape = [256 : si64, 1024 : si64, 1 : si64, 1 : si64]} : () -> tensor<256x1024x1x1xf32>
    %output_187 = "oneflow.variable"() {data_type = 6 : i32, device_name = ["@0:0"], device_tag = "cpu", hierarchy = [1], nd_sbp = ["B"], op_name = "model.layer3.2.bn1.num_batches_tracked", output_lbns = ["model.layer3.2.bn1.num_batches_tracked/out"], scope_symbol_id = 4611686018429669375 : i64, shape = [], trainable = false} : () -> tensor<i64>
    %output_188 = "oneflow.variable"() {data_type = 2 : i32, device_name = ["@0:0"], device_tag = "cpu", hierarchy = [1], nd_sbp = ["B"], op_name = "model.layer3.2.bn1.running_mean", output_lbns = ["model.layer3.2.bn1.running_mean/out"], scope_symbol_id = 4611686018429681663 : i64, shape = [256 : si64], trainable = false} : () -> tensor<256xf32>
    %output_189 = "oneflow.variable"() {data_type = 2 : i32, device_name = ["@0:0"], device_tag = "cpu", hierarchy = [1], nd_sbp = ["B"], op_name = "model.layer3.2.bn1.running_var", output_lbns = ["model.layer3.2.bn1.running_var/out"], scope_symbol_id = 4611686018429689855 : i64, shape = [256 : si64], trainable = false} : () -> tensor<256xf32>
    %output_190 = "oneflow.variable"() {data_type = 2 : i32, device_name = ["@0:0"], device_tag = "cpu", hierarchy = [1], nd_sbp = ["B"], op_name = "model.layer3.2.bn1.weight", output_lbns = ["model.layer3.2.bn1.weight/out"], scope_symbol_id = 4611686018429698047 : i64, shape = [256 : si64]} : () -> tensor<256xf32>
    %output_191 = "oneflow.variable"() {data_type = 2 : i32, device_name = ["@0:0"], device_tag = "cpu", hierarchy = [1], nd_sbp = ["B"], op_name = "model.layer3.2.bn1.bias", output_lbns = ["model.layer3.2.bn1.bias/out"], scope_symbol_id = 4611686018429706239 : i64, shape = [256 : si64]} : () -> tensor<256xf32>
    %output_192 = "oneflow.variable"() {data_type = 2 : i32, device_name = ["@0:0"], device_tag = "cpu", hierarchy = [1], nd_sbp = ["B"], op_name = "model.layer3.2.conv2.weight", output_lbns = ["model.layer3.2.conv2.weight/out"], scope_symbol_id = 4611686018429726719 : i64, shape = [256 : si64, 256 : si64, 3 : si64, 3 : si64]} : () -> tensor<256x256x3x3xf32>
    %output_193 = "oneflow.variable"() {data_type = 6 : i32, device_name = ["@0:0"], device_tag = "cpu", hierarchy = [1], nd_sbp = ["B"], op_name = "model.layer3.2.bn2.num_batches_tracked", output_lbns = ["model.layer3.2.bn2.num_batches_tracked/out"], scope_symbol_id = 4611686018429743103 : i64, shape = [], trainable = false} : () -> tensor<i64>
    %output_194 = "oneflow.variable"() {data_type = 2 : i32, device_name = ["@0:0"], device_tag = "cpu", hierarchy = [1], nd_sbp = ["B"], op_name = "model.layer3.2.bn2.running_mean", output_lbns = ["model.layer3.2.bn2.running_mean/out"], scope_symbol_id = 4611686018429755391 : i64, shape = [256 : si64], trainable = false} : () -> tensor<256xf32>
    %output_195 = "oneflow.variable"() {data_type = 2 : i32, device_name = ["@0:0"], device_tag = "cpu", hierarchy = [1], nd_sbp = ["B"], op_name = "model.layer3.2.bn2.running_var", output_lbns = ["model.layer3.2.bn2.running_var/out"], scope_symbol_id = 4611686018429763583 : i64, shape = [256 : si64], trainable = false} : () -> tensor<256xf32>
    %output_196 = "oneflow.variable"() {data_type = 2 : i32, device_name = ["@0:0"], device_tag = "cpu", hierarchy = [1], nd_sbp = ["B"], op_name = "model.layer3.2.bn2.weight", output_lbns = ["model.layer3.2.bn2.weight/out"], scope_symbol_id = 4611686018429771775 : i64, shape = [256 : si64]} : () -> tensor<256xf32>
    %output_197 = "oneflow.variable"() {data_type = 2 : i32, device_name = ["@0:0"], device_tag = "cpu", hierarchy = [1], nd_sbp = ["B"], op_name = "model.layer3.2.bn2.bias", output_lbns = ["model.layer3.2.bn2.bias/out"], scope_symbol_id = 4611686018429779967 : i64, shape = [256 : si64]} : () -> tensor<256xf32>
    %output_198 = "oneflow.variable"() {data_type = 2 : i32, device_name = ["@0:0"], device_tag = "cpu", hierarchy = [1], nd_sbp = ["B"], op_name = "model.layer3.2.conv3.weight", output_lbns = ["model.layer3.2.conv3.weight/out"], scope_symbol_id = 4611686018429792255 : i64, shape = [1024 : si64, 256 : si64, 1 : si64, 1 : si64]} : () -> tensor<1024x256x1x1xf32>
    %output_199 = "oneflow.variable"() {data_type = 6 : i32, device_name = ["@0:0"], device_tag = "cpu", hierarchy = [1], nd_sbp = ["B"], op_name = "model.layer3.2.bn3.num_batches_tracked", output_lbns = ["model.layer3.2.bn3.num_batches_tracked/out"], scope_symbol_id = 4611686018429808639 : i64, shape = [], trainable = false} : () -> tensor<i64>
    %output_200 = "oneflow.variable"() {data_type = 2 : i32, device_name = ["@0:0"], device_tag = "cpu", hierarchy = [1], nd_sbp = ["B"], op_name = "model.layer3.2.bn3.running_mean", output_lbns = ["model.layer3.2.bn3.running_mean/out"], scope_symbol_id = 4611686018429820927 : i64, shape = [1024 : si64], trainable = false} : () -> tensor<1024xf32>
    %output_201 = "oneflow.variable"() {data_type = 2 : i32, device_name = ["@0:0"], device_tag = "cpu", hierarchy = [1], nd_sbp = ["B"], op_name = "model.layer3.2.bn3.running_var", output_lbns = ["model.layer3.2.bn3.running_var/out"], scope_symbol_id = 4611686018429829119 : i64, shape = [1024 : si64], trainable = false} : () -> tensor<1024xf32>
    %output_202 = "oneflow.variable"() {data_type = 2 : i32, device_name = ["@0:0"], device_tag = "cpu", hierarchy = [1], nd_sbp = ["B"], op_name = "model.layer3.2.bn3.weight", output_lbns = ["model.layer3.2.bn3.weight/out"], scope_symbol_id = 4611686018429837311 : i64, shape = [1024 : si64]} : () -> tensor<1024xf32>
    %output_203 = "oneflow.variable"() {data_type = 2 : i32, device_name = ["@0:0"], device_tag = "cpu", hierarchy = [1], nd_sbp = ["B"], op_name = "model.layer3.2.bn3.bias", output_lbns = ["model.layer3.2.bn3.bias/out"], scope_symbol_id = 4611686018429845503 : i64, shape = [1024 : si64]} : () -> tensor<1024xf32>
    %output_204 = "oneflow.variable"() {data_type = 2 : i32, device_name = ["@0:0"], device_tag = "cpu", hierarchy = [1], nd_sbp = ["B"], op_name = "model.layer3.3.conv1.weight", output_lbns = ["model.layer3.3.conv1.weight/out"], scope_symbol_id = 4611686018429865983 : i64, shape = [256 : si64, 1024 : si64, 1 : si64, 1 : si64]} : () -> tensor<256x1024x1x1xf32>
    %output_205 = "oneflow.variable"() {data_type = 6 : i32, device_name = ["@0:0"], device_tag = "cpu", hierarchy = [1], nd_sbp = ["B"], op_name = "model.layer3.3.bn1.num_batches_tracked", output_lbns = ["model.layer3.3.bn1.num_batches_tracked/out"], scope_symbol_id = 4611686018429882367 : i64, shape = [], trainable = false} : () -> tensor<i64>
    %output_206 = "oneflow.variable"() {data_type = 2 : i32, device_name = ["@0:0"], device_tag = "cpu", hierarchy = [1], nd_sbp = ["B"], op_name = "model.layer3.3.bn1.running_mean", output_lbns = ["model.layer3.3.bn1.running_mean/out"], scope_symbol_id = 4611686018429894655 : i64, shape = [256 : si64], trainable = false} : () -> tensor<256xf32>
    %output_207 = "oneflow.variable"() {data_type = 2 : i32, device_name = ["@0:0"], device_tag = "cpu", hierarchy = [1], nd_sbp = ["B"], op_name = "model.layer3.3.bn1.running_var", output_lbns = ["model.layer3.3.bn1.running_var/out"], scope_symbol_id = 4611686018429902847 : i64, shape = [256 : si64], trainable = false} : () -> tensor<256xf32>
    %output_208 = "oneflow.variable"() {data_type = 2 : i32, device_name = ["@0:0"], device_tag = "cpu", hierarchy = [1], nd_sbp = ["B"], op_name = "model.layer3.3.bn1.weight", output_lbns = ["model.layer3.3.bn1.weight/out"], scope_symbol_id = 4611686018429911039 : i64, shape = [256 : si64]} : () -> tensor<256xf32>
    %output_209 = "oneflow.variable"() {data_type = 2 : i32, device_name = ["@0:0"], device_tag = "cpu", hierarchy = [1], nd_sbp = ["B"], op_name = "model.layer3.3.bn1.bias", output_lbns = ["model.layer3.3.bn1.bias/out"], scope_symbol_id = 4611686018429919231 : i64, shape = [256 : si64]} : () -> tensor<256xf32>
    %output_210 = "oneflow.variable"() {data_type = 2 : i32, device_name = ["@0:0"], device_tag = "cpu", hierarchy = [1], nd_sbp = ["B"], op_name = "model.layer3.3.conv2.weight", output_lbns = ["model.layer3.3.conv2.weight/out"], scope_symbol_id = 4611686018429939711 : i64, shape = [256 : si64, 256 : si64, 3 : si64, 3 : si64]} : () -> tensor<256x256x3x3xf32>
    %output_211 = "oneflow.variable"() {data_type = 6 : i32, device_name = ["@0:0"], device_tag = "cpu", hierarchy = [1], nd_sbp = ["B"], op_name = "model.layer3.3.bn2.num_batches_tracked", output_lbns = ["model.layer3.3.bn2.num_batches_tracked/out"], scope_symbol_id = 4611686018429956095 : i64, shape = [], trainable = false} : () -> tensor<i64>
    %output_212 = "oneflow.variable"() {data_type = 2 : i32, device_name = ["@0:0"], device_tag = "cpu", hierarchy = [1], nd_sbp = ["B"], op_name = "model.layer3.3.bn2.running_mean", output_lbns = ["model.layer3.3.bn2.running_mean/out"], scope_symbol_id = 4611686018429968383 : i64, shape = [256 : si64], trainable = false} : () -> tensor<256xf32>
    %output_213 = "oneflow.variable"() {data_type = 2 : i32, device_name = ["@0:0"], device_tag = "cpu", hierarchy = [1], nd_sbp = ["B"], op_name = "model.layer3.3.bn2.running_var", output_lbns = ["model.layer3.3.bn2.running_var/out"], scope_symbol_id = 4611686018429976575 : i64, shape = [256 : si64], trainable = false} : () -> tensor<256xf32>
    %output_214 = "oneflow.variable"() {data_type = 2 : i32, device_name = ["@0:0"], device_tag = "cpu", hierarchy = [1], nd_sbp = ["B"], op_name = "model.layer3.3.bn2.weight", output_lbns = ["model.layer3.3.bn2.weight/out"], scope_symbol_id = 4611686018429984767 : i64, shape = [256 : si64]} : () -> tensor<256xf32>
    %output_215 = "oneflow.variable"() {data_type = 2 : i32, device_name = ["@0:0"], device_tag = "cpu", hierarchy = [1], nd_sbp = ["B"], op_name = "model.layer3.3.bn2.bias", output_lbns = ["model.layer3.3.bn2.bias/out"], scope_symbol_id = 4611686018429992959 : i64, shape = [256 : si64]} : () -> tensor<256xf32>
    %output_216 = "oneflow.variable"() {data_type = 2 : i32, device_name = ["@0:0"], device_tag = "cpu", hierarchy = [1], nd_sbp = ["B"], op_name = "model.layer3.3.conv3.weight", output_lbns = ["model.layer3.3.conv3.weight/out"], scope_symbol_id = 4611686018430005247 : i64, shape = [1024 : si64, 256 : si64, 1 : si64, 1 : si64]} : () -> tensor<1024x256x1x1xf32>
    %output_217 = "oneflow.variable"() {data_type = 6 : i32, device_name = ["@0:0"], device_tag = "cpu", hierarchy = [1], nd_sbp = ["B"], op_name = "model.layer3.3.bn3.num_batches_tracked", output_lbns = ["model.layer3.3.bn3.num_batches_tracked/out"], scope_symbol_id = 4611686018430021631 : i64, shape = [], trainable = false} : () -> tensor<i64>
    %output_218 = "oneflow.variable"() {data_type = 2 : i32, device_name = ["@0:0"], device_tag = "cpu", hierarchy = [1], nd_sbp = ["B"], op_name = "model.layer3.3.bn3.running_mean", output_lbns = ["model.layer3.3.bn3.running_mean/out"], scope_symbol_id = 4611686018430033919 : i64, shape = [1024 : si64], trainable = false} : () -> tensor<1024xf32>
    %output_219 = "oneflow.variable"() {data_type = 2 : i32, device_name = ["@0:0"], device_tag = "cpu", hierarchy = [1], nd_sbp = ["B"], op_name = "model.layer3.3.bn3.running_var", output_lbns = ["model.layer3.3.bn3.running_var/out"], scope_symbol_id = 4611686018430042111 : i64, shape = [1024 : si64], trainable = false} : () -> tensor<1024xf32>
    %output_220 = "oneflow.variable"() {data_type = 2 : i32, device_name = ["@0:0"], device_tag = "cpu", hierarchy = [1], nd_sbp = ["B"], op_name = "model.layer3.3.bn3.weight", output_lbns = ["model.layer3.3.bn3.weight/out"], scope_symbol_id = 4611686018430050303 : i64, shape = [1024 : si64]} : () -> tensor<1024xf32>
    %output_221 = "oneflow.variable"() {data_type = 2 : i32, device_name = ["@0:0"], device_tag = "cpu", hierarchy = [1], nd_sbp = ["B"], op_name = "model.layer3.3.bn3.bias", output_lbns = ["model.layer3.3.bn3.bias/out"], scope_symbol_id = 4611686018430058495 : i64, shape = [1024 : si64]} : () -> tensor<1024xf32>
    %output_222 = "oneflow.variable"() {data_type = 2 : i32, device_name = ["@0:0"], device_tag = "cpu", hierarchy = [1], nd_sbp = ["B"], op_name = "model.layer3.4.conv1.weight", output_lbns = ["model.layer3.4.conv1.weight/out"], scope_symbol_id = 4611686018430078975 : i64, shape = [256 : si64, 1024 : si64, 1 : si64, 1 : si64]} : () -> tensor<256x1024x1x1xf32>
    %output_223 = "oneflow.variable"() {data_type = 6 : i32, device_name = ["@0:0"], device_tag = "cpu", hierarchy = [1], nd_sbp = ["B"], op_name = "model.layer3.4.bn1.num_batches_tracked", output_lbns = ["model.layer3.4.bn1.num_batches_tracked/out"], scope_symbol_id = 4611686018430095359 : i64, shape = [], trainable = false} : () -> tensor<i64>
    %output_224 = "oneflow.variable"() {data_type = 2 : i32, device_name = ["@0:0"], device_tag = "cpu", hierarchy = [1], nd_sbp = ["B"], op_name = "model.layer3.4.bn1.running_mean", output_lbns = ["model.layer3.4.bn1.running_mean/out"], scope_symbol_id = 4611686018430107647 : i64, shape = [256 : si64], trainable = false} : () -> tensor<256xf32>
    %output_225 = "oneflow.variable"() {data_type = 2 : i32, device_name = ["@0:0"], device_tag = "cpu", hierarchy = [1], nd_sbp = ["B"], op_name = "model.layer3.4.bn1.running_var", output_lbns = ["model.layer3.4.bn1.running_var/out"], scope_symbol_id = 4611686018430115839 : i64, shape = [256 : si64], trainable = false} : () -> tensor<256xf32>
    %output_226 = "oneflow.variable"() {data_type = 2 : i32, device_name = ["@0:0"], device_tag = "cpu", hierarchy = [1], nd_sbp = ["B"], op_name = "model.layer3.4.bn1.weight", output_lbns = ["model.layer3.4.bn1.weight/out"], scope_symbol_id = 4611686018430124031 : i64, shape = [256 : si64]} : () -> tensor<256xf32>
    %output_227 = "oneflow.variable"() {data_type = 2 : i32, device_name = ["@0:0"], device_tag = "cpu", hierarchy = [1], nd_sbp = ["B"], op_name = "model.layer3.4.bn1.bias", output_lbns = ["model.layer3.4.bn1.bias/out"], scope_symbol_id = 4611686018430132223 : i64, shape = [256 : si64]} : () -> tensor<256xf32>
    %output_228 = "oneflow.variable"() {data_type = 2 : i32, device_name = ["@0:0"], device_tag = "cpu", hierarchy = [1], nd_sbp = ["B"], op_name = "model.layer3.4.conv2.weight", output_lbns = ["model.layer3.4.conv2.weight/out"], scope_symbol_id = 4611686018430152703 : i64, shape = [256 : si64, 256 : si64, 3 : si64, 3 : si64]} : () -> tensor<256x256x3x3xf32>
    %output_229 = "oneflow.variable"() {data_type = 6 : i32, device_name = ["@0:0"], device_tag = "cpu", hierarchy = [1], nd_sbp = ["B"], op_name = "model.layer3.4.bn2.num_batches_tracked", output_lbns = ["model.layer3.4.bn2.num_batches_tracked/out"], scope_symbol_id = 4611686018430169087 : i64, shape = [], trainable = false} : () -> tensor<i64>
    %output_230 = "oneflow.variable"() {data_type = 2 : i32, device_name = ["@0:0"], device_tag = "cpu", hierarchy = [1], nd_sbp = ["B"], op_name = "model.layer3.4.bn2.running_mean", output_lbns = ["model.layer3.4.bn2.running_mean/out"], scope_symbol_id = 4611686018430181375 : i64, shape = [256 : si64], trainable = false} : () -> tensor<256xf32>
    %output_231 = "oneflow.variable"() {data_type = 2 : i32, device_name = ["@0:0"], device_tag = "cpu", hierarchy = [1], nd_sbp = ["B"], op_name = "model.layer3.4.bn2.running_var", output_lbns = ["model.layer3.4.bn2.running_var/out"], scope_symbol_id = 4611686018430189567 : i64, shape = [256 : si64], trainable = false} : () -> tensor<256xf32>
    %output_232 = "oneflow.variable"() {data_type = 2 : i32, device_name = ["@0:0"], device_tag = "cpu", hierarchy = [1], nd_sbp = ["B"], op_name = "model.layer3.4.bn2.weight", output_lbns = ["model.layer3.4.bn2.weight/out"], scope_symbol_id = 4611686018430197759 : i64, shape = [256 : si64]} : () -> tensor<256xf32>
    %output_233 = "oneflow.variable"() {data_type = 2 : i32, device_name = ["@0:0"], device_tag = "cpu", hierarchy = [1], nd_sbp = ["B"], op_name = "model.layer3.4.bn2.bias", output_lbns = ["model.layer3.4.bn2.bias/out"], scope_symbol_id = 4611686018430205951 : i64, shape = [256 : si64]} : () -> tensor<256xf32>
    %output_234 = "oneflow.variable"() {data_type = 2 : i32, device_name = ["@0:0"], device_tag = "cpu", hierarchy = [1], nd_sbp = ["B"], op_name = "model.layer3.4.conv3.weight", output_lbns = ["model.layer3.4.conv3.weight/out"], scope_symbol_id = 4611686018430218239 : i64, shape = [1024 : si64, 256 : si64, 1 : si64, 1 : si64]} : () -> tensor<1024x256x1x1xf32>
    %output_235 = "oneflow.variable"() {data_type = 6 : i32, device_name = ["@0:0"], device_tag = "cpu", hierarchy = [1], nd_sbp = ["B"], op_name = "model.layer3.4.bn3.num_batches_tracked", output_lbns = ["model.layer3.4.bn3.num_batches_tracked/out"], scope_symbol_id = 4611686018430234623 : i64, shape = [], trainable = false} : () -> tensor<i64>
    %output_236 = "oneflow.variable"() {data_type = 2 : i32, device_name = ["@0:0"], device_tag = "cpu", hierarchy = [1], nd_sbp = ["B"], op_name = "model.layer3.4.bn3.running_mean", output_lbns = ["model.layer3.4.bn3.running_mean/out"], scope_symbol_id = 4611686018430246911 : i64, shape = [1024 : si64], trainable = false} : () -> tensor<1024xf32>
    %output_237 = "oneflow.variable"() {data_type = 2 : i32, device_name = ["@0:0"], device_tag = "cpu", hierarchy = [1], nd_sbp = ["B"], op_name = "model.layer3.4.bn3.running_var", output_lbns = ["model.layer3.4.bn3.running_var/out"], scope_symbol_id = 4611686018430255103 : i64, shape = [1024 : si64], trainable = false} : () -> tensor<1024xf32>
    %output_238 = "oneflow.variable"() {data_type = 2 : i32, device_name = ["@0:0"], device_tag = "cpu", hierarchy = [1], nd_sbp = ["B"], op_name = "model.layer3.4.bn3.weight", output_lbns = ["model.layer3.4.bn3.weight/out"], scope_symbol_id = 4611686018430263295 : i64, shape = [1024 : si64]} : () -> tensor<1024xf32>
    %output_239 = "oneflow.variable"() {data_type = 2 : i32, device_name = ["@0:0"], device_tag = "cpu", hierarchy = [1], nd_sbp = ["B"], op_name = "model.layer3.4.bn3.bias", output_lbns = ["model.layer3.4.bn3.bias/out"], scope_symbol_id = 4611686018430271487 : i64, shape = [1024 : si64]} : () -> tensor<1024xf32>
    %output_240 = "oneflow.variable"() {data_type = 2 : i32, device_name = ["@0:0"], device_tag = "cpu", hierarchy = [1], nd_sbp = ["B"], op_name = "model.layer3.5.conv1.weight", output_lbns = ["model.layer3.5.conv1.weight/out"], scope_symbol_id = 4611686018430291967 : i64, shape = [256 : si64, 1024 : si64, 1 : si64, 1 : si64]} : () -> tensor<256x1024x1x1xf32>
    %output_241 = "oneflow.variable"() {data_type = 6 : i32, device_name = ["@0:0"], device_tag = "cpu", hierarchy = [1], nd_sbp = ["B"], op_name = "model.layer3.5.bn1.num_batches_tracked", output_lbns = ["model.layer3.5.bn1.num_batches_tracked/out"], scope_symbol_id = 4611686018430308351 : i64, shape = [], trainable = false} : () -> tensor<i64>
    %output_242 = "oneflow.variable"() {data_type = 2 : i32, device_name = ["@0:0"], device_tag = "cpu", hierarchy = [1], nd_sbp = ["B"], op_name = "model.layer3.5.bn1.running_mean", output_lbns = ["model.layer3.5.bn1.running_mean/out"], scope_symbol_id = 4611686018430320639 : i64, shape = [256 : si64], trainable = false} : () -> tensor<256xf32>
    %output_243 = "oneflow.variable"() {data_type = 2 : i32, device_name = ["@0:0"], device_tag = "cpu", hierarchy = [1], nd_sbp = ["B"], op_name = "model.layer3.5.bn1.running_var", output_lbns = ["model.layer3.5.bn1.running_var/out"], scope_symbol_id = 4611686018430328831 : i64, shape = [256 : si64], trainable = false} : () -> tensor<256xf32>
    %output_244 = "oneflow.variable"() {data_type = 2 : i32, device_name = ["@0:0"], device_tag = "cpu", hierarchy = [1], nd_sbp = ["B"], op_name = "model.layer3.5.bn1.weight", output_lbns = ["model.layer3.5.bn1.weight/out"], scope_symbol_id = 4611686018430337023 : i64, shape = [256 : si64]} : () -> tensor<256xf32>
    %output_245 = "oneflow.variable"() {data_type = 2 : i32, device_name = ["@0:0"], device_tag = "cpu", hierarchy = [1], nd_sbp = ["B"], op_name = "model.layer3.5.bn1.bias", output_lbns = ["model.layer3.5.bn1.bias/out"], scope_symbol_id = 4611686018430345215 : i64, shape = [256 : si64]} : () -> tensor<256xf32>
    %output_246 = "oneflow.variable"() {data_type = 2 : i32, device_name = ["@0:0"], device_tag = "cpu", hierarchy = [1], nd_sbp = ["B"], op_name = "model.layer3.5.conv2.weight", output_lbns = ["model.layer3.5.conv2.weight/out"], scope_symbol_id = 4611686018430365695 : i64, shape = [256 : si64, 256 : si64, 3 : si64, 3 : si64]} : () -> tensor<256x256x3x3xf32>
    %output_247 = "oneflow.variable"() {data_type = 6 : i32, device_name = ["@0:0"], device_tag = "cpu", hierarchy = [1], nd_sbp = ["B"], op_name = "model.layer3.5.bn2.num_batches_tracked", output_lbns = ["model.layer3.5.bn2.num_batches_tracked/out"], scope_symbol_id = 4611686018430382079 : i64, shape = [], trainable = false} : () -> tensor<i64>
    %output_248 = "oneflow.variable"() {data_type = 2 : i32, device_name = ["@0:0"], device_tag = "cpu", hierarchy = [1], nd_sbp = ["B"], op_name = "model.layer3.5.bn2.running_mean", output_lbns = ["model.layer3.5.bn2.running_mean/out"], scope_symbol_id = 4611686018430394367 : i64, shape = [256 : si64], trainable = false} : () -> tensor<256xf32>
    %output_249 = "oneflow.variable"() {data_type = 2 : i32, device_name = ["@0:0"], device_tag = "cpu", hierarchy = [1], nd_sbp = ["B"], op_name = "model.layer3.5.bn2.running_var", output_lbns = ["model.layer3.5.bn2.running_var/out"], scope_symbol_id = 4611686018430402559 : i64, shape = [256 : si64], trainable = false} : () -> tensor<256xf32>
    %output_250 = "oneflow.variable"() {data_type = 2 : i32, device_name = ["@0:0"], device_tag = "cpu", hierarchy = [1], nd_sbp = ["B"], op_name = "model.layer3.5.bn2.weight", output_lbns = ["model.layer3.5.bn2.weight/out"], scope_symbol_id = 4611686018430410751 : i64, shape = [256 : si64]} : () -> tensor<256xf32>
    %output_251 = "oneflow.variable"() {data_type = 2 : i32, device_name = ["@0:0"], device_tag = "cpu", hierarchy = [1], nd_sbp = ["B"], op_name = "model.layer3.5.bn2.bias", output_lbns = ["model.layer3.5.bn2.bias/out"], scope_symbol_id = 4611686018430418943 : i64, shape = [256 : si64]} : () -> tensor<256xf32>
    %output_252 = "oneflow.variable"() {data_type = 2 : i32, device_name = ["@0:0"], device_tag = "cpu", hierarchy = [1], nd_sbp = ["B"], op_name = "model.layer3.5.conv3.weight", output_lbns = ["model.layer3.5.conv3.weight/out"], scope_symbol_id = 4611686018430431231 : i64, shape = [1024 : si64, 256 : si64, 1 : si64, 1 : si64]} : () -> tensor<1024x256x1x1xf32>
    %output_253 = "oneflow.variable"() {data_type = 6 : i32, device_name = ["@0:0"], device_tag = "cpu", hierarchy = [1], nd_sbp = ["B"], op_name = "model.layer3.5.bn3.num_batches_tracked", output_lbns = ["model.layer3.5.bn3.num_batches_tracked/out"], scope_symbol_id = 4611686018430447615 : i64, shape = [], trainable = false} : () -> tensor<i64>
    %output_254 = "oneflow.variable"() {data_type = 2 : i32, device_name = ["@0:0"], device_tag = "cpu", hierarchy = [1], nd_sbp = ["B"], op_name = "model.layer3.5.bn3.running_mean", output_lbns = ["model.layer3.5.bn3.running_mean/out"], scope_symbol_id = 4611686018430459903 : i64, shape = [1024 : si64], trainable = false} : () -> tensor<1024xf32>
    %output_255 = "oneflow.variable"() {data_type = 2 : i32, device_name = ["@0:0"], device_tag = "cpu", hierarchy = [1], nd_sbp = ["B"], op_name = "model.layer3.5.bn3.running_var", output_lbns = ["model.layer3.5.bn3.running_var/out"], scope_symbol_id = 4611686018430468095 : i64, shape = [1024 : si64], trainable = false} : () -> tensor<1024xf32>
    %output_256 = "oneflow.variable"() {data_type = 2 : i32, device_name = ["@0:0"], device_tag = "cpu", hierarchy = [1], nd_sbp = ["B"], op_name = "model.layer3.5.bn3.weight", output_lbns = ["model.layer3.5.bn3.weight/out"], scope_symbol_id = 4611686018430476287 : i64, shape = [1024 : si64]} : () -> tensor<1024xf32>
    %output_257 = "oneflow.variable"() {data_type = 2 : i32, device_name = ["@0:0"], device_tag = "cpu", hierarchy = [1], nd_sbp = ["B"], op_name = "model.layer3.5.bn3.bias", output_lbns = ["model.layer3.5.bn3.bias/out"], scope_symbol_id = 4611686018430484479 : i64, shape = [1024 : si64]} : () -> tensor<1024xf32>
    %output_258 = "oneflow.variable"() {data_type = 2 : i32, device_name = ["@0:0"], device_tag = "cpu", hierarchy = [1], nd_sbp = ["B"], op_name = "model.layer4.0.conv1.weight", output_lbns = ["model.layer4.0.conv1.weight/out"], scope_symbol_id = 4611686018430509055 : i64, shape = [512 : si64, 1024 : si64, 1 : si64, 1 : si64]} : () -> tensor<512x1024x1x1xf32>
    %output_259 = "oneflow.variable"() {data_type = 6 : i32, device_name = ["@0:0"], device_tag = "cpu", hierarchy = [1], nd_sbp = ["B"], op_name = "model.layer4.0.bn1.num_batches_tracked", output_lbns = ["model.layer4.0.bn1.num_batches_tracked/out"], scope_symbol_id = 4611686018430525439 : i64, shape = [], trainable = false} : () -> tensor<i64>
    %output_260 = "oneflow.variable"() {data_type = 2 : i32, device_name = ["@0:0"], device_tag = "cpu", hierarchy = [1], nd_sbp = ["B"], op_name = "model.layer4.0.bn1.running_mean", output_lbns = ["model.layer4.0.bn1.running_mean/out"], scope_symbol_id = 4611686018430537727 : i64, shape = [512 : si64], trainable = false} : () -> tensor<512xf32>
    %output_261 = "oneflow.variable"() {data_type = 2 : i32, device_name = ["@0:0"], device_tag = "cpu", hierarchy = [1], nd_sbp = ["B"], op_name = "model.layer4.0.bn1.running_var", output_lbns = ["model.layer4.0.bn1.running_var/out"], scope_symbol_id = 4611686018430545919 : i64, shape = [512 : si64], trainable = false} : () -> tensor<512xf32>
    %output_262 = "oneflow.variable"() {data_type = 2 : i32, device_name = ["@0:0"], device_tag = "cpu", hierarchy = [1], nd_sbp = ["B"], op_name = "model.layer4.0.bn1.weight", output_lbns = ["model.layer4.0.bn1.weight/out"], scope_symbol_id = 4611686018430554111 : i64, shape = [512 : si64]} : () -> tensor<512xf32>
    %output_263 = "oneflow.variable"() {data_type = 2 : i32, device_name = ["@0:0"], device_tag = "cpu", hierarchy = [1], nd_sbp = ["B"], op_name = "model.layer4.0.bn1.bias", output_lbns = ["model.layer4.0.bn1.bias/out"], scope_symbol_id = 4611686018430562303 : i64, shape = [512 : si64]} : () -> tensor<512xf32>
    %output_264 = "oneflow.variable"() {data_type = 2 : i32, device_name = ["@0:0"], device_tag = "cpu", hierarchy = [1], nd_sbp = ["B"], op_name = "model.layer4.0.conv2.weight", output_lbns = ["model.layer4.0.conv2.weight/out"], scope_symbol_id = 4611686018430582783 : i64, shape = [512 : si64, 512 : si64, 3 : si64, 3 : si64]} : () -> tensor<512x512x3x3xf32>
    %output_265 = "oneflow.variable"() {data_type = 6 : i32, device_name = ["@0:0"], device_tag = "cpu", hierarchy = [1], nd_sbp = ["B"], op_name = "model.layer4.0.bn2.num_batches_tracked", output_lbns = ["model.layer4.0.bn2.num_batches_tracked/out"], scope_symbol_id = 4611686018430599167 : i64, shape = [], trainable = false} : () -> tensor<i64>
    %output_266 = "oneflow.variable"() {data_type = 2 : i32, device_name = ["@0:0"], device_tag = "cpu", hierarchy = [1], nd_sbp = ["B"], op_name = "model.layer4.0.bn2.running_mean", output_lbns = ["model.layer4.0.bn2.running_mean/out"], scope_symbol_id = 4611686018430611455 : i64, shape = [512 : si64], trainable = false} : () -> tensor<512xf32>
    %output_267 = "oneflow.variable"() {data_type = 2 : i32, device_name = ["@0:0"], device_tag = "cpu", hierarchy = [1], nd_sbp = ["B"], op_name = "model.layer4.0.bn2.running_var", output_lbns = ["model.layer4.0.bn2.running_var/out"], scope_symbol_id = 4611686018430619647 : i64, shape = [512 : si64], trainable = false} : () -> tensor<512xf32>
    %output_268 = "oneflow.variable"() {data_type = 2 : i32, device_name = ["@0:0"], device_tag = "cpu", hierarchy = [1], nd_sbp = ["B"], op_name = "model.layer4.0.bn2.weight", output_lbns = ["model.layer4.0.bn2.weight/out"], scope_symbol_id = 4611686018430627839 : i64, shape = [512 : si64]} : () -> tensor<512xf32>
    %output_269 = "oneflow.variable"() {data_type = 2 : i32, device_name = ["@0:0"], device_tag = "cpu", hierarchy = [1], nd_sbp = ["B"], op_name = "model.layer4.0.bn2.bias", output_lbns = ["model.layer4.0.bn2.bias/out"], scope_symbol_id = 4611686018430636031 : i64, shape = [512 : si64]} : () -> tensor<512xf32>
    %output_270 = "oneflow.variable"() {data_type = 2 : i32, device_name = ["@0:0"], device_tag = "cpu", hierarchy = [1], nd_sbp = ["B"], op_name = "model.layer4.0.conv3.weight", output_lbns = ["model.layer4.0.conv3.weight/out"], scope_symbol_id = 4611686018430648319 : i64, shape = [2048 : si64, 512 : si64, 1 : si64, 1 : si64]} : () -> tensor<2048x512x1x1xf32>
    %output_271 = "oneflow.variable"() {data_type = 6 : i32, device_name = ["@0:0"], device_tag = "cpu", hierarchy = [1], nd_sbp = ["B"], op_name = "model.layer4.0.bn3.num_batches_tracked", output_lbns = ["model.layer4.0.bn3.num_batches_tracked/out"], scope_symbol_id = 4611686018430664703 : i64, shape = [], trainable = false} : () -> tensor<i64>
    %output_272 = "oneflow.variable"() {data_type = 2 : i32, device_name = ["@0:0"], device_tag = "cpu", hierarchy = [1], nd_sbp = ["B"], op_name = "model.layer4.0.bn3.running_mean", output_lbns = ["model.layer4.0.bn3.running_mean/out"], scope_symbol_id = 4611686018430676991 : i64, shape = [2048 : si64], trainable = false} : () -> tensor<2048xf32>
    %output_273 = "oneflow.variable"() {data_type = 2 : i32, device_name = ["@0:0"], device_tag = "cpu", hierarchy = [1], nd_sbp = ["B"], op_name = "model.layer4.0.bn3.running_var", output_lbns = ["model.layer4.0.bn3.running_var/out"], scope_symbol_id = 4611686018430685183 : i64, shape = [2048 : si64], trainable = false} : () -> tensor<2048xf32>
    %output_274 = "oneflow.variable"() {data_type = 2 : i32, device_name = ["@0:0"], device_tag = "cpu", hierarchy = [1], nd_sbp = ["B"], op_name = "model.layer4.0.bn3.weight", output_lbns = ["model.layer4.0.bn3.weight/out"], scope_symbol_id = 4611686018430693375 : i64, shape = [2048 : si64]} : () -> tensor<2048xf32>
    %output_275 = "oneflow.variable"() {data_type = 2 : i32, device_name = ["@0:0"], device_tag = "cpu", hierarchy = [1], nd_sbp = ["B"], op_name = "model.layer4.0.bn3.bias", output_lbns = ["model.layer4.0.bn3.bias/out"], scope_symbol_id = 4611686018430701567 : i64, shape = [2048 : si64]} : () -> tensor<2048xf32>
    %output_276 = "oneflow.variable"() {data_type = 2 : i32, device_name = ["@0:0"], device_tag = "cpu", hierarchy = [1], nd_sbp = ["B"], op_name = "model.layer4.0.downsample.0.weight", output_lbns = ["model.layer4.0.downsample.0.weight/out"], scope_symbol_id = 4611686018430717951 : i64, shape = [2048 : si64, 1024 : si64, 1 : si64, 1 : si64]} : () -> tensor<2048x1024x1x1xf32>
    %output_277 = "oneflow.variable"() {data_type = 6 : i32, device_name = ["@0:0"], device_tag = "cpu", hierarchy = [1], nd_sbp = ["B"], op_name = "model.layer4.0.downsample.1.num_batches_tracked", output_lbns = ["model.layer4.0.downsample.1.num_batches_tracked/out"], scope_symbol_id = 4611686018430734335 : i64, shape = [], trainable = false} : () -> tensor<i64>
    %output_278 = "oneflow.variable"() {data_type = 2 : i32, device_name = ["@0:0"], device_tag = "cpu", hierarchy = [1], nd_sbp = ["B"], op_name = "model.layer4.0.downsample.1.running_mean", output_lbns = ["model.layer4.0.downsample.1.running_mean/out"], scope_symbol_id = 4611686018430746623 : i64, shape = [2048 : si64], trainable = false} : () -> tensor<2048xf32>
    %output_279 = "oneflow.variable"() {data_type = 2 : i32, device_name = ["@0:0"], device_tag = "cpu", hierarchy = [1], nd_sbp = ["B"], op_name = "model.layer4.0.downsample.1.running_var", output_lbns = ["model.layer4.0.downsample.1.running_var/out"], scope_symbol_id = 4611686018430754815 : i64, shape = [2048 : si64], trainable = false} : () -> tensor<2048xf32>
    %output_280 = "oneflow.variable"() {data_type = 2 : i32, device_name = ["@0:0"], device_tag = "cpu", hierarchy = [1], nd_sbp = ["B"], op_name = "model.layer4.0.downsample.1.weight", output_lbns = ["model.layer4.0.downsample.1.weight/out"], scope_symbol_id = 4611686018430763007 : i64, shape = [2048 : si64]} : () -> tensor<2048xf32>
    %output_281 = "oneflow.variable"() {data_type = 2 : i32, device_name = ["@0:0"], device_tag = "cpu", hierarchy = [1], nd_sbp = ["B"], op_name = "model.layer4.0.downsample.1.bias", output_lbns = ["model.layer4.0.downsample.1.bias/out"], scope_symbol_id = 4611686018430771199 : i64, shape = [2048 : si64]} : () -> tensor<2048xf32>
    %output_282 = "oneflow.variable"() {data_type = 2 : i32, device_name = ["@0:0"], device_tag = "cpu", hierarchy = [1], nd_sbp = ["B"], op_name = "model.layer4.1.conv1.weight", output_lbns = ["model.layer4.1.conv1.weight/out"], scope_symbol_id = 4611686018430791679 : i64, shape = [512 : si64, 2048 : si64, 1 : si64, 1 : si64]} : () -> tensor<512x2048x1x1xf32>
    %output_283 = "oneflow.variable"() {data_type = 6 : i32, device_name = ["@0:0"], device_tag = "cpu", hierarchy = [1], nd_sbp = ["B"], op_name = "model.layer4.1.bn1.num_batches_tracked", output_lbns = ["model.layer4.1.bn1.num_batches_tracked/out"], scope_symbol_id = 4611686018430808063 : i64, shape = [], trainable = false} : () -> tensor<i64>
    %output_284 = "oneflow.variable"() {data_type = 2 : i32, device_name = ["@0:0"], device_tag = "cpu", hierarchy = [1], nd_sbp = ["B"], op_name = "model.layer4.1.bn1.running_mean", output_lbns = ["model.layer4.1.bn1.running_mean/out"], scope_symbol_id = 4611686018430820351 : i64, shape = [512 : si64], trainable = false} : () -> tensor<512xf32>
    %output_285 = "oneflow.variable"() {data_type = 2 : i32, device_name = ["@0:0"], device_tag = "cpu", hierarchy = [1], nd_sbp = ["B"], op_name = "model.layer4.1.bn1.running_var", output_lbns = ["model.layer4.1.bn1.running_var/out"], scope_symbol_id = 4611686018430828543 : i64, shape = [512 : si64], trainable = false} : () -> tensor<512xf32>
    %output_286 = "oneflow.variable"() {data_type = 2 : i32, device_name = ["@0:0"], device_tag = "cpu", hierarchy = [1], nd_sbp = ["B"], op_name = "model.layer4.1.bn1.weight", output_lbns = ["model.layer4.1.bn1.weight/out"], scope_symbol_id = 4611686018430836735 : i64, shape = [512 : si64]} : () -> tensor<512xf32>
    %output_287 = "oneflow.variable"() {data_type = 2 : i32, device_name = ["@0:0"], device_tag = "cpu", hierarchy = [1], nd_sbp = ["B"], op_name = "model.layer4.1.bn1.bias", output_lbns = ["model.layer4.1.bn1.bias/out"], scope_symbol_id = 4611686018430844927 : i64, shape = [512 : si64]} : () -> tensor<512xf32>
    %output_288 = "oneflow.variable"() {data_type = 2 : i32, device_name = ["@0:0"], device_tag = "cpu", hierarchy = [1], nd_sbp = ["B"], op_name = "model.layer4.1.conv2.weight", output_lbns = ["model.layer4.1.conv2.weight/out"], scope_symbol_id = 4611686018430865407 : i64, shape = [512 : si64, 512 : si64, 3 : si64, 3 : si64]} : () -> tensor<512x512x3x3xf32>
    %output_289 = "oneflow.variable"() {data_type = 6 : i32, device_name = ["@0:0"], device_tag = "cpu", hierarchy = [1], nd_sbp = ["B"], op_name = "model.layer4.1.bn2.num_batches_tracked", output_lbns = ["model.layer4.1.bn2.num_batches_tracked/out"], scope_symbol_id = 4611686018430881791 : i64, shape = [], trainable = false} : () -> tensor<i64>
    %output_290 = "oneflow.variable"() {data_type = 2 : i32, device_name = ["@0:0"], device_tag = "cpu", hierarchy = [1], nd_sbp = ["B"], op_name = "model.layer4.1.bn2.running_mean", output_lbns = ["model.layer4.1.bn2.running_mean/out"], scope_symbol_id = 4611686018430894079 : i64, shape = [512 : si64], trainable = false} : () -> tensor<512xf32>
    %output_291 = "oneflow.variable"() {data_type = 2 : i32, device_name = ["@0:0"], device_tag = "cpu", hierarchy = [1], nd_sbp = ["B"], op_name = "model.layer4.1.bn2.running_var", output_lbns = ["model.layer4.1.bn2.running_var/out"], scope_symbol_id = 4611686018430902271 : i64, shape = [512 : si64], trainable = false} : () -> tensor<512xf32>
    %output_292 = "oneflow.variable"() {data_type = 2 : i32, device_name = ["@0:0"], device_tag = "cpu", hierarchy = [1], nd_sbp = ["B"], op_name = "model.layer4.1.bn2.weight", output_lbns = ["model.layer4.1.bn2.weight/out"], scope_symbol_id = 4611686018430910463 : i64, shape = [512 : si64]} : () -> tensor<512xf32>
    %output_293 = "oneflow.variable"() {data_type = 2 : i32, device_name = ["@0:0"], device_tag = "cpu", hierarchy = [1], nd_sbp = ["B"], op_name = "model.layer4.1.bn2.bias", output_lbns = ["model.layer4.1.bn2.bias/out"], scope_symbol_id = 4611686018430918655 : i64, shape = [512 : si64]} : () -> tensor<512xf32>
    %output_294 = "oneflow.variable"() {data_type = 2 : i32, device_name = ["@0:0"], device_tag = "cpu", hierarchy = [1], nd_sbp = ["B"], op_name = "model.layer4.1.conv3.weight", output_lbns = ["model.layer4.1.conv3.weight/out"], scope_symbol_id = 4611686018430930943 : i64, shape = [2048 : si64, 512 : si64, 1 : si64, 1 : si64]} : () -> tensor<2048x512x1x1xf32>
    %output_295 = "oneflow.variable"() {data_type = 6 : i32, device_name = ["@0:0"], device_tag = "cpu", hierarchy = [1], nd_sbp = ["B"], op_name = "model.layer4.1.bn3.num_batches_tracked", output_lbns = ["model.layer4.1.bn3.num_batches_tracked/out"], scope_symbol_id = 4611686018430947327 : i64, shape = [], trainable = false} : () -> tensor<i64>
    %output_296 = "oneflow.variable"() {data_type = 2 : i32, device_name = ["@0:0"], device_tag = "cpu", hierarchy = [1], nd_sbp = ["B"], op_name = "model.layer4.1.bn3.running_mean", output_lbns = ["model.layer4.1.bn3.running_mean/out"], scope_symbol_id = 4611686018430959615 : i64, shape = [2048 : si64], trainable = false} : () -> tensor<2048xf32>
    %output_297 = "oneflow.variable"() {data_type = 2 : i32, device_name = ["@0:0"], device_tag = "cpu", hierarchy = [1], nd_sbp = ["B"], op_name = "model.layer4.1.bn3.running_var", output_lbns = ["model.layer4.1.bn3.running_var/out"], scope_symbol_id = 4611686018430967807 : i64, shape = [2048 : si64], trainable = false} : () -> tensor<2048xf32>
    %output_298 = "oneflow.variable"() {data_type = 2 : i32, device_name = ["@0:0"], device_tag = "cpu", hierarchy = [1], nd_sbp = ["B"], op_name = "model.layer4.1.bn3.weight", output_lbns = ["model.layer4.1.bn3.weight/out"], scope_symbol_id = 4611686018430975999 : i64, shape = [2048 : si64]} : () -> tensor<2048xf32>
    %output_299 = "oneflow.variable"() {data_type = 2 : i32, device_name = ["@0:0"], device_tag = "cpu", hierarchy = [1], nd_sbp = ["B"], op_name = "model.layer4.1.bn3.bias", output_lbns = ["model.layer4.1.bn3.bias/out"], scope_symbol_id = 4611686018430984191 : i64, shape = [2048 : si64]} : () -> tensor<2048xf32>
    %output_300 = "oneflow.variable"() {data_type = 2 : i32, device_name = ["@0:0"], device_tag = "cpu", hierarchy = [1], nd_sbp = ["B"], op_name = "model.layer4.2.conv1.weight", output_lbns = ["model.layer4.2.conv1.weight/out"], scope_symbol_id = 4611686018431004671 : i64, shape = [512 : si64, 2048 : si64, 1 : si64, 1 : si64]} : () -> tensor<512x2048x1x1xf32>
    %output_301 = "oneflow.variable"() {data_type = 6 : i32, device_name = ["@0:0"], device_tag = "cpu", hierarchy = [1], nd_sbp = ["B"], op_name = "model.layer4.2.bn1.num_batches_tracked", output_lbns = ["model.layer4.2.bn1.num_batches_tracked/out"], scope_symbol_id = 4611686018431021055 : i64, shape = [], trainable = false} : () -> tensor<i64>
    %output_302 = "oneflow.variable"() {data_type = 2 : i32, device_name = ["@0:0"], device_tag = "cpu", hierarchy = [1], nd_sbp = ["B"], op_name = "model.layer4.2.bn1.running_mean", output_lbns = ["model.layer4.2.bn1.running_mean/out"], scope_symbol_id = 4611686018431033343 : i64, shape = [512 : si64], trainable = false} : () -> tensor<512xf32>
    %output_303 = "oneflow.variable"() {data_type = 2 : i32, device_name = ["@0:0"], device_tag = "cpu", hierarchy = [1], nd_sbp = ["B"], op_name = "model.layer4.2.bn1.running_var", output_lbns = ["model.layer4.2.bn1.running_var/out"], scope_symbol_id = 4611686018431041535 : i64, shape = [512 : si64], trainable = false} : () -> tensor<512xf32>
    %output_304 = "oneflow.variable"() {data_type = 2 : i32, device_name = ["@0:0"], device_tag = "cpu", hierarchy = [1], nd_sbp = ["B"], op_name = "model.layer4.2.bn1.weight", output_lbns = ["model.layer4.2.bn1.weight/out"], scope_symbol_id = 4611686018431049727 : i64, shape = [512 : si64]} : () -> tensor<512xf32>
    %output_305 = "oneflow.variable"() {data_type = 2 : i32, device_name = ["@0:0"], device_tag = "cpu", hierarchy = [1], nd_sbp = ["B"], op_name = "model.layer4.2.bn1.bias", output_lbns = ["model.layer4.2.bn1.bias/out"], scope_symbol_id = 4611686018431057919 : i64, shape = [512 : si64]} : () -> tensor<512xf32>
    %output_306 = "oneflow.variable"() {data_type = 2 : i32, device_name = ["@0:0"], device_tag = "cpu", hierarchy = [1], nd_sbp = ["B"], op_name = "model.layer4.2.conv2.weight", output_lbns = ["model.layer4.2.conv2.weight/out"], scope_symbol_id = 4611686018431078399 : i64, shape = [512 : si64, 512 : si64, 3 : si64, 3 : si64]} : () -> tensor<512x512x3x3xf32>
    %output_307 = "oneflow.variable"() {data_type = 6 : i32, device_name = ["@0:0"], device_tag = "cpu", hierarchy = [1], nd_sbp = ["B"], op_name = "model.layer4.2.bn2.num_batches_tracked", output_lbns = ["model.layer4.2.bn2.num_batches_tracked/out"], scope_symbol_id = 4611686018431094783 : i64, shape = [], trainable = false} : () -> tensor<i64>
    %output_308 = "oneflow.variable"() {data_type = 2 : i32, device_name = ["@0:0"], device_tag = "cpu", hierarchy = [1], nd_sbp = ["B"], op_name = "model.layer4.2.bn2.running_mean", output_lbns = ["model.layer4.2.bn2.running_mean/out"], scope_symbol_id = 4611686018431107071 : i64, shape = [512 : si64], trainable = false} : () -> tensor<512xf32>
    %output_309 = "oneflow.variable"() {data_type = 2 : i32, device_name = ["@0:0"], device_tag = "cpu", hierarchy = [1], nd_sbp = ["B"], op_name = "model.layer4.2.bn2.running_var", output_lbns = ["model.layer4.2.bn2.running_var/out"], scope_symbol_id = 4611686018431115263 : i64, shape = [512 : si64], trainable = false} : () -> tensor<512xf32>
    %output_310 = "oneflow.variable"() {data_type = 2 : i32, device_name = ["@0:0"], device_tag = "cpu", hierarchy = [1], nd_sbp = ["B"], op_name = "model.layer4.2.bn2.weight", output_lbns = ["model.layer4.2.bn2.weight/out"], scope_symbol_id = 4611686018431123455 : i64, shape = [512 : si64]} : () -> tensor<512xf32>
    %output_311 = "oneflow.variable"() {data_type = 2 : i32, device_name = ["@0:0"], device_tag = "cpu", hierarchy = [1], nd_sbp = ["B"], op_name = "model.layer4.2.bn2.bias", output_lbns = ["model.layer4.2.bn2.bias/out"], scope_symbol_id = 4611686018431131647 : i64, shape = [512 : si64]} : () -> tensor<512xf32>
    %output_312 = "oneflow.variable"() {data_type = 2 : i32, device_name = ["@0:0"], device_tag = "cpu", hierarchy = [1], nd_sbp = ["B"], op_name = "model.layer4.2.conv3.weight", output_lbns = ["model.layer4.2.conv3.weight/out"], scope_symbol_id = 4611686018431143935 : i64, shape = [2048 : si64, 512 : si64, 1 : si64, 1 : si64]} : () -> tensor<2048x512x1x1xf32>
    %output_313 = "oneflow.variable"() {data_type = 6 : i32, device_name = ["@0:0"], device_tag = "cpu", hierarchy = [1], nd_sbp = ["B"], op_name = "model.layer4.2.bn3.num_batches_tracked", output_lbns = ["model.layer4.2.bn3.num_batches_tracked/out"], scope_symbol_id = 4611686018431160319 : i64, shape = [], trainable = false} : () -> tensor<i64>
    %output_314 = "oneflow.variable"() {data_type = 2 : i32, device_name = ["@0:0"], device_tag = "cpu", hierarchy = [1], nd_sbp = ["B"], op_name = "model.layer4.2.bn3.running_mean", output_lbns = ["model.layer4.2.bn3.running_mean/out"], scope_symbol_id = 4611686018431172607 : i64, shape = [2048 : si64], trainable = false} : () -> tensor<2048xf32>
    %output_315 = "oneflow.variable"() {data_type = 2 : i32, device_name = ["@0:0"], device_tag = "cpu", hierarchy = [1], nd_sbp = ["B"], op_name = "model.layer4.2.bn3.running_var", output_lbns = ["model.layer4.2.bn3.running_var/out"], scope_symbol_id = 4611686018431180799 : i64, shape = [2048 : si64], trainable = false} : () -> tensor<2048xf32>
    %output_316 = "oneflow.variable"() {data_type = 2 : i32, device_name = ["@0:0"], device_tag = "cpu", hierarchy = [1], nd_sbp = ["B"], op_name = "model.layer4.2.bn3.weight", output_lbns = ["model.layer4.2.bn3.weight/out"], scope_symbol_id = 4611686018431188991 : i64, shape = [2048 : si64]} : () -> tensor<2048xf32>
    %output_317 = "oneflow.variable"() {data_type = 2 : i32, device_name = ["@0:0"], device_tag = "cpu", hierarchy = [1], nd_sbp = ["B"], op_name = "model.layer4.2.bn3.bias", output_lbns = ["model.layer4.2.bn3.bias/out"], scope_symbol_id = 4611686018431197183 : i64, shape = [2048 : si64]} : () -> tensor<2048xf32>
    %output_318 = "oneflow.variable"() {data_type = 2 : i32, device_name = ["@0:0"], device_tag = "cpu", hierarchy = [1], nd_sbp = ["B"], op_name = "model.fc.weight", output_lbns = ["model.fc.weight/out"], scope_symbol_id = 4611686018431225855 : i64, shape = [1000 : si64, 2048 : si64]} : () -> tensor<1000x2048xf32>
    %output_319 = "oneflow.variable"() {data_type = 2 : i32, device_name = ["@0:0"], device_tag = "cpu", hierarchy = [1], nd_sbp = ["B"], op_name = "model.fc.bias", output_lbns = ["model.fc.bias/out"], scope_symbol_id = 4611686018431238143 : i64, shape = [1000 : si64]} : () -> tensor<1000xf32>
    %0 = "oneflow.conv2d"(%output, %output_0) {data_format = "channels_first", device_name = ["@0:0"], device_tag = "cpu", dilation_rate = [1 : si32, 1 : si32], filters = 64 : si32, groups = 1 : si32, hierarchy = [1], kernel_size = [7 : si32, 7 : si32], op_name = "model.conv1-conv2d-0", operand_segment_sizes = dense<[1, 1, 0, 0]> : vector<4xi32>, output_lbns = ["model.conv1-conv2d-0/out_0"], padding_before = [3 : si32, 3 : si32], scope_symbol_id = 4611686018427432959 : i64, strides = [2 : si32, 2 : si32]} : (tensor<1x3x224x224xf32>, tensor<64x3x7x7xf32>) -> tensor<1x64x112x112xf32>
    %y, %mean, %inv_variance = "oneflow.normalization"(%0, %output_2, %output_3, %output_4, %output_5) {axis = 1 : si32, device_name = ["@0:0"], device_tag = "cpu", epsilon = 9.99999974E-6 : f32, hierarchy = [1], momentum = 0.899999976 : f32, op_name = "model.bn1-normalization-2", operand_segment_sizes = dense<[1, 1, 1, 1, 1, 0]> : vector<6xi32>, output_lbns = ["model.bn1-normalization-2/y_0", "model.bn1-normalization-2/mean_0", "model.bn1-normalization-2/inv_variance_0"], result_segment_sizes = dense<1> : vector<3xi32>, scope_symbol_id = 4611686018427449343 : i64, training = true} : (tensor<1x64x112x112xf32>, tensor<64xf32>, tensor<64xf32>, tensor<64xf32>, tensor<64xf32>) -> (tensor<1x64x112x112xf32>, tensor<64xf32>, tensor<64xf32>)
    %1 = "oneflow.relu"(%y) {device_name = ["@0:0"], device_tag = "cpu", hierarchy = [1], op_name = "model.relu-relu-3", output_lbns = ["model.relu-relu-3/y_0"], scope_symbol_id = 4611686018427490303 : i64} : (tensor<1x64x112x112xf32>) -> tensor<1x64x112x112xf32>
    %y_320, %indice = "oneflow.max_pool_2d"(%1) {ceil_mode = false, data_format = "channels_first", device_name = ["@0:0"], device_tag = "cpu", dilation = [1 : si32, 1 : si32], hierarchy = [1], kernel_size = [3 : si32, 3 : si32], op_name = "model.maxpool-max_pool_2d-4", output_lbns = ["model.maxpool-max_pool_2d-4/y_0", "model.maxpool-max_pool_2d-4/indice_0"], padding = [1 : si32, 1 : si32], return_indices = false, scope_symbol_id = 4611686018427498495 : i64, stride = [2 : si32, 2 : si32]} : (tensor<1x64x112x112xf32>) -> (tensor<1x64x56x56xf32>, tensor<1x64x56x56xi64>)
    %2 = "oneflow.conv2d"(%y_320, %output_24) {data_format = "channels_first", device_name = ["@0:0"], device_tag = "cpu", dilation_rate = [1 : si32, 1 : si32], filters = 256 : si32, groups = 1 : si32, hierarchy = [1], kernel_size = [1 : si32, 1 : si32], op_name = "model.layer1.0.downsample.0-conv2d-16", operand_segment_sizes = dense<[1, 1, 0, 0]> : vector<4xi32>, output_lbns = ["model.layer1.0.downsample.0-conv2d-16/out_0"], padding_before = [0 : si32, 0 : si32], scope_symbol_id = 4611686018427731967 : i64, strides = [1 : si32, 1 : si32]} : (tensor<1x64x56x56xf32>, tensor<256x64x1x1xf32>) -> tensor<1x256x56x56xf32>
    %3 = "oneflow.conv2d"(%y_320, %output_6) {data_format = "channels_first", device_name = ["@0:0"], device_tag = "cpu", dilation_rate = [1 : si32, 1 : si32], filters = 64 : si32, groups = 1 : si32, hierarchy = [1], kernel_size = [1 : si32, 1 : si32], op_name = "model.layer1.0.conv1-conv2d-5", operand_segment_sizes = dense<[1, 1, 0, 0]> : vector<4xi32>, output_lbns = ["model.layer1.0.conv1-conv2d-5/out_0"], padding_before = [0 : si32, 0 : si32], scope_symbol_id = 4611686018427523071 : i64, strides = [1 : si32, 1 : si32]} : (tensor<1x64x56x56xf32>, tensor<64x64x1x1xf32>) -> tensor<1x64x56x56xf32>
    %y_321, %mean_322, %inv_variance_323 = "oneflow.normalization"(%2, %output_26, %output_27, %output_28, %output_29) {axis = 1 : si32, device_name = ["@0:0"], device_tag = "cpu", epsilon = 9.99999974E-6 : f32, hierarchy = [1], momentum = 0.899999976 : f32, op_name = "model.layer1.0.downsample.1-normalization-18", operand_segment_sizes = dense<[1, 1, 1, 1, 1, 0]> : vector<6xi32>, output_lbns = ["model.layer1.0.downsample.1-normalization-18/y_0", "model.layer1.0.downsample.1-normalization-18/mean_0", "model.layer1.0.downsample.1-normalization-18/inv_variance_0"], result_segment_sizes = dense<1> : vector<3xi32>, scope_symbol_id = 4611686018427748351 : i64, training = true} : (tensor<1x256x56x56xf32>, tensor<256xf32>, tensor<256xf32>, tensor<256xf32>, tensor<256xf32>) -> (tensor<1x256x56x56xf32>, tensor<256xf32>, tensor<256xf32>)
    %y_324, %mean_325, %inv_variance_326 = "oneflow.normalization"(%3, %output_8, %output_9, %output_10, %output_11) {axis = 1 : si32, device_name = ["@0:0"], device_tag = "cpu", epsilon = 9.99999974E-6 : f32, hierarchy = [1], momentum = 0.899999976 : f32, op_name = "model.layer1.0.bn1-normalization-7", operand_segment_sizes = dense<[1, 1, 1, 1, 1, 0]> : vector<6xi32>, output_lbns = ["model.layer1.0.bn1-normalization-7/y_0", "model.layer1.0.bn1-normalization-7/mean_0", "model.layer1.0.bn1-normalization-7/inv_variance_0"], result_segment_sizes = dense<1> : vector<3xi32>, scope_symbol_id = 4611686018427539455 : i64, training = true} : (tensor<1x64x56x56xf32>, tensor<64xf32>, tensor<64xf32>, tensor<64xf32>, tensor<64xf32>) -> (tensor<1x64x56x56xf32>, tensor<64xf32>, tensor<64xf32>)
    %4 = "oneflow.relu"(%y_324) {device_name = ["@0:0"], device_tag = "cpu", hierarchy = [1], op_name = "model.layer1.0.relu-relu-8", output_lbns = ["model.layer1.0.relu-relu-8/y_0"], scope_symbol_id = 4611686018427580415 : i64} : (tensor<1x64x56x56xf32>) -> tensor<1x64x56x56xf32>
    %5 = "oneflow.conv2d"(%4, %output_12) {data_format = "channels_first", device_name = ["@0:0"], device_tag = "cpu", dilation_rate = [1 : si32, 1 : si32], filters = 64 : si32, groups = 1 : si32, hierarchy = [1], kernel_size = [3 : si32, 3 : si32], op_name = "model.layer1.0.conv2-conv2d-9", operand_segment_sizes = dense<[1, 1, 0, 0]> : vector<4xi32>, output_lbns = ["model.layer1.0.conv2-conv2d-9/out_0"], padding_before = [1 : si32, 1 : si32], scope_symbol_id = 4611686018427596799 : i64, strides = [1 : si32, 1 : si32]} : (tensor<1x64x56x56xf32>, tensor<64x64x3x3xf32>) -> tensor<1x64x56x56xf32>
    %y_327, %mean_328, %inv_variance_329 = "oneflow.normalization"(%5, %output_14, %output_15, %output_16, %output_17) {axis = 1 : si32, device_name = ["@0:0"], device_tag = "cpu", epsilon = 9.99999974E-6 : f32, hierarchy = [1], momentum = 0.899999976 : f32, op_name = "model.layer1.0.bn2-normalization-11", operand_segment_sizes = dense<[1, 1, 1, 1, 1, 0]> : vector<6xi32>, output_lbns = ["model.layer1.0.bn2-normalization-11/y_0", "model.layer1.0.bn2-normalization-11/mean_0", "model.layer1.0.bn2-normalization-11/inv_variance_0"], result_segment_sizes = dense<1> : vector<3xi32>, scope_symbol_id = 4611686018427613183 : i64, training = true} : (tensor<1x64x56x56xf32>, tensor<64xf32>, tensor<64xf32>, tensor<64xf32>, tensor<64xf32>) -> (tensor<1x64x56x56xf32>, tensor<64xf32>, tensor<64xf32>)
    %6 = "oneflow.relu"(%y_327) {device_name = ["@0:0"], device_tag = "cpu", hierarchy = [1], op_name = "model.layer1.0.relu-relu-12", output_lbns = ["model.layer1.0.relu-relu-12/y_0"], scope_symbol_id = 4611686018427580415 : i64} : (tensor<1x64x56x56xf32>) -> tensor<1x64x56x56xf32>
    %7 = "oneflow.conv2d"(%6, %output_18) {data_format = "channels_first", device_name = ["@0:0"], device_tag = "cpu", dilation_rate = [1 : si32, 1 : si32], filters = 256 : si32, groups = 1 : si32, hierarchy = [1], kernel_size = [1 : si32, 1 : si32], op_name = "model.layer1.0.conv3-conv2d-13", operand_segment_sizes = dense<[1, 1, 0, 0]> : vector<4xi32>, output_lbns = ["model.layer1.0.conv3-conv2d-13/out_0"], padding_before = [0 : si32, 0 : si32], scope_symbol_id = 4611686018427662335 : i64, strides = [1 : si32, 1 : si32]} : (tensor<1x64x56x56xf32>, tensor<256x64x1x1xf32>) -> tensor<1x256x56x56xf32>
    %y_330, %mean_331, %inv_variance_332 = "oneflow.normalization"(%7, %output_20, %output_21, %output_22, %output_23) {axis = 1 : si32, device_name = ["@0:0"], device_tag = "cpu", epsilon = 9.99999974E-6 : f32, hierarchy = [1], momentum = 0.899999976 : f32, op_name = "model.layer1.0.bn3-normalization-15", operand_segment_sizes = dense<[1, 1, 1, 1, 1, 0]> : vector<6xi32>, output_lbns = ["model.layer1.0.bn3-normalization-15/y_0", "model.layer1.0.bn3-normalization-15/mean_0", "model.layer1.0.bn3-normalization-15/inv_variance_0"], result_segment_sizes = dense<1> : vector<3xi32>, scope_symbol_id = 4611686018427678719 : i64, training = true} : (tensor<1x256x56x56xf32>, tensor<256xf32>, tensor<256xf32>, tensor<256xf32>, tensor<256xf32>) -> (tensor<1x256x56x56xf32>, tensor<256xf32>, tensor<256xf32>)
    %8 = "oneflow.add_n2"(%y_330, %y_321) {device_name = ["@0:0"], device_tag = "cpu", hierarchy = [1], op_name = "model.layer1.0-add_n-19", op_type_name = "add_n", output_lbns = ["model.layer1.0-add_n-19/out_0"], scope_symbol_id = 4611686018427785215 : i64} : (tensor<1x256x56x56xf32>, tensor<1x256x56x56xf32>) -> tensor<1x256x56x56xf32>
    %9 = "oneflow.relu"(%8) {device_name = ["@0:0"], device_tag = "cpu", hierarchy = [1], op_name = "model.layer1.0.relu-relu-20", output_lbns = ["model.layer1.0.relu-relu-20/y_0"], scope_symbol_id = 4611686018427580415 : i64} : (tensor<1x256x56x56xf32>) -> tensor<1x256x56x56xf32>
    %10 = "oneflow.conv2d"(%9, %output_30) {data_format = "channels_first", device_name = ["@0:0"], device_tag = "cpu", dilation_rate = [1 : si32, 1 : si32], filters = 64 : si32, groups = 1 : si32, hierarchy = [1], kernel_size = [1 : si32, 1 : si32], op_name = "model.layer1.1.conv1-conv2d-21", operand_segment_sizes = dense<[1, 1, 0, 0]> : vector<4xi32>, output_lbns = ["model.layer1.1.conv1-conv2d-21/out_0"], padding_before = [0 : si32, 0 : si32], scope_symbol_id = 4611686018427805695 : i64, strides = [1 : si32, 1 : si32]} : (tensor<1x256x56x56xf32>, tensor<64x256x1x1xf32>) -> tensor<1x64x56x56xf32>
    %y_333, %mean_334, %inv_variance_335 = "oneflow.normalization"(%10, %output_32, %output_33, %output_34, %output_35) {axis = 1 : si32, device_name = ["@0:0"], device_tag = "cpu", epsilon = 9.99999974E-6 : f32, hierarchy = [1], momentum = 0.899999976 : f32, op_name = "model.layer1.1.bn1-normalization-23", operand_segment_sizes = dense<[1, 1, 1, 1, 1, 0]> : vector<6xi32>, output_lbns = ["model.layer1.1.bn1-normalization-23/y_0", "model.layer1.1.bn1-normalization-23/mean_0", "model.layer1.1.bn1-normalization-23/inv_variance_0"], result_segment_sizes = dense<1> : vector<3xi32>, scope_symbol_id = 4611686018427822079 : i64, training = true} : (tensor<1x64x56x56xf32>, tensor<64xf32>, tensor<64xf32>, tensor<64xf32>, tensor<64xf32>) -> (tensor<1x64x56x56xf32>, tensor<64xf32>, tensor<64xf32>)
    %11 = "oneflow.relu"(%y_333) {device_name = ["@0:0"], device_tag = "cpu", hierarchy = [1], op_name = "model.layer1.1.relu-relu-24", output_lbns = ["model.layer1.1.relu-relu-24/y_0"], scope_symbol_id = 4611686018427863039 : i64} : (tensor<1x64x56x56xf32>) -> tensor<1x64x56x56xf32>
    %12 = "oneflow.conv2d"(%11, %output_36) {data_format = "channels_first", device_name = ["@0:0"], device_tag = "cpu", dilation_rate = [1 : si32, 1 : si32], filters = 64 : si32, groups = 1 : si32, hierarchy = [1], kernel_size = [3 : si32, 3 : si32], op_name = "model.layer1.1.conv2-conv2d-25", operand_segment_sizes = dense<[1, 1, 0, 0]> : vector<4xi32>, output_lbns = ["model.layer1.1.conv2-conv2d-25/out_0"], padding_before = [1 : si32, 1 : si32], scope_symbol_id = 4611686018427879423 : i64, strides = [1 : si32, 1 : si32]} : (tensor<1x64x56x56xf32>, tensor<64x64x3x3xf32>) -> tensor<1x64x56x56xf32>
    %y_336, %mean_337, %inv_variance_338 = "oneflow.normalization"(%12, %output_38, %output_39, %output_40, %output_41) {axis = 1 : si32, device_name = ["@0:0"], device_tag = "cpu", epsilon = 9.99999974E-6 : f32, hierarchy = [1], momentum = 0.899999976 : f32, op_name = "model.layer1.1.bn2-normalization-27", operand_segment_sizes = dense<[1, 1, 1, 1, 1, 0]> : vector<6xi32>, output_lbns = ["model.layer1.1.bn2-normalization-27/y_0", "model.layer1.1.bn2-normalization-27/mean_0", "model.layer1.1.bn2-normalization-27/inv_variance_0"], result_segment_sizes = dense<1> : vector<3xi32>, scope_symbol_id = 4611686018427895807 : i64, training = true} : (tensor<1x64x56x56xf32>, tensor<64xf32>, tensor<64xf32>, tensor<64xf32>, tensor<64xf32>) -> (tensor<1x64x56x56xf32>, tensor<64xf32>, tensor<64xf32>)
    %13 = "oneflow.relu"(%y_336) {device_name = ["@0:0"], device_tag = "cpu", hierarchy = [1], op_name = "model.layer1.1.relu-relu-28", output_lbns = ["model.layer1.1.relu-relu-28/y_0"], scope_symbol_id = 4611686018427863039 : i64} : (tensor<1x64x56x56xf32>) -> tensor<1x64x56x56xf32>
    %14 = "oneflow.conv2d"(%13, %output_42) {data_format = "channels_first", device_name = ["@0:0"], device_tag = "cpu", dilation_rate = [1 : si32, 1 : si32], filters = 256 : si32, groups = 1 : si32, hierarchy = [1], kernel_size = [1 : si32, 1 : si32], op_name = "model.layer1.1.conv3-conv2d-29", operand_segment_sizes = dense<[1, 1, 0, 0]> : vector<4xi32>, output_lbns = ["model.layer1.1.conv3-conv2d-29/out_0"], padding_before = [0 : si32, 0 : si32], scope_symbol_id = 4611686018427944959 : i64, strides = [1 : si32, 1 : si32]} : (tensor<1x64x56x56xf32>, tensor<256x64x1x1xf32>) -> tensor<1x256x56x56xf32>
    %y_339, %mean_340, %inv_variance_341 = "oneflow.normalization"(%14, %output_44, %output_45, %output_46, %output_47) {axis = 1 : si32, device_name = ["@0:0"], device_tag = "cpu", epsilon = 9.99999974E-6 : f32, hierarchy = [1], momentum = 0.899999976 : f32, op_name = "model.layer1.1.bn3-normalization-31", operand_segment_sizes = dense<[1, 1, 1, 1, 1, 0]> : vector<6xi32>, output_lbns = ["model.layer1.1.bn3-normalization-31/y_0", "model.layer1.1.bn3-normalization-31/mean_0", "model.layer1.1.bn3-normalization-31/inv_variance_0"], result_segment_sizes = dense<1> : vector<3xi32>, scope_symbol_id = 4611686018427961343 : i64, training = true} : (tensor<1x256x56x56xf32>, tensor<256xf32>, tensor<256xf32>, tensor<256xf32>, tensor<256xf32>) -> (tensor<1x256x56x56xf32>, tensor<256xf32>, tensor<256xf32>)
    %15 = "oneflow.add_n2"(%y_339, %9) {device_name = ["@0:0"], device_tag = "cpu", hierarchy = [1], op_name = "model.layer1.1-add_n-32", op_type_name = "add_n", output_lbns = ["model.layer1.1-add_n-32/out_0"], scope_symbol_id = 4611686018427998207 : i64} : (tensor<1x256x56x56xf32>, tensor<1x256x56x56xf32>) -> tensor<1x256x56x56xf32>
    %16 = "oneflow.relu"(%15) {device_name = ["@0:0"], device_tag = "cpu", hierarchy = [1], op_name = "model.layer1.1.relu-relu-33", output_lbns = ["model.layer1.1.relu-relu-33/y_0"], scope_symbol_id = 4611686018427863039 : i64} : (tensor<1x256x56x56xf32>) -> tensor<1x256x56x56xf32>
    %17 = "oneflow.conv2d"(%16, %output_48) {data_format = "channels_first", device_name = ["@0:0"], device_tag = "cpu", dilation_rate = [1 : si32, 1 : si32], filters = 64 : si32, groups = 1 : si32, hierarchy = [1], kernel_size = [1 : si32, 1 : si32], op_name = "model.layer1.2.conv1-conv2d-34", operand_segment_sizes = dense<[1, 1, 0, 0]> : vector<4xi32>, output_lbns = ["model.layer1.2.conv1-conv2d-34/out_0"], padding_before = [0 : si32, 0 : si32], scope_symbol_id = 4611686018428018687 : i64, strides = [1 : si32, 1 : si32]} : (tensor<1x256x56x56xf32>, tensor<64x256x1x1xf32>) -> tensor<1x64x56x56xf32>
    %y_342, %mean_343, %inv_variance_344 = "oneflow.normalization"(%17, %output_50, %output_51, %output_52, %output_53) {axis = 1 : si32, device_name = ["@0:0"], device_tag = "cpu", epsilon = 9.99999974E-6 : f32, hierarchy = [1], momentum = 0.899999976 : f32, op_name = "model.layer1.2.bn1-normalization-36", operand_segment_sizes = dense<[1, 1, 1, 1, 1, 0]> : vector<6xi32>, output_lbns = ["model.layer1.2.bn1-normalization-36/y_0", "model.layer1.2.bn1-normalization-36/mean_0", "model.layer1.2.bn1-normalization-36/inv_variance_0"], result_segment_sizes = dense<1> : vector<3xi32>, scope_symbol_id = 4611686018428035071 : i64, training = true} : (tensor<1x64x56x56xf32>, tensor<64xf32>, tensor<64xf32>, tensor<64xf32>, tensor<64xf32>) -> (tensor<1x64x56x56xf32>, tensor<64xf32>, tensor<64xf32>)
    %18 = "oneflow.relu"(%y_342) {device_name = ["@0:0"], device_tag = "cpu", hierarchy = [1], op_name = "model.layer1.2.relu-relu-37", output_lbns = ["model.layer1.2.relu-relu-37/y_0"], scope_symbol_id = 4611686018428076031 : i64} : (tensor<1x64x56x56xf32>) -> tensor<1x64x56x56xf32>
    %19 = "oneflow.conv2d"(%18, %output_54) {data_format = "channels_first", device_name = ["@0:0"], device_tag = "cpu", dilation_rate = [1 : si32, 1 : si32], filters = 64 : si32, groups = 1 : si32, hierarchy = [1], kernel_size = [3 : si32, 3 : si32], op_name = "model.layer1.2.conv2-conv2d-38", operand_segment_sizes = dense<[1, 1, 0, 0]> : vector<4xi32>, output_lbns = ["model.layer1.2.conv2-conv2d-38/out_0"], padding_before = [1 : si32, 1 : si32], scope_symbol_id = 4611686018428092415 : i64, strides = [1 : si32, 1 : si32]} : (tensor<1x64x56x56xf32>, tensor<64x64x3x3xf32>) -> tensor<1x64x56x56xf32>
    %y_345, %mean_346, %inv_variance_347 = "oneflow.normalization"(%19, %output_56, %output_57, %output_58, %output_59) {axis = 1 : si32, device_name = ["@0:0"], device_tag = "cpu", epsilon = 9.99999974E-6 : f32, hierarchy = [1], momentum = 0.899999976 : f32, op_name = "model.layer1.2.bn2-normalization-40", operand_segment_sizes = dense<[1, 1, 1, 1, 1, 0]> : vector<6xi32>, output_lbns = ["model.layer1.2.bn2-normalization-40/y_0", "model.layer1.2.bn2-normalization-40/mean_0", "model.layer1.2.bn2-normalization-40/inv_variance_0"], result_segment_sizes = dense<1> : vector<3xi32>, scope_symbol_id = 4611686018428108799 : i64, training = true} : (tensor<1x64x56x56xf32>, tensor<64xf32>, tensor<64xf32>, tensor<64xf32>, tensor<64xf32>) -> (tensor<1x64x56x56xf32>, tensor<64xf32>, tensor<64xf32>)
    %20 = "oneflow.relu"(%y_345) {device_name = ["@0:0"], device_tag = "cpu", hierarchy = [1], op_name = "model.layer1.2.relu-relu-41", output_lbns = ["model.layer1.2.relu-relu-41/y_0"], scope_symbol_id = 4611686018428076031 : i64} : (tensor<1x64x56x56xf32>) -> tensor<1x64x56x56xf32>
    %21 = "oneflow.conv2d"(%20, %output_60) {data_format = "channels_first", device_name = ["@0:0"], device_tag = "cpu", dilation_rate = [1 : si32, 1 : si32], filters = 256 : si32, groups = 1 : si32, hierarchy = [1], kernel_size = [1 : si32, 1 : si32], op_name = "model.layer1.2.conv3-conv2d-42", operand_segment_sizes = dense<[1, 1, 0, 0]> : vector<4xi32>, output_lbns = ["model.layer1.2.conv3-conv2d-42/out_0"], padding_before = [0 : si32, 0 : si32], scope_symbol_id = 4611686018428157951 : i64, strides = [1 : si32, 1 : si32]} : (tensor<1x64x56x56xf32>, tensor<256x64x1x1xf32>) -> tensor<1x256x56x56xf32>
    %y_348, %mean_349, %inv_variance_350 = "oneflow.normalization"(%21, %output_62, %output_63, %output_64, %output_65) {axis = 1 : si32, device_name = ["@0:0"], device_tag = "cpu", epsilon = 9.99999974E-6 : f32, hierarchy = [1], momentum = 0.899999976 : f32, op_name = "model.layer1.2.bn3-normalization-44", operand_segment_sizes = dense<[1, 1, 1, 1, 1, 0]> : vector<6xi32>, output_lbns = ["model.layer1.2.bn3-normalization-44/y_0", "model.layer1.2.bn3-normalization-44/mean_0", "model.layer1.2.bn3-normalization-44/inv_variance_0"], result_segment_sizes = dense<1> : vector<3xi32>, scope_symbol_id = 4611686018428174335 : i64, training = true} : (tensor<1x256x56x56xf32>, tensor<256xf32>, tensor<256xf32>, tensor<256xf32>, tensor<256xf32>) -> (tensor<1x256x56x56xf32>, tensor<256xf32>, tensor<256xf32>)
    %22 = "oneflow.add_n2"(%y_348, %16) {device_name = ["@0:0"], device_tag = "cpu", hierarchy = [1], op_name = "model.layer1.2-add_n-45", op_type_name = "add_n", output_lbns = ["model.layer1.2-add_n-45/out_0"], scope_symbol_id = 4611686018428211199 : i64} : (tensor<1x256x56x56xf32>, tensor<1x256x56x56xf32>) -> tensor<1x256x56x56xf32>
    %23 = "oneflow.relu"(%22) {device_name = ["@0:0"], device_tag = "cpu", hierarchy = [1], op_name = "model.layer1.2.relu-relu-46", output_lbns = ["model.layer1.2.relu-relu-46/y_0"], scope_symbol_id = 4611686018428076031 : i64} : (tensor<1x256x56x56xf32>) -> tensor<1x256x56x56xf32>
    %24 = "oneflow.conv2d"(%23, %output_84) {data_format = "channels_first", device_name = ["@0:0"], device_tag = "cpu", dilation_rate = [1 : si32, 1 : si32], filters = 512 : si32, groups = 1 : si32, hierarchy = [1], kernel_size = [1 : si32, 1 : si32], op_name = "model.layer2.0.downsample.0-conv2d-58", operand_segment_sizes = dense<[1, 1, 0, 0]> : vector<4xi32>, output_lbns = ["model.layer2.0.downsample.0-conv2d-58/out_0"], padding_before = [0 : si32, 0 : si32], scope_symbol_id = 4611686018428444671 : i64, strides = [2 : si32, 2 : si32]} : (tensor<1x256x56x56xf32>, tensor<512x256x1x1xf32>) -> tensor<1x512x28x28xf32>
    %25 = "oneflow.conv2d"(%23, %output_66) {data_format = "channels_first", device_name = ["@0:0"], device_tag = "cpu", dilation_rate = [1 : si32, 1 : si32], filters = 128 : si32, groups = 1 : si32, hierarchy = [1], kernel_size = [1 : si32, 1 : si32], op_name = "model.layer2.0.conv1-conv2d-47", operand_segment_sizes = dense<[1, 1, 0, 0]> : vector<4xi32>, output_lbns = ["model.layer2.0.conv1-conv2d-47/out_0"], padding_before = [0 : si32, 0 : si32], scope_symbol_id = 4611686018428235775 : i64, strides = [1 : si32, 1 : si32]} : (tensor<1x256x56x56xf32>, tensor<128x256x1x1xf32>) -> tensor<1x128x56x56xf32>
    %y_351, %mean_352, %inv_variance_353 = "oneflow.normalization"(%24, %output_86, %output_87, %output_88, %output_89) {axis = 1 : si32, device_name = ["@0:0"], device_tag = "cpu", epsilon = 9.99999974E-6 : f32, hierarchy = [1], momentum = 0.899999976 : f32, op_name = "model.layer2.0.downsample.1-normalization-60", operand_segment_sizes = dense<[1, 1, 1, 1, 1, 0]> : vector<6xi32>, output_lbns = ["model.layer2.0.downsample.1-normalization-60/y_0", "model.layer2.0.downsample.1-normalization-60/mean_0", "model.layer2.0.downsample.1-normalization-60/inv_variance_0"], result_segment_sizes = dense<1> : vector<3xi32>, scope_symbol_id = 4611686018428461055 : i64, training = true} : (tensor<1x512x28x28xf32>, tensor<512xf32>, tensor<512xf32>, tensor<512xf32>, tensor<512xf32>) -> (tensor<1x512x28x28xf32>, tensor<512xf32>, tensor<512xf32>)
    %y_354, %mean_355, %inv_variance_356 = "oneflow.normalization"(%25, %output_68, %output_69, %output_70, %output_71) {axis = 1 : si32, device_name = ["@0:0"], device_tag = "cpu", epsilon = 9.99999974E-6 : f32, hierarchy = [1], momentum = 0.899999976 : f32, op_name = "model.layer2.0.bn1-normalization-49", operand_segment_sizes = dense<[1, 1, 1, 1, 1, 0]> : vector<6xi32>, output_lbns = ["model.layer2.0.bn1-normalization-49/y_0", "model.layer2.0.bn1-normalization-49/mean_0", "model.layer2.0.bn1-normalization-49/inv_variance_0"], result_segment_sizes = dense<1> : vector<3xi32>, scope_symbol_id = 4611686018428252159 : i64, training = true} : (tensor<1x128x56x56xf32>, tensor<128xf32>, tensor<128xf32>, tensor<128xf32>, tensor<128xf32>) -> (tensor<1x128x56x56xf32>, tensor<128xf32>, tensor<128xf32>)
    %26 = "oneflow.relu"(%y_354) {device_name = ["@0:0"], device_tag = "cpu", hierarchy = [1], op_name = "model.layer2.0.relu-relu-50", output_lbns = ["model.layer2.0.relu-relu-50/y_0"], scope_symbol_id = 4611686018428293119 : i64} : (tensor<1x128x56x56xf32>) -> tensor<1x128x56x56xf32>
    %27 = "oneflow.conv2d"(%26, %output_72) {data_format = "channels_first", device_name = ["@0:0"], device_tag = "cpu", dilation_rate = [1 : si32, 1 : si32], filters = 128 : si32, groups = 1 : si32, hierarchy = [1], kernel_size = [3 : si32, 3 : si32], op_name = "model.layer2.0.conv2-conv2d-51", operand_segment_sizes = dense<[1, 1, 0, 0]> : vector<4xi32>, output_lbns = ["model.layer2.0.conv2-conv2d-51/out_0"], padding_before = [1 : si32, 1 : si32], scope_symbol_id = 4611686018428309503 : i64, strides = [2 : si32, 2 : si32]} : (tensor<1x128x56x56xf32>, tensor<128x128x3x3xf32>) -> tensor<1x128x28x28xf32>
    %y_357, %mean_358, %inv_variance_359 = "oneflow.normalization"(%27, %output_74, %output_75, %output_76, %output_77) {axis = 1 : si32, device_name = ["@0:0"], device_tag = "cpu", epsilon = 9.99999974E-6 : f32, hierarchy = [1], momentum = 0.899999976 : f32, op_name = "model.layer2.0.bn2-normalization-53", operand_segment_sizes = dense<[1, 1, 1, 1, 1, 0]> : vector<6xi32>, output_lbns = ["model.layer2.0.bn2-normalization-53/y_0", "model.layer2.0.bn2-normalization-53/mean_0", "model.layer2.0.bn2-normalization-53/inv_variance_0"], result_segment_sizes = dense<1> : vector<3xi32>, scope_symbol_id = 4611686018428325887 : i64, training = true} : (tensor<1x128x28x28xf32>, tensor<128xf32>, tensor<128xf32>, tensor<128xf32>, tensor<128xf32>) -> (tensor<1x128x28x28xf32>, tensor<128xf32>, tensor<128xf32>)
    %28 = "oneflow.relu"(%y_357) {device_name = ["@0:0"], device_tag = "cpu", hierarchy = [1], op_name = "model.layer2.0.relu-relu-54", output_lbns = ["model.layer2.0.relu-relu-54/y_0"], scope_symbol_id = 4611686018428293119 : i64} : (tensor<1x128x28x28xf32>) -> tensor<1x128x28x28xf32>
    %29 = "oneflow.conv2d"(%28, %output_78) {data_format = "channels_first", device_name = ["@0:0"], device_tag = "cpu", dilation_rate = [1 : si32, 1 : si32], filters = 512 : si32, groups = 1 : si32, hierarchy = [1], kernel_size = [1 : si32, 1 : si32], op_name = "model.layer2.0.conv3-conv2d-55", operand_segment_sizes = dense<[1, 1, 0, 0]> : vector<4xi32>, output_lbns = ["model.layer2.0.conv3-conv2d-55/out_0"], padding_before = [0 : si32, 0 : si32], scope_symbol_id = 4611686018428375039 : i64, strides = [1 : si32, 1 : si32]} : (tensor<1x128x28x28xf32>, tensor<512x128x1x1xf32>) -> tensor<1x512x28x28xf32>
    %y_360, %mean_361, %inv_variance_362 = "oneflow.normalization"(%29, %output_80, %output_81, %output_82, %output_83) {axis = 1 : si32, device_name = ["@0:0"], device_tag = "cpu", epsilon = 9.99999974E-6 : f32, hierarchy = [1], momentum = 0.899999976 : f32, op_name = "model.layer2.0.bn3-normalization-57", operand_segment_sizes = dense<[1, 1, 1, 1, 1, 0]> : vector<6xi32>, output_lbns = ["model.layer2.0.bn3-normalization-57/y_0", "model.layer2.0.bn3-normalization-57/mean_0", "model.layer2.0.bn3-normalization-57/inv_variance_0"], result_segment_sizes = dense<1> : vector<3xi32>, scope_symbol_id = 4611686018428391423 : i64, training = true} : (tensor<1x512x28x28xf32>, tensor<512xf32>, tensor<512xf32>, tensor<512xf32>, tensor<512xf32>) -> (tensor<1x512x28x28xf32>, tensor<512xf32>, tensor<512xf32>)
    %30 = "oneflow.add_n2"(%y_360, %y_351) {device_name = ["@0:0"], device_tag = "cpu", hierarchy = [1], op_name = "model.layer2.0-add_n-61", op_type_name = "add_n", output_lbns = ["model.layer2.0-add_n-61/out_0"], scope_symbol_id = 4611686018428497919 : i64} : (tensor<1x512x28x28xf32>, tensor<1x512x28x28xf32>) -> tensor<1x512x28x28xf32>
    %31 = "oneflow.relu"(%30) {device_name = ["@0:0"], device_tag = "cpu", hierarchy = [1], op_name = "model.layer2.0.relu-relu-62", output_lbns = ["model.layer2.0.relu-relu-62/y_0"], scope_symbol_id = 4611686018428293119 : i64} : (tensor<1x512x28x28xf32>) -> tensor<1x512x28x28xf32>
    %32 = "oneflow.conv2d"(%31, %output_90) {data_format = "channels_first", device_name = ["@0:0"], device_tag = "cpu", dilation_rate = [1 : si32, 1 : si32], filters = 128 : si32, groups = 1 : si32, hierarchy = [1], kernel_size = [1 : si32, 1 : si32], op_name = "model.layer2.1.conv1-conv2d-63", operand_segment_sizes = dense<[1, 1, 0, 0]> : vector<4xi32>, output_lbns = ["model.layer2.1.conv1-conv2d-63/out_0"], padding_before = [0 : si32, 0 : si32], scope_symbol_id = 4611686018428518399 : i64, strides = [1 : si32, 1 : si32]} : (tensor<1x512x28x28xf32>, tensor<128x512x1x1xf32>) -> tensor<1x128x28x28xf32>
    %y_363, %mean_364, %inv_variance_365 = "oneflow.normalization"(%32, %output_92, %output_93, %output_94, %output_95) {axis = 1 : si32, device_name = ["@0:0"], device_tag = "cpu", epsilon = 9.99999974E-6 : f32, hierarchy = [1], momentum = 0.899999976 : f32, op_name = "model.layer2.1.bn1-normalization-65", operand_segment_sizes = dense<[1, 1, 1, 1, 1, 0]> : vector<6xi32>, output_lbns = ["model.layer2.1.bn1-normalization-65/y_0", "model.layer2.1.bn1-normalization-65/mean_0", "model.layer2.1.bn1-normalization-65/inv_variance_0"], result_segment_sizes = dense<1> : vector<3xi32>, scope_symbol_id = 4611686018428534783 : i64, training = true} : (tensor<1x128x28x28xf32>, tensor<128xf32>, tensor<128xf32>, tensor<128xf32>, tensor<128xf32>) -> (tensor<1x128x28x28xf32>, tensor<128xf32>, tensor<128xf32>)
    %33 = "oneflow.relu"(%y_363) {device_name = ["@0:0"], device_tag = "cpu", hierarchy = [1], op_name = "model.layer2.1.relu-relu-66", output_lbns = ["model.layer2.1.relu-relu-66/y_0"], scope_symbol_id = 4611686018428575743 : i64} : (tensor<1x128x28x28xf32>) -> tensor<1x128x28x28xf32>
    %34 = "oneflow.conv2d"(%33, %output_96) {data_format = "channels_first", device_name = ["@0:0"], device_tag = "cpu", dilation_rate = [1 : si32, 1 : si32], filters = 128 : si32, groups = 1 : si32, hierarchy = [1], kernel_size = [3 : si32, 3 : si32], op_name = "model.layer2.1.conv2-conv2d-67", operand_segment_sizes = dense<[1, 1, 0, 0]> : vector<4xi32>, output_lbns = ["model.layer2.1.conv2-conv2d-67/out_0"], padding_before = [1 : si32, 1 : si32], scope_symbol_id = 4611686018428592127 : i64, strides = [1 : si32, 1 : si32]} : (tensor<1x128x28x28xf32>, tensor<128x128x3x3xf32>) -> tensor<1x128x28x28xf32>
    %y_366, %mean_367, %inv_variance_368 = "oneflow.normalization"(%34, %output_98, %output_99, %output_100, %output_101) {axis = 1 : si32, device_name = ["@0:0"], device_tag = "cpu", epsilon = 9.99999974E-6 : f32, hierarchy = [1], momentum = 0.899999976 : f32, op_name = "model.layer2.1.bn2-normalization-69", operand_segment_sizes = dense<[1, 1, 1, 1, 1, 0]> : vector<6xi32>, output_lbns = ["model.layer2.1.bn2-normalization-69/y_0", "model.layer2.1.bn2-normalization-69/mean_0", "model.layer2.1.bn2-normalization-69/inv_variance_0"], result_segment_sizes = dense<1> : vector<3xi32>, scope_symbol_id = 4611686018428608511 : i64, training = true} : (tensor<1x128x28x28xf32>, tensor<128xf32>, tensor<128xf32>, tensor<128xf32>, tensor<128xf32>) -> (tensor<1x128x28x28xf32>, tensor<128xf32>, tensor<128xf32>)
    %35 = "oneflow.relu"(%y_366) {device_name = ["@0:0"], device_tag = "cpu", hierarchy = [1], op_name = "model.layer2.1.relu-relu-70", output_lbns = ["model.layer2.1.relu-relu-70/y_0"], scope_symbol_id = 4611686018428575743 : i64} : (tensor<1x128x28x28xf32>) -> tensor<1x128x28x28xf32>
    %36 = "oneflow.conv2d"(%35, %output_102) {data_format = "channels_first", device_name = ["@0:0"], device_tag = "cpu", dilation_rate = [1 : si32, 1 : si32], filters = 512 : si32, groups = 1 : si32, hierarchy = [1], kernel_size = [1 : si32, 1 : si32], op_name = "model.layer2.1.conv3-conv2d-71", operand_segment_sizes = dense<[1, 1, 0, 0]> : vector<4xi32>, output_lbns = ["model.layer2.1.conv3-conv2d-71/out_0"], padding_before = [0 : si32, 0 : si32], scope_symbol_id = 4611686018428657663 : i64, strides = [1 : si32, 1 : si32]} : (tensor<1x128x28x28xf32>, tensor<512x128x1x1xf32>) -> tensor<1x512x28x28xf32>
    %y_369, %mean_370, %inv_variance_371 = "oneflow.normalization"(%36, %output_104, %output_105, %output_106, %output_107) {axis = 1 : si32, device_name = ["@0:0"], device_tag = "cpu", epsilon = 9.99999974E-6 : f32, hierarchy = [1], momentum = 0.899999976 : f32, op_name = "model.layer2.1.bn3-normalization-73", operand_segment_sizes = dense<[1, 1, 1, 1, 1, 0]> : vector<6xi32>, output_lbns = ["model.layer2.1.bn3-normalization-73/y_0", "model.layer2.1.bn3-normalization-73/mean_0", "model.layer2.1.bn3-normalization-73/inv_variance_0"], result_segment_sizes = dense<1> : vector<3xi32>, scope_symbol_id = 4611686018428674047 : i64, training = true} : (tensor<1x512x28x28xf32>, tensor<512xf32>, tensor<512xf32>, tensor<512xf32>, tensor<512xf32>) -> (tensor<1x512x28x28xf32>, tensor<512xf32>, tensor<512xf32>)
    %37 = "oneflow.add_n2"(%y_369, %31) {device_name = ["@0:0"], device_tag = "cpu", hierarchy = [1], op_name = "model.layer2.1-add_n-74", op_type_name = "add_n", output_lbns = ["model.layer2.1-add_n-74/out_0"], scope_symbol_id = 4611686018428710911 : i64} : (tensor<1x512x28x28xf32>, tensor<1x512x28x28xf32>) -> tensor<1x512x28x28xf32>
    %38 = "oneflow.relu"(%37) {device_name = ["@0:0"], device_tag = "cpu", hierarchy = [1], op_name = "model.layer2.1.relu-relu-75", output_lbns = ["model.layer2.1.relu-relu-75/y_0"], scope_symbol_id = 4611686018428575743 : i64} : (tensor<1x512x28x28xf32>) -> tensor<1x512x28x28xf32>
    %39 = "oneflow.conv2d"(%38, %output_108) {data_format = "channels_first", device_name = ["@0:0"], device_tag = "cpu", dilation_rate = [1 : si32, 1 : si32], filters = 128 : si32, groups = 1 : si32, hierarchy = [1], kernel_size = [1 : si32, 1 : si32], op_name = "model.layer2.2.conv1-conv2d-76", operand_segment_sizes = dense<[1, 1, 0, 0]> : vector<4xi32>, output_lbns = ["model.layer2.2.conv1-conv2d-76/out_0"], padding_before = [0 : si32, 0 : si32], scope_symbol_id = 4611686018428731391 : i64, strides = [1 : si32, 1 : si32]} : (tensor<1x512x28x28xf32>, tensor<128x512x1x1xf32>) -> tensor<1x128x28x28xf32>
    %y_372, %mean_373, %inv_variance_374 = "oneflow.normalization"(%39, %output_110, %output_111, %output_112, %output_113) {axis = 1 : si32, device_name = ["@0:0"], device_tag = "cpu", epsilon = 9.99999974E-6 : f32, hierarchy = [1], momentum = 0.899999976 : f32, op_name = "model.layer2.2.bn1-normalization-78", operand_segment_sizes = dense<[1, 1, 1, 1, 1, 0]> : vector<6xi32>, output_lbns = ["model.layer2.2.bn1-normalization-78/y_0", "model.layer2.2.bn1-normalization-78/mean_0", "model.layer2.2.bn1-normalization-78/inv_variance_0"], result_segment_sizes = dense<1> : vector<3xi32>, scope_symbol_id = 4611686018428747775 : i64, training = true} : (tensor<1x128x28x28xf32>, tensor<128xf32>, tensor<128xf32>, tensor<128xf32>, tensor<128xf32>) -> (tensor<1x128x28x28xf32>, tensor<128xf32>, tensor<128xf32>)
    %40 = "oneflow.relu"(%y_372) {device_name = ["@0:0"], device_tag = "cpu", hierarchy = [1], op_name = "model.layer2.2.relu-relu-79", output_lbns = ["model.layer2.2.relu-relu-79/y_0"], scope_symbol_id = 4611686018428788735 : i64} : (tensor<1x128x28x28xf32>) -> tensor<1x128x28x28xf32>
    %41 = "oneflow.conv2d"(%40, %output_114) {data_format = "channels_first", device_name = ["@0:0"], device_tag = "cpu", dilation_rate = [1 : si32, 1 : si32], filters = 128 : si32, groups = 1 : si32, hierarchy = [1], kernel_size = [3 : si32, 3 : si32], op_name = "model.layer2.2.conv2-conv2d-80", operand_segment_sizes = dense<[1, 1, 0, 0]> : vector<4xi32>, output_lbns = ["model.layer2.2.conv2-conv2d-80/out_0"], padding_before = [1 : si32, 1 : si32], scope_symbol_id = 4611686018428805119 : i64, strides = [1 : si32, 1 : si32]} : (tensor<1x128x28x28xf32>, tensor<128x128x3x3xf32>) -> tensor<1x128x28x28xf32>
    %y_375, %mean_376, %inv_variance_377 = "oneflow.normalization"(%41, %output_116, %output_117, %output_118, %output_119) {axis = 1 : si32, device_name = ["@0:0"], device_tag = "cpu", epsilon = 9.99999974E-6 : f32, hierarchy = [1], momentum = 0.899999976 : f32, op_name = "model.layer2.2.bn2-normalization-82", operand_segment_sizes = dense<[1, 1, 1, 1, 1, 0]> : vector<6xi32>, output_lbns = ["model.layer2.2.bn2-normalization-82/y_0", "model.layer2.2.bn2-normalization-82/mean_0", "model.layer2.2.bn2-normalization-82/inv_variance_0"], result_segment_sizes = dense<1> : vector<3xi32>, scope_symbol_id = 4611686018428821503 : i64, training = true} : (tensor<1x128x28x28xf32>, tensor<128xf32>, tensor<128xf32>, tensor<128xf32>, tensor<128xf32>) -> (tensor<1x128x28x28xf32>, tensor<128xf32>, tensor<128xf32>)
    %42 = "oneflow.relu"(%y_375) {device_name = ["@0:0"], device_tag = "cpu", hierarchy = [1], op_name = "model.layer2.2.relu-relu-83", output_lbns = ["model.layer2.2.relu-relu-83/y_0"], scope_symbol_id = 4611686018428788735 : i64} : (tensor<1x128x28x28xf32>) -> tensor<1x128x28x28xf32>
    %43 = "oneflow.conv2d"(%42, %output_120) {data_format = "channels_first", device_name = ["@0:0"], device_tag = "cpu", dilation_rate = [1 : si32, 1 : si32], filters = 512 : si32, groups = 1 : si32, hierarchy = [1], kernel_size = [1 : si32, 1 : si32], op_name = "model.layer2.2.conv3-conv2d-84", operand_segment_sizes = dense<[1, 1, 0, 0]> : vector<4xi32>, output_lbns = ["model.layer2.2.conv3-conv2d-84/out_0"], padding_before = [0 : si32, 0 : si32], scope_symbol_id = 4611686018428870655 : i64, strides = [1 : si32, 1 : si32]} : (tensor<1x128x28x28xf32>, tensor<512x128x1x1xf32>) -> tensor<1x512x28x28xf32>
    %y_378, %mean_379, %inv_variance_380 = "oneflow.normalization"(%43, %output_122, %output_123, %output_124, %output_125) {axis = 1 : si32, device_name = ["@0:0"], device_tag = "cpu", epsilon = 9.99999974E-6 : f32, hierarchy = [1], momentum = 0.899999976 : f32, op_name = "model.layer2.2.bn3-normalization-86", operand_segment_sizes = dense<[1, 1, 1, 1, 1, 0]> : vector<6xi32>, output_lbns = ["model.layer2.2.bn3-normalization-86/y_0", "model.layer2.2.bn3-normalization-86/mean_0", "model.layer2.2.bn3-normalization-86/inv_variance_0"], result_segment_sizes = dense<1> : vector<3xi32>, scope_symbol_id = 4611686018428887039 : i64, training = true} : (tensor<1x512x28x28xf32>, tensor<512xf32>, tensor<512xf32>, tensor<512xf32>, tensor<512xf32>) -> (tensor<1x512x28x28xf32>, tensor<512xf32>, tensor<512xf32>)
    %44 = "oneflow.add_n2"(%y_378, %38) {device_name = ["@0:0"], device_tag = "cpu", hierarchy = [1], op_name = "model.layer2.2-add_n-87", op_type_name = "add_n", output_lbns = ["model.layer2.2-add_n-87/out_0"], scope_symbol_id = 4611686018428923903 : i64} : (tensor<1x512x28x28xf32>, tensor<1x512x28x28xf32>) -> tensor<1x512x28x28xf32>
    %45 = "oneflow.relu"(%44) {device_name = ["@0:0"], device_tag = "cpu", hierarchy = [1], op_name = "model.layer2.2.relu-relu-88", output_lbns = ["model.layer2.2.relu-relu-88/y_0"], scope_symbol_id = 4611686018428788735 : i64} : (tensor<1x512x28x28xf32>) -> tensor<1x512x28x28xf32>
    %46 = "oneflow.conv2d"(%45, %output_126) {data_format = "channels_first", device_name = ["@0:0"], device_tag = "cpu", dilation_rate = [1 : si32, 1 : si32], filters = 128 : si32, groups = 1 : si32, hierarchy = [1], kernel_size = [1 : si32, 1 : si32], op_name = "model.layer2.3.conv1-conv2d-89", operand_segment_sizes = dense<[1, 1, 0, 0]> : vector<4xi32>, output_lbns = ["model.layer2.3.conv1-conv2d-89/out_0"], padding_before = [0 : si32, 0 : si32], scope_symbol_id = 4611686018428944383 : i64, strides = [1 : si32, 1 : si32]} : (tensor<1x512x28x28xf32>, tensor<128x512x1x1xf32>) -> tensor<1x128x28x28xf32>
    %y_381, %mean_382, %inv_variance_383 = "oneflow.normalization"(%46, %output_128, %output_129, %output_130, %output_131) {axis = 1 : si32, device_name = ["@0:0"], device_tag = "cpu", epsilon = 9.99999974E-6 : f32, hierarchy = [1], momentum = 0.899999976 : f32, op_name = "model.layer2.3.bn1-normalization-91", operand_segment_sizes = dense<[1, 1, 1, 1, 1, 0]> : vector<6xi32>, output_lbns = ["model.layer2.3.bn1-normalization-91/y_0", "model.layer2.3.bn1-normalization-91/mean_0", "model.layer2.3.bn1-normalization-91/inv_variance_0"], result_segment_sizes = dense<1> : vector<3xi32>, scope_symbol_id = 4611686018428960767 : i64, training = true} : (tensor<1x128x28x28xf32>, tensor<128xf32>, tensor<128xf32>, tensor<128xf32>, tensor<128xf32>) -> (tensor<1x128x28x28xf32>, tensor<128xf32>, tensor<128xf32>)
    %47 = "oneflow.relu"(%y_381) {device_name = ["@0:0"], device_tag = "cpu", hierarchy = [1], op_name = "model.layer2.3.relu-relu-92", output_lbns = ["model.layer2.3.relu-relu-92/y_0"], scope_symbol_id = 4611686018429001727 : i64} : (tensor<1x128x28x28xf32>) -> tensor<1x128x28x28xf32>
    %48 = "oneflow.conv2d"(%47, %output_132) {data_format = "channels_first", device_name = ["@0:0"], device_tag = "cpu", dilation_rate = [1 : si32, 1 : si32], filters = 128 : si32, groups = 1 : si32, hierarchy = [1], kernel_size = [3 : si32, 3 : si32], op_name = "model.layer2.3.conv2-conv2d-93", operand_segment_sizes = dense<[1, 1, 0, 0]> : vector<4xi32>, output_lbns = ["model.layer2.3.conv2-conv2d-93/out_0"], padding_before = [1 : si32, 1 : si32], scope_symbol_id = 4611686018429018111 : i64, strides = [1 : si32, 1 : si32]} : (tensor<1x128x28x28xf32>, tensor<128x128x3x3xf32>) -> tensor<1x128x28x28xf32>
    %y_384, %mean_385, %inv_variance_386 = "oneflow.normalization"(%48, %output_134, %output_135, %output_136, %output_137) {axis = 1 : si32, device_name = ["@0:0"], device_tag = "cpu", epsilon = 9.99999974E-6 : f32, hierarchy = [1], momentum = 0.899999976 : f32, op_name = "model.layer2.3.bn2-normalization-95", operand_segment_sizes = dense<[1, 1, 1, 1, 1, 0]> : vector<6xi32>, output_lbns = ["model.layer2.3.bn2-normalization-95/y_0", "model.layer2.3.bn2-normalization-95/mean_0", "model.layer2.3.bn2-normalization-95/inv_variance_0"], result_segment_sizes = dense<1> : vector<3xi32>, scope_symbol_id = 4611686018429034495 : i64, training = true} : (tensor<1x128x28x28xf32>, tensor<128xf32>, tensor<128xf32>, tensor<128xf32>, tensor<128xf32>) -> (tensor<1x128x28x28xf32>, tensor<128xf32>, tensor<128xf32>)
…
"model.layer3.0.bn2-normalization-108/inv_variance_0"], result_segment_sizes = dense<1> : vector<3xi32>, scope_symbol_id = 4611686018429251583 : i64, training = true} : (tensor<1x256x14x14xf32>, tensor<256xf32>, tensor<256xf32>, tensor<256xf32>, tensor<256xf32>) -> (tensor<1x256x14x14xf32>, tensor<256xf32>, tensor<256xf32>)
    %57 = "oneflow.relu"(%y_396) {device_name = ["@0:0"], device_tag = "cpu", hierarchy = [1], op_name = "model.layer3.0.relu-relu-109", output_lbns = ["model.layer3.0.relu-relu-109/y_0"], scope_symbol_id = 4611686018429218815 : i64} : (tensor<1x256x14x14xf32>) -> tensor<1x256x14x14xf32>
    %58 = "oneflow.conv2d"(%57, %output_156) {data_format = "channels_first", device_name = ["@0:0"], device_tag = "cpu", dilation_rate = [1 : si32, 1 : si32], filters = 1024 : si32, groups = 1 : si32, hierarchy = [1], kernel_size = [1 : si32, 1 : si32], op_name = "model.layer3.0.conv3-conv2d-110", operand_segment_sizes = dense<[1, 1, 0, 0]> : vector<4xi32>, output_lbns = ["model.layer3.0.conv3-conv2d-110/out_0"], padding_before = [0 : si32, 0 : si32], scope_symbol_id = 4611686018429300735 : i64, strides = [1 : si32, 1 : si32]} : (tensor<1x256x14x14xf32>, tensor<1024x256x1x1xf32>) -> tensor<1x1024x14x14xf32>
    %y_399, %mean_400, %inv_variance_401 = "oneflow.normalization"(%58, %output_158, %output_159, %output_160, %output_161) {axis = 1 : si32, device_name = ["@0:0"], device_tag = "cpu", epsilon = 9.99999974E-6 : f32, hierarchy = [1], momentum = 0.899999976 : f32, op_name = "model.layer3.0.bn3-normalization-112", operand_segment_sizes = dense<[1, 1, 1, 1, 1, 0]> : vector<6xi32>, output_lbns = ["model.layer3.0.bn3-normalization-112/y_0", "model.layer3.0.bn3-normalization-112/mean_0", "model.layer3.0.bn3-normalization-112/inv_variance_0"], result_segment_sizes = dense<1> : vector<3xi32>, scope_symbol_id = 4611686018429317119 : i64, training = true} : (tensor<1x1024x14x14xf32>, tensor<1024xf32>, tensor<1024xf32>, tensor<1024xf32>, tensor<1024xf32>) -> (tensor<1x1024x14x14xf32>, tensor<1024xf32>, tensor<1024xf32>)
    %59 = "oneflow.add_n2"(%y_399, %y_390) {device_name = ["@0:0"], device_tag = "cpu", hierarchy = [1], op_name = "model.layer3.0-add_n-116", op_type_name = "add_n", output_lbns = ["model.layer3.0-add_n-116/out_0"], scope_symbol_id = 4611686018429423615 : i64} : (tensor<1x1024x14x14xf32>, tensor<1x1024x14x14xf32>) -> tensor<1x1024x14x14xf32>
    %60 = "oneflow.relu"(%59) {device_name = ["@0:0"], device_tag = "cpu", hierarchy = [1], op_name = "model.layer3.0.relu-relu-117", output_lbns = ["model.layer3.0.relu-relu-117/y_0"], scope_symbol_id = 4611686018429218815 : i64} : (tensor<1x1024x14x14xf32>) -> tensor<1x1024x14x14xf32>
    %61 = "oneflow.conv2d"(%60, %output_168) {data_format = "channels_first", device_name = ["@0:0"], device_tag = "cpu", dilation_rate = [1 : si32, 1 : si32], filters = 256 : si32, groups = 1 : si32, hierarchy = [1], kernel_size = [1 : si32, 1 : si32], op_name = "model.layer3.1.conv1-conv2d-118", operand_segment_sizes = dense<[1, 1, 0, 0]> : vector<4xi32>, output_lbns = ["model.layer3.1.conv1-conv2d-118/out_0"], padding_before = [0 : si32, 0 : si32], scope_symbol_id = 4611686018429444095 : i64, strides = [1 : si32, 1 : si32]} : (tensor<1x1024x14x14xf32>, tensor<256x1024x1x1xf32>) -> tensor<1x256x14x14xf32>
    %y_402, %mean_403, %inv_variance_404 = "oneflow.normalization"(%61, %output_170, %output_171, %output_172, %output_173) {axis = 1 : si32, device_name = ["@0:0"], device_tag = "cpu", epsilon = 9.99999974E-6 : f32, hierarchy = [1], momentum = 0.899999976 : f32, op_name = "model.layer3.1.bn1-normalization-120", operand_segment_sizes = dense<[1, 1, 1, 1, 1, 0]> : vector<6xi32>, output_lbns = ["model.layer3.1.bn1-normalization-120/y_0", "model.layer3.1.bn1-normalization-120/mean_0", "model.layer3.1.bn1-normalization-120/inv_variance_0"], result_segment_sizes = dense<1> : vector<3xi32>, scope_symbol_id = 4611686018429460479 : i64, training = true} : (tensor<1x256x14x14xf32>, tensor<256xf32>, tensor<256xf32>, tensor<256xf32>, tensor<256xf32>) -> (tensor<1x256x14x14xf32>, tensor<256xf32>, tensor<256xf32>)
    %62 = "oneflow.relu"(%y_402) {device_name = ["@0:0"], device_tag = "cpu", hierarchy = [1], op_name = "model.layer3.1.relu-relu-121", output_lbns = ["model.layer3.1.relu-relu-121/y_0"], scope_symbol_id = 4611686018429501439 : i64} : (tensor<1x256x14x14xf32>) -> tensor<1x256x14x14xf32>
    %63 = "oneflow.conv2d"(%62, %output_174) {data_format = "channels_first", device_name = ["@0:0"], device_tag = "cpu", dilation_rate = [1 : si32, 1 : si32], filters = 256 : si32, groups = 1 : si32, hierarchy = [1], kernel_size = [3 : si32, 3 : si32], op_name = "model.layer3.1.conv2-conv2d-122", operand_segment_sizes = dense<[1, 1, 0, 0]> : vector<4xi32>, output_lbns = ["model.layer3.1.conv2-conv2d-122/out_0"], padding_before = [1 : si32, 1 : si32], scope_symbol_id = 4611686018429517823 : i64, strides = [1 : si32, 1 : si32]} : (tensor<1x256x14x14xf32>, tensor<256x256x3x3xf32>) -> tensor<1x256x14x14xf32>
    %y_405, %mean_406, %inv_variance_407 = "oneflow.normalization"(%63, %output_176, %output_177, %output_178, %output_179) {axis = 1 : si32, device_name = ["@0:0"], device_tag = "cpu", epsilon = 9.99999974E-6 : f32, hierarchy = [1], momentum = 0.899999976 : f32, op_name = "model.layer3.1.bn2-normalization-124", operand_segment_sizes = dense<[1, 1, 1, 1, 1, 0]> : vector<6xi32>, output_lbns = ["model.layer3.1.bn2-normalization-124/y_0", "model.layer3.1.bn2-normalization-124/mean_0", "model.layer3.1.bn2-normalization-124/inv_variance_0"], result_segment_sizes = dense<1> : vector<3xi32>, scope_symbol_id = 4611686018429534207 : i64, training = true} : (tensor<1x256x14x14xf32>, tensor<256xf32>, tensor<256xf32>, tensor<256xf32>, tensor<256xf32>) -> (tensor<1x256x14x14xf32>, tensor<256xf32>, tensor<256xf32>)
    %64 = "oneflow.relu"(%y_405) {device_name = ["@0:0"], device_tag = "cpu", hierarchy = [1], op_name = "model.layer3.1.relu-relu-125", output_lbns = ["model.layer3.1.relu-relu-125/y_0"], scope_symbol_id = 4611686018429501439 : i64} : (tensor<1x256x14x14xf32>) -> tensor<1x256x14x14xf32>
    %65 = "oneflow.conv2d"(%64, %output_180) {data_format = "channels_first", device_name = ["@0:0"], device_tag = "cpu", dilation_rate = [1 : si32, 1 : si32], filters = 1024 : si32, groups = 1 : si32, hierarchy = [1], kernel_size = [1 : si32, 1 : si32], op_name = "model.layer3.1.conv3-conv2d-126", operand_segment_sizes = dense<[1, 1, 0, 0]> : vector<4xi32>, output_lbns = ["model.layer3.1.conv3-conv2d-126/out_0"], padding_before = [0 : si32, 0 : si32], scope_symbol_id = 4611686018429583359 : i64, strides = [1 : si32, 1 : si32]} : (tensor<1x256x14x14xf32>, tensor<1024x256x1x1xf32>) -> tensor<1x1024x14x14xf32>
    %y_408, %mean_409, %inv_variance_410 = "oneflow.normalization"(%65, %output_182, %output_183, %output_184, %output_185) {axis = 1 : si32, device_name = ["@0:0"], device_tag = "cpu", epsilon = 9.99999974E-6 : f32, hierarchy = [1], momentum = 0.899999976 : f32, op_name = "model.layer3.1.bn3-normalization-128", operand_segment_sizes = dense<[1, 1, 1, 1, 1, 0]> : vector<6xi32>, output_lbns = ["model.layer3.1.bn3-normalization-128/y_0", "model.layer3.1.bn3-normalization-128/mean_0", "model.layer3.1.bn3-normalization-128/inv_variance_0"], result_segment_sizes = dense<1> : vector<3xi32>, scope_symbol_id = 4611686018429599743 : i64, training = true} : (tensor<1x1024x14x14xf32>, tensor<1024xf32>, tensor<1024xf32>, tensor<1024xf32>, tensor<1024xf32>) -> (tensor<1x1024x14x14xf32>, tensor<1024xf32>, tensor<1024xf32>)
    %66 = "oneflow.add_n2"(%y_408, %60) {device_name = ["@0:0"], device_tag = "cpu", hierarchy = [1], op_name = "model.layer3.1-add_n-129", op_type_name = "add_n", output_lbns = ["model.layer3.1-add_n-129/out_0"], scope_symbol_id = 4611686018429636607 : i64} : (tensor<1x1024x14x14xf32>, tensor<1x1024x14x14xf32>) -> tensor<1x1024x14x14xf32>
    %67 = "oneflow.relu"(%66) {device_name = ["@0:0"], device_tag = "cpu", hierarchy = [1], op_name = "model.layer3.1.relu-relu-130", output_lbns = ["model.layer3.1.relu-relu-130/y_0"], scope_symbol_id = 4611686018429501439 : i64} : (tensor<1x1024x14x14xf32>) -> tensor<1x1024x14x14xf32>
    %68 = "oneflow.conv2d"(%67, %output_186) {data_format = "channels_first", device_name = ["@0:0"], device_tag = "cpu", dilation_rate = [1 : si32, 1 : si32], filters = 256 : si32, groups = 1 : si32, hierarchy = [1], kernel_size = [1 : si32, 1 : si32], op_name = "model.layer3.2.conv1-conv2d-131", operand_segment_sizes = dense<[1, 1, 0, 0]> : vector<4xi32>, output_lbns = ["model.layer3.2.conv1-conv2d-131/out_0"], padding_before = [0 : si32, 0 : si32], scope_symbol_id = 4611686018429657087 : i64, strides = [1 : si32, 1 : si32]} : (tensor<1x1024x14x14xf32>, tensor<256x1024x1x1xf32>) -> tensor<1x256x14x14xf32>
    %y_411, %mean_412, %inv_variance_413 = "oneflow.normalization"(%68, %output_188, %output_189, %output_190, %output_191) {axis = 1 : si32, device_name = ["@0:0"], device_tag = "cpu", epsilon = 9.99999974E-6 : f32, hierarchy = [1], momentum = 0.899999976 : f32, op_name = "model.layer3.2.bn1-normalization-133", operand_segment_sizes = dense<[1, 1, 1, 1, 1, 0]> : vector<6xi32>, output_lbns = ["model.layer3.2.bn1-normalization-133/y_0", "model.layer3.2.bn1-normalization-133/mean_0", "model.layer3.2.bn1-normalization-133/inv_variance_0"], result_segment_sizes = dense<1> : vector<3xi32>, scope_symbol_id = 4611686018429673471 : i64, training = true} : (tensor<1x256x14x14xf32>, tensor<256xf32>, tensor<256xf32>, tensor<256xf32>, tensor<256xf32>) -> (tensor<1x256x14x14xf32>, tensor<256xf32>, tensor<256xf32>)
    %69 = "oneflow.relu"(%y_411) {device_name = ["@0:0"], device_tag = "cpu", hierarchy = [1], op_name = "model.layer3.2.relu-relu-134", output_lbns = ["model.layer3.2.relu-relu-134/y_0"], scope_symbol_id = 4611686018429714431 : i64} : (tensor<1x256x14x14xf32>) -> tensor<1x256x14x14xf32>
    %70 = "oneflow.conv2d"(%69, %output_192) {data_format = "channels_first", device_name = ["@0:0"], device_tag = "cpu", dilation_rate = [1 : si32, 1 : si32], filters = 256 : si32, groups = 1 : si32, hierarchy = [1], kernel_size = [3 : si32, 3 : si32], op_name = "model.layer3.2.conv2-conv2d-135", operand_segment_sizes = dense<[1, 1, 0, 0]> : vector<4xi32>, output_lbns = ["model.layer3.2.conv2-conv2d-135/out_0"], padding_before = [1 : si32, 1 : si32], scope_symbol_id = 4611686018429730815 : i64, strides = [1 : si32, 1 : si32]} : (tensor<1x256x14x14xf32>, tensor<256x256x3x3xf32>) -> tensor<1x256x14x14xf32>
    %y_414, %mean_415, %inv_variance_416 = "oneflow.normalization"(%70, %output_194, %output_195, %output_196, %output_197) {axis = 1 : si32, device_name = ["@0:0"], device_tag = "cpu", epsilon = 9.99999974E-6 : f32, hierarchy = [1], momentum = 0.899999976 : f32, op_name = "model.layer3.2.bn2-normalization-137", operand_segment_sizes = dense<[1, 1, 1, 1, 1, 0]> : vector<6xi32>, output_lbns = ["model.layer3.2.bn2-normalization-137/y_0", "model.layer3.2.bn2-normalization-137/mean_0", "model.layer3.2.bn2-normalization-137/inv_variance_0"], result_segment_sizes = dense<1> : vector<3xi32>, scope_symbol_id = 4611686018429747199 : i64, training = true} : (tensor<1x256x14x14xf32>, tensor<256xf32>, tensor<256xf32>, tensor<256xf32>, tensor<256xf32>) -> (tensor<1x256x14x14xf32>, tensor<256xf32>, tensor<256xf32>)
    %71 = "oneflow.relu"(%y_414) {device_name = ["@0:0"], device_tag = "cpu", hierarchy = [1], op_name = "model.layer3.2.relu-relu-138", output_lbns = ["model.layer3.2.relu-relu-138/y_0"], scope_symbol_id = 4611686018429714431 : i64} : (tensor<1x256x14x14xf32>) -> tensor<1x256x14x14xf32>
    %72 = "oneflow.conv2d"(%71, %output_198) {data_format = "channels_first", device_name = ["@0:0"], device_tag = "cpu", dilation_rate = [1 : si32, 1 : si32], filters = 1024 : si32, groups = 1 : si32, hierarchy = [1], kernel_size = [1 : si32, 1 : si32], op_name = "model.layer3.2.conv3-conv2d-139", operand_segment_sizes = dense<[1, 1, 0, 0]> : vector<4xi32>, output_lbns = ["model.layer3.2.conv3-conv2d-139/out_0"], padding_before = [0 : si32, 0 : si32], scope_symbol_id = 4611686018429796351 : i64, strides = [1 : si32, 1 : si32]} : (tensor<1x256x14x14xf32>, tensor<1024x256x1x1xf32>) -> tensor<1x1024x14x14xf32>
    %y_417, %mean_418, %inv_variance_419 = "oneflow.normalization"(%72, %output_200, %output_201, %output_202, %output_203) {axis = 1 : si32, device_name = ["@0:0"], device_tag = "cpu", epsilon = 9.99999974E-6 : f32, hierarchy = [1], momentum = 0.899999976 : f32, op_name = "model.layer3.2.bn3-normalization-141", operand_segment_sizes = dense<[1, 1, 1, 1, 1, 0]> : vector<6xi32>, output_lbns = ["model.layer3.2.bn3-normalization-141/y_0", "model.layer3.2.bn3-normalization-141/mean_0", "model.layer3.2.bn3-normalization-141/inv_variance_0"], result_segment_sizes = dense<1> : vector<3xi32>, scope_symbol_id = 4611686018429812735 : i64, training = true} : (tensor<1x1024x14x14xf32>, tensor<1024xf32>, tensor<1024xf32>, tensor<1024xf32>, tensor<1024xf32>) -> (tensor<1x1024x14x14xf32>, tensor<1024xf32>, tensor<1024xf32>)
    %73 = "oneflow.add_n2"(%y_417, %67) {device_name = ["@0:0"], device_tag = "cpu", hierarchy = [1], op_name = "model.layer3.2-add_n-142", op_type_name = "add_n", output_lbns = ["model.layer3.2-add_n-142/out_0"], scope_symbol_id = 4611686018429849599 : i64} : (tensor<1x1024x14x14xf32>, tensor<1x1024x14x14xf32>) -> tensor<1x1024x14x14xf32>
    %74 = "oneflow.relu"(%73) {device_name = ["@0:0"], device_tag = "cpu", hierarchy = [1], op_name = "model.layer3.2.relu-relu-143", output_lbns = ["model.layer3.2.relu-relu-143/y_0"], scope_symbol_id = 4611686018429714431 : i64} : (tensor<1x1024x14x14xf32>) -> tensor<1x1024x14x14xf32>
    %75 = "oneflow.conv2d"(%74, %output_204) {data_format = "channels_first", device_name = ["@0:0"], device_tag = "cpu", dilation_rate = [1 : si32, 1 : si32], filters = 256 : si32, groups = 1 : si32, hierarchy = [1], kernel_size = [1 : si32, 1 : si32], op_name = "model.layer3.3.conv1-conv2d-144", operand_segment_sizes = dense<[1, 1, 0, 0]> : vector<4xi32>, output_lbns = ["model.layer3.3.conv1-conv2d-144/out_0"], padding_before = [0 : si32, 0 : si32], scope_symbol_id = 4611686018429870079 : i64, strides = [1 : si32, 1 : si32]} : (tensor<1x1024x14x14xf32>, tensor<256x1024x1x1xf32>) -> tensor<1x256x14x14xf32>
    %y_420, %mean_421, %inv_variance_422 = "oneflow.normalization"(%75, %output_206, %output_207, %output_208, %output_209) {axis = 1 : si32, device_name = ["@0:0"], device_tag = "cpu", epsilon = 9.99999974E-6 : f32, hierarchy = [1], momentum = 0.899999976 : f32, op_name = "model.layer3.3.bn1-normalization-146", operand_segment_sizes = dense<[1, 1, 1, 1, 1, 0]> : vector<6xi32>, output_lbns = ["model.layer3.3.bn1-normalization-146/y_0", "model.layer3.3.bn1-normalization-146/mean_0", "model.layer3.3.bn1-normalization-146/inv_variance_0"], result_segment_sizes = dense<1> : vector<3xi32>, scope_symbol_id = 4611686018429886463 : i64, training = true} : (tensor<1x256x14x14xf32>, tensor<256xf32>, tensor<256xf32>, tensor<256xf32>, tensor<256xf32>) -> (tensor<1x256x14x14xf32>, tensor<256xf32>, tensor<256xf32>)
    %76 = "oneflow.relu"(%y_420) {device_name = ["@0:0"], device_tag = "cpu", hierarchy = [1], op_name = "model.layer3.3.relu-relu-147", output_lbns = ["model.layer3.3.relu-relu-147/y_0"], scope_symbol_id = 4611686018429927423 : i64} : (tensor<1x256x14x14xf32>) -> tensor<1x256x14x14xf32>
    %77 = "oneflow.conv2d"(%76, %output_210) {data_format = "channels_first", device_name = ["@0:0"], device_tag = "cpu", dilation_rate = [1 : si32, 1 : si32], filters = 256 : si32, groups = 1 : si32, hierarchy = [1], kernel_size = [3 : si32, 3 : si32], op_name = "model.layer3.3.conv2-conv2d-148", operand_segment_sizes = dense<[1, 1, 0, 0]> : vector<4xi32>, output_lbns = ["model.layer3.3.conv2-conv2d-148/out_0"], padding_before = [1 : si32, 1 : si32], scope_symbol_id = 4611686018429943807 : i64, strides = [1 : si32, 1 : si32]} : (tensor<1x256x14x14xf32>, tensor<256x256x3x3xf32>) -> tensor<1x256x14x14xf32>
    %y_423, %mean_424, %inv_variance_425 = "oneflow.normalization"(%77, %output_212, %output_213, %output_214, %output_215) {axis = 1 : si32, device_name = ["@0:0"], device_tag = "cpu", epsilon = 9.99999974E-6 : f32, hierarchy = [1], momentum = 0.899999976 : f32, op_name = "model.layer3.3.bn2-normalization-150", operand_segment_sizes = dense<[1, 1, 1, 1, 1, 0]> : vector<6xi32>, output_lbns = ["model.layer3.3.bn2-normalization-150/y_0", "model.layer3.3.bn2-normalization-150/mean_0", "model.layer3.3.bn2-normalization-150/inv_variance_0"], result_segment_sizes = dense<1> : vector<3xi32>, scope_symbol_id = 4611686018429960191 : i64, training = true} : (tensor<1x256x14x14xf32>, tensor<256xf32>, tensor<256xf32>, tensor<256xf32>, tensor<256xf32>) -> (tensor<1x256x14x14xf32>, tensor<256xf32>, tensor<256xf32>)
    %78 = "oneflow.relu"(%y_423) {device_name = ["@0:0"], device_tag = "cpu", hierarchy = [1], op_name = "model.layer3.3.relu-relu-151", output_lbns = ["model.layer3.3.relu-relu-151/y_0"], scope_symbol_id = 4611686018429927423 : i64} : (tensor<1x256x14x14xf32>) -> tensor<1x256x14x14xf32>
    %79 = "oneflow.conv2d"(%78, %output_216) {data_format = "channels_first", device_name = ["@0:0"], device_tag = "cpu", dilation_rate = [1 : si32, 1 : si32], filters = 1024 : si32, groups = 1 : si32, hierarchy = [1], kernel_size = [1 : si32, 1 : si32], op_name = "model.layer3.3.conv3-conv2d-152", operand_segment_sizes = dense<[1, 1, 0, 0]> : vector<4xi32>, output_lbns = ["model.layer3.3.conv3-conv2d-152/out_0"], padding_before = [0 : si32, 0 : si32], scope_symbol_id = 4611686018430009343 : i64, strides = [1 : si32, 1 : si32]} : (tensor<1x256x14x14xf32>, tensor<1024x256x1x1xf32>) -> tensor<1x1024x14x14xf32>
    %y_426, %mean_427, %inv_variance_428 = "oneflow.normalization"(%79, %output_218, %output_219, %output_220, %output_221) {axis = 1 : si32, device_name = ["@0:0"], device_tag = "cpu", epsilon = 9.99999974E-6 : f32, hierarchy = [1], momentum = 0.899999976 : f32, op_name = "model.layer3.3.bn3-normalization-154", operand_segment_sizes = dense<[1, 1, 1, 1, 1, 0]> : vector<6xi32>, output_lbns = ["model.layer3.3.bn3-normalization-154/y_0", "model.layer3.3.bn3-normalization-154/mean_0", "model.layer3.3.bn3-normalization-154/inv_variance_0"], result_segment_sizes = dense<1> : vector<3xi32>, scope_symbol_id = 4611686018430025727 : i64, training = true} : (tensor<1x1024x14x14xf32>, tensor<1024xf32>, tensor<1024xf32>, tensor<1024xf32>, tensor<1024xf32>) -> (tensor<1x1024x14x14xf32>, tensor<1024xf32>, tensor<1024xf32>)
    %80 = "oneflow.add_n2"(%y_426, %74) {device_name = ["@0:0"], device_tag = "cpu", hierarchy = [1], op_name = "model.layer3.3-add_n-155", op_type_name = "add_n", output_lbns = ["model.layer3.3-add_n-155/out_0"], scope_symbol_id = 4611686018430062591 : i64} : (tensor<1x1024x14x14xf32>, tensor<1x1024x14x14xf32>) -> tensor<1x1024x14x14xf32>
    %81 = "oneflow.relu"(%80) {device_name = ["@0:0"], device_tag = "cpu", hierarchy = [1], op_name = "model.layer3.3.relu-relu-156", output_lbns = ["model.layer3.3.relu-relu-156/y_0"], scope_symbol_id = 4611686018429927423 : i64} : (tensor<1x1024x14x14xf32>) -> tensor<1x1024x14x14xf32>
    %82 = "oneflow.conv2d"(%81, %output_222) {data_format = "channels_first", device_name = ["@0:0"], device_tag = "cpu", dilation_rate = [1 : si32, 1 : si32], filters = 256 : si32, groups = 1 : si32, hierarchy = [1], kernel_size = [1 : si32, 1 : si32], op_name = "model.layer3.4.conv1-conv2d-157", operand_segment_sizes = dense<[1, 1, 0, 0]> : vector<4xi32>, output_lbns = ["model.layer3.4.conv1-conv2d-157/out_0"], padding_before = [0 : si32, 0 : si32], scope_symbol_id = 4611686018430083071 : i64, strides = [1 : si32, 1 : si32]} : (tensor<1x1024x14x14xf32>, tensor<256x1024x1x1xf32>) -> tensor<1x256x14x14xf32>
    %y_429, %mean_430, %inv_variance_431 = "oneflow.normalization"(%82, %output_224, %output_225, %output_226, %output_227) {axis = 1 : si32, device_name = ["@0:0"], device_tag = "cpu", epsilon = 9.99999974E-6 : f32, hierarchy = [1], momentum = 0.899999976 : f32, op_name = "model.layer3.4.bn1-normalization-159", operand_segment_sizes = dense<[1, 1, 1, 1, 1, 0]> : vector<6xi32>, output_lbns = ["model.layer3.4.bn1-normalization-159/y_0", "model.layer3.4.bn1-normalization-159/mean_0", "model.layer3.4.bn1-normalization-159/inv_variance_0"], result_segment_sizes = dense<1> : vector<3xi32>, scope_symbol_id = 4611686018430099455 : i64, training = true} : (tensor<1x256x14x14xf32>, tensor<256xf32>, tensor<256xf32>, tensor<256xf32>, tensor<256xf32>) -> (tensor<1x256x14x14xf32>, tensor<256xf32>, tensor<256xf32>)
    %83 = "oneflow.relu"(%y_429) {device_name = ["@0:0"], device_tag = "cpu", hierarchy = [1], op_name = "model.layer3.4.relu-relu-160", output_lbns = ["model.layer3.4.relu-relu-160/y_0"], scope_symbol_id = 4611686018430140415 : i64} : (tensor<1x256x14x14xf32>) -> tensor<1x256x14x14xf32>
    %84 = "oneflow.conv2d"(%83, %output_228) {data_format = "channels_first", device_name = ["@0:0"], device_tag = "cpu", dilation_rate = [1 : si32, 1 : si32], filters = 256 : si32, groups = 1 : si32, hierarchy = [1], kernel_size = [3 : si32, 3 : si32], op_name = "model.layer3.4.conv2-conv2d-161", operand_segment_sizes = dense<[1, 1, 0, 0]> : vector<4xi32>, output_lbns = ["model.layer3.4.conv2-conv2d-161/out_0"], padding_before = [1 : si32, 1 : si32], scope_symbol_id = 4611686018430156799 : i64, strides = [1 : si32, 1 : si32]} : (tensor<1x256x14x14xf32>, tensor<256x256x3x3xf32>) -> tensor<1x256x14x14xf32>
    %y_432, %mean_433, %inv_variance_434 = "oneflow.normalization"(%84, %output_230, %output_231, %output_232, %output_233) {axis = 1 : si32, device_name = ["@0:0"], device_tag = "cpu", epsilon = 9.99999974E-6 : f32, hierarchy = [1], momentum = 0.899999976 : f32, op_name = "model.layer3.4.bn2-normalization-163", operand_segment_sizes = dense<[1, 1, 1, 1, 1, 0]> : vector<6xi32>, output_lbns = ["model.layer3.4.bn2-normalization-163/y_0", "model.layer3.4.bn2-normalization-163/mean_0", "model.layer3.4.bn2-normalization-163/inv_variance_0"], result_segment_sizes = dense<1> : vector<3xi32>, scope_symbol_id = 4611686018430173183 : i64, training = true} : (tensor<1x256x14x14xf32>, tensor<256xf32>, tensor<256xf32>, tensor<256xf32>, tensor<256xf32>) -> (tensor<1x256x14x14xf32>, tensor<256xf32>, tensor<256xf32>)
    %85 = "oneflow.relu"(%y_432) {device_name = ["@0:0"], device_tag = "cpu", hierarchy = [1], op_name = "model.layer3.4.relu-relu-164", output_lbns = ["model.layer3.4.relu-relu-164/y_0"], scope_symbol_id = 4611686018430140415 : i64} : (tensor<1x256x14x14xf32>) -> tensor<1x256x14x14xf32>
    %86 = "oneflow.conv2d"(%85, %output_234) {data_format = "channels_first", device_name = ["@0:0"], device_tag = "cpu", dilation_rate = [1 : si32, 1 : si32], filters = 1024 : si32, groups = 1 : si32, hierarchy = [1], kernel_size = [1 : si32, 1 : si32], op_name = "model.layer3.4.conv3-conv2d-165", operand_segment_sizes = dense<[1, 1, 0, 0]> : vector<4xi32>, output_lbns = ["model.layer3.4.conv3-conv2d-165/out_0"], padding_before = [0 : si32, 0 : si32], scope_symbol_id = 4611686018430222335 : i64, strides = [1 : si32, 1 : si32]} : (tensor<1x256x14x14xf32>, tensor<1024x256x1x1xf32>) -> tensor<1x1024x14x14xf32>
    %y_435, %mean_436, %inv_variance_437 = "oneflow.normalization"(%86, %output_236, %output_237, %output_238, %output_239) {axis = 1 : si32, device_name = ["@0:0"], device_tag = "cpu", epsilon = 9.99999974E-6 : f32, hierarchy = [1], momentum = 0.899999976 : f32, op_name = "model.layer3.4.bn3-normalization-167", operand_segment_sizes = dense<[1, 1, 1, 1, 1, 0]> : vector<6xi32>, output_lbns = ["model.layer3.4.bn3-normalization-167/y_0", "model.layer3.4.bn3-normalization-167/mean_0", "model.layer3.4.bn3-normalization-167/inv_variance_0"], result_segment_sizes = dense<1> : vector<3xi32>, scope_symbol_id = 4611686018430238719 : i64, training = true} : (tensor<1x1024x14x14xf32>, tensor<1024xf32>, tensor<1024xf32>, tensor<1024xf32>, tensor<1024xf32>) -> (tensor<1x1024x14x14xf32>, tensor<1024xf32>, tensor<1024xf32>)
    %87 = "oneflow.add_n2"(%y_435, %81) {device_name = ["@0:0"], device_tag = "cpu", hierarchy = [1], op_name = "model.layer3.4-add_n-168", op_type_name = "add_n", output_lbns = ["model.layer3.4-add_n-168/out_0"], scope_symbol_id = 4611686018430275583 : i64} : (tensor<1x1024x14x14xf32>, tensor<1x1024x14x14xf32>) -> tensor<1x1024x14x14xf32>
    %88 = "oneflow.relu"(%87) {device_name = ["@0:0"], device_tag = "cpu", hierarchy = [1], op_name = "model.layer3.4.relu-relu-169", output_lbns = ["model.layer3.4.relu-relu-169/y_0"], scope_symbol_id = 4611686018430140415 : i64} : (tensor<1x1024x14x14xf32>) -> tensor<1x1024x14x14xf32>
    %89 = "oneflow.conv2d"(%88, %output_240) {data_format = "channels_first", device_name = ["@0:0"], device_tag = "cpu", dilation_rate = [1 : si32, 1 : si32], filters = 256 : si32, groups = 1 : si32, hierarchy = [1], kernel_size = [1 : si32, 1 : si32], op_name = "model.layer3.5.conv1-conv2d-170", operand_segment_sizes = dense<[1, 1, 0, 0]> : vector<4xi32>, output_lbns = ["model.layer3.5.conv1-conv2d-170/out_0"], padding_before = [0 : si32, 0 : si32], scope_symbol_id = 4611686018430296063 : i64, strides = [1 : si32, 1 : si32]} : (tensor<1x1024x14x14xf32>, tensor<256x1024x1x1xf32>) -> tensor<1x256x14x14xf32>
    %y_438, %mean_439, %inv_variance_440 = "oneflow.normalization"(%89, %output_242, %output_243, %output_244, %output_245) {axis = 1 : si32, device_name = ["@0:0"], device_tag = "cpu", epsilon = 9.99999974E-6 : f32, hierarchy = [1], momentum = 0.899999976 : f32, op_name = "model.layer3.5.bn1-normalization-172", operand_segment_sizes = dense<[1, 1, 1, 1, 1, 0]> : vector<6xi32>, output_lbns = ["model.layer3.5.bn1-normalization-172/y_0", "model.layer3.5.bn1-normalization-172/mean_0", "model.layer3.5.bn1-normalization-172/inv_variance_0"], result_segment_sizes = dense<1> : vector<3xi32>, scope_symbol_id = 4611686018430312447 : i64, training = true} : (tensor<1x256x14x14xf32>, tensor<256xf32>, tensor<256xf32>, tensor<256xf32>, tensor<256xf32>) -> (tensor<1x256x14x14xf32>, tensor<256xf32>, tensor<256xf32>)
    %90 = "oneflow.relu"(%y_438) {device_name = ["@0:0"], device_tag = "cpu", hierarchy = [1], op_name = "model.layer3.5.relu-relu-173", output_lbns = ["model.layer3.5.relu-relu-173/y_0"], scope_symbol_id = 4611686018430353407 : i64} : (tensor<1x256x14x14xf32>) -> tensor<1x256x14x14xf32>
    %91 = "oneflow.conv2d"(%90, %output_246) {data_format = "channels_first", device_name = ["@0:0"], device_tag = "cpu", dilation_rate = [1 : si32, 1 : si32], filters = 256 : si32, groups = 1 : si32, hierarchy = [1], kernel_size = [3 : si32, 3 : si32], op_name = "model.layer3.5.conv2-conv2d-174", operand_segment_sizes = dense<[1, 1, 0, 0]> : vector<4xi32>, output_lbns = ["model.layer3.5.conv2-conv2d-174/out_0"], padding_before = [1 : si32, 1 : si32], scope_symbol_id = 4611686018430369791 : i64, strides = [1 : si32, 1 : si32]} : (tensor<1x256x14x14xf32>, tensor<256x256x3x3xf32>) -> tensor<1x256x14x14xf32>
    %y_441, %mean_442, %inv_variance_443 = "oneflow.normalization"(%91, %output_248, %output_249, %output_250, %output_251) {axis = 1 : si32, device_name = ["@0:0"], device_tag = "cpu", epsilon = 9.99999974E-6 : f32, hierarchy = [1], momentum = 0.899999976 : f32, op_name = "model.layer3.5.bn2-normalization-176", operand_segment_sizes = dense<[1, 1, 1, 1, 1, 0]> : vector<6xi32>, output_lbns = ["model.layer3.5.bn2-normalization-176/y_0", "model.layer3.5.bn2-normalization-176/mean_0", "model.layer3.5.bn2-normalization-176/inv_variance_0"], result_segment_sizes = dense<1> : vector<3xi32>, scope_symbol_id = 4611686018430386175 : i64, training = true} : (tensor<1x256x14x14xf32>, tensor<256xf32>, tensor<256xf32>, tensor<256xf32>, tensor<256xf32>) -> (tensor<1x256x14x14xf32>, tensor<256xf32>, tensor<256xf32>)
    %92 = "oneflow.relu"(%y_441) {device_name = ["@0:0"], device_tag = "cpu", hierarchy = [1], op_name = "model.layer3.5.relu-relu-177", output_lbns = ["model.layer3.5.relu-relu-177/y_0"], scope_symbol_id = 4611686018430353407 : i64} : (tensor<1x256x14x14xf32>) -> tensor<1x256x14x14xf32>
    %93 = "oneflow.conv2d"(%92, %output_252) {data_format = "channels_first", device_name = ["@0:0"], device_tag = "cpu", dilation_rate = [1 : si32, 1 : si32], filters = 1024 : si32, groups = 1 : si32, hierarchy = [1], kernel_size = [1 : si32, 1 : si32], op_name = "model.layer3.5.conv3-conv2d-178", operand_segment_sizes = dense<[1, 1, 0, 0]> : vector<4xi32>, output_lbns = ["model.layer3.5.conv3-conv2d-178/out_0"], padding_before = [0 : si32, 0 : si32], scope_symbol_id = 4611686018430435327 : i64, strides = [1 : si32, 1 : si32]} : (tensor<1x256x14x14xf32>, tensor<1024x256x1x1xf32>) -> tensor<1x1024x14x14xf32>
    %y_444, %mean_445, %inv_variance_446 = "oneflow.normalization"(%93, %output_254, %output_255, %output_256, %output_257) {axis = 1 : si32, device_name = ["@0:0"], device_tag = "cpu", epsilon = 9.99999974E-6 : f32, hierarchy = [1], momentum = 0.899999976 : f32, op_name = "model.layer3.5.bn3-normalization-180", operand_segment_sizes = dense<[1, 1, 1, 1, 1, 0]> : vector<6xi32>, output_lbns = ["model.layer3.5.bn3-normalization-180/y_0", "model.layer3.5.bn3-normalization-180/mean_0", "model.layer3.5.bn3-normalization-180/inv_variance_0"], result_segment_sizes = dense<1> : vector<3xi32>, scope_symbol_id = 4611686018430451711 : i64, training = true} : (tensor<1x1024x14x14xf32>, tensor<1024xf32>, tensor<1024xf32>, tensor<1024xf32>, tensor<1024xf32>) -> (tensor<1x1024x14x14xf32>, tensor<1024xf32>, tensor<1024xf32>)
    %94 = "oneflow.add_n2"(%y_444, %88) {device_name = ["@0:0"], device_tag = "cpu", hierarchy = [1], op_name = "model.layer3.5-add_n-181", op_type_name = "add_n", output_lbns = ["model.layer3.5-add_n-181/out_0"], scope_symbol_id = 4611686018430488575 : i64} : (tensor<1x1024x14x14xf32>, tensor<1x1024x14x14xf32>) -> tensor<1x1024x14x14xf32>
    %95 = "oneflow.relu"(%94) {device_name = ["@0:0"], device_tag = "cpu", hierarchy = [1], op_name = "model.layer3.5.relu-relu-182", output_lbns = ["model.layer3.5.relu-relu-182/y_0"], scope_symbol_id = 4611686018430353407 : i64} : (tensor<1x1024x14x14xf32>) -> tensor<1x1024x14x14xf32>
    %96 = "oneflow.conv2d"(%95, %output_276) {data_format = "channels_first", device_name = ["@0:0"], device_tag = "cpu", dilation_rate = [1 : si32, 1 : si32], filters = 2048 : si32, groups = 1 : si32, hierarchy = [1], kernel_size = [1 : si32, 1 : si32], op_name = "model.layer4.0.downsample.0-conv2d-194", operand_segment_sizes = dense<[1, 1, 0, 0]> : vector<4xi32>, output_lbns = ["model.layer4.0.downsample.0-conv2d-194/out_0"], padding_before = [0 : si32, 0 : si32], scope_symbol_id = 4611686018430722047 : i64, strides = [2 : si32, 2 : si32]} : (tensor<1x1024x14x14xf32>, tensor<2048x1024x1x1xf32>) -> tensor<1x2048x7x7xf32>
    %97 = "oneflow.conv2d"(%95, %output_258) {data_format = "channels_first", device_name = ["@0:0"], device_tag = "cpu", dilation_rate = [1 : si32, 1 : si32], filters = 512 : si32, groups = 1 : si32, hierarchy = [1], kernel_size = [1 : si32, 1 : si32], op_name = "model.layer4.0.conv1-conv2d-183", operand_segment_sizes = dense<[1, 1, 0, 0]> : vector<4xi32>, output_lbns = ["model.layer4.0.conv1-conv2d-183/out_0"], padding_before = [0 : si32, 0 : si32], scope_symbol_id = 4611686018430513151 : i64, strides = [1 : si32, 1 : si32]} : (tensor<1x1024x14x14xf32>, tensor<512x1024x1x1xf32>) -> tensor<1x512x14x14xf32>
    %y_447, %mean_448, %inv_variance_449 = "oneflow.normalization"(%96, %output_278, %output_279, %output_280, %output_281) {axis = 1 : si32, device_name = ["@0:0"], device_tag = "cpu", epsilon = 9.99999974E-6 : f32, hierarchy = [1], momentum = 0.899999976 : f32, op_name = "model.layer4.0.downsample.1-normalization-196", operand_segment_sizes = dense<[1, 1, 1, 1, 1, 0]> : vector<6xi32>, output_lbns = ["model.layer4.0.downsample.1-normalization-196/y_0", "model.layer4.0.downsample.1-normalization-196/mean_0", "model.layer4.0.downsample.1-normalization-196/inv_variance_0"], result_segment_sizes = dense<1> : vector<3xi32>, scope_symbol_id = 4611686018430738431 : i64, training = true} : (tensor<1x2048x7x7xf32>, tensor<2048xf32>, tensor<2048xf32>, tensor<2048xf32>, tensor<2048xf32>) -> (tensor<1x2048x7x7xf32>, tensor<2048xf32>, tensor<2048xf32>)
    %y_450, %mean_451, %inv_variance_452 = "oneflow.normalization"(%97, %output_260, %output_261, %output_262, %output_263) {axis = 1 : si32, device_name = ["@0:0"], device_tag = "cpu", epsilon = 9.99999974E-6 : f32, hierarchy = [1], momentum = 0.899999976 : f32, op_name = "model.layer4.0.bn1-normalization-185", operand_segment_sizes = dense<[1, 1, 1, 1, 1, 0]> : vector<6xi32>, output_lbns = ["model.layer4.0.bn1-normalization-185/y_0", "model.layer4.0.bn1-normalization-185/mean_0", "model.layer4.0.bn1-normalization-185/inv_variance_0"], result_segment_sizes = dense<1> : vector<3xi32>, scope_symbol_id = 4611686018430529535 : i64, training = true} : (tensor<1x512x14x14xf32>, tensor<512xf32>, tensor<512xf32>, tensor<512xf32>, tensor<512xf32>) -> (tensor<1x512x14x14xf32>, tensor<512xf32>, tensor<512xf32>)
    %98 = "oneflow.relu"(%y_450) {device_name = ["@0:0"], device_tag = "cpu", hierarchy = [1], op_name = "model.layer4.0.relu-relu-186", output_lbns = ["model.layer4.0.relu-relu-186/y_0"], scope_symbol_id = 4611686018430570495 : i64} : (tensor<1x512x14x14xf32>) -> tensor<1x512x14x14xf32>
    %99 = "oneflow.conv2d"(%98, %output_264) {data_format = "channels_first", device_name = ["@0:0"], device_tag = "cpu", dilation_rate = [1 : si32, 1 : si32], filters = 512 : si32, groups = 1 : si32, hierarchy = [1], kernel_size = [3 : si32, 3 : si32], op_name = "model.layer4.0.conv2-conv2d-187", operand_segment_sizes = dense<[1, 1, 0, 0]> : vector<4xi32>, output_lbns = ["model.layer4.0.conv2-conv2d-187/out_0"], padding_before = [1 : si32, 1 : si32], scope_symbol_id = 4611686018430586879 : i64, strides = [2 : si32, 2 : si32]} : (tensor<1x512x14x14xf32>, tensor<512x512x3x3xf32>) -> tensor<1x512x7x7xf32>
    %y_453, %mean_454, %inv_variance_455 = "oneflow.normalization"(%99, %output_266, %output_267, %output_268, %output_269) {axis = 1 : si32, device_name = ["@0:0"], device_tag = "cpu", epsilon = 9.99999974E-6 : f32, hierarchy = [1], momentum = 0.899999976 : f32, op_name = "model.layer4.0.bn2-normalization-189", operand_segment_sizes = dense<[1, 1, 1, 1, 1, 0]> : vector<6xi32>, output_lbns = ["model.layer4.0.bn2-normalization-189/y_0", "model.layer4.0.bn2-normalization-189/mean_0", "model.layer4.0.bn2-normalization-189/inv_variance_0"], result_segment_sizes = dense<1> : vector<3xi32>, scope_symbol_id = 4611686018430603263 : i64, training = true} : (tensor<1x512x7x7xf32>, tensor<512xf32>, tensor<512xf32>, tensor<512xf32>, tensor<512xf32>) -> (tensor<1x512x7x7xf32>, tensor<512xf32>, tensor<512xf32>)
    %100 = "oneflow.relu"(%y_453) {device_name = ["@0:0"], device_tag = "cpu", hierarchy = [1], op_name = "model.layer4.0.relu-relu-190", output_lbns = ["model.layer4.0.relu-relu-190/y_0"], scope_symbol_id = 4611686018430570495 : i64} : (tensor<1x512x7x7xf32>) -> tensor<1x512x7x7xf32>
    %101 = "oneflow.conv2d"(%100, %output_270) {data_format = "channels_first", device_name = ["@0:0"], device_tag = "cpu", dilation_rate = [1 : si32, 1 : si32], filters = 2048 : si32, groups = 1 : si32, hierarchy = [1], kernel_size = [1 : si32, 1 : si32], op_name = "model.layer4.0.conv3-conv2d-191", operand_segment_sizes = dense<[1, 1, 0, 0]> : vector<4xi32>, output_lbns = ["model.layer4.0.conv3-conv2d-191/out_0"], padding_before = [0 : si32, 0 : si32], scope_symbol_id = 4611686018430652415 : i64, strides = [1 : si32, 1 : si32]} : (tensor<1x512x7x7xf32>, tensor<2048x512x1x1xf32>) -> tensor<1x2048x7x7xf32>
    %y_456, %mean_457, %inv_variance_458 = "oneflow.normalization"(%101, %output_272, %output_273, %output_274, %output_275) {axis = 1 : si32, device_name = ["@0:0"], device_tag = "cpu", epsilon = 9.99999974E-6 : f32, hierarchy = [1], momentum = 0.899999976 : f32, op_name = "model.layer4.0.bn3-normalization-193", operand_segment_sizes = dense<[1, 1, 1, 1, 1, 0]> : vector<6xi32>, output_lbns = ["model.layer4.0.bn3-normalization-193/y_0", "model.layer4.0.bn3-normalization-193/mean_0", "model.layer4.0.bn3-normalization-193/inv_variance_0"], result_segment_sizes = dense<1> : vector<3xi32>, scope_symbol_id = 4611686018430668799 : i64, training = true} : (tensor<1x2048x7x7xf32>, tensor<2048xf32>, tensor<2048xf32>, tensor<2048xf32>, tensor<2048xf32>) -> (tensor<1x2048x7x7xf32>, tensor<2048xf32>, tensor<2048xf32>)
    %102 = "oneflow.add_n2"(%y_456, %y_447) {device_name = ["@0:0"], device_tag = "cpu", hierarchy = [1], op_name = "model.layer4.0-add_n-197", op_type_name = "add_n", output_lbns = ["model.layer4.0-add_n-197/out_0"], scope_symbol_id = 4611686018430775295 : i64} : (tensor<1x2048x7x7xf32>, tensor<1x2048x7x7xf32>) -> tensor<1x2048x7x7xf32>
    %103 = "oneflow.relu"(%102) {device_name = ["@0:0"], device_tag = "cpu", hierarchy = [1], op_name = "model.layer4.0.relu-relu-198", output_lbns = ["model.layer4.0.relu-relu-198/y_0"], scope_symbol_id = 4611686018430570495 : i64} : (tensor<1x2048x7x7xf32>) -> tensor<1x2048x7x7xf32>
    %104 = "oneflow.conv2d"(%103, %output_282) {data_format = "channels_first", device_name = ["@0:0"], device_tag = "cpu", dilation_rate = [1 : si32, 1 : si32], filters = 512 : si32, groups = 1 : si32, hierarchy = [1], kernel_size = [1 : si32, 1 : si32], op_name = "model.layer4.1.conv1-conv2d-199", operand_segment_sizes = dense<[1, 1, 0, 0]> : vector<4xi32>, output_lbns = ["model.layer4.1.conv1-conv2d-199/out_0"], padding_before = [0 : si32, 0 : si32], scope_symbol_id = 4611686018430795775 : i64, strides = [1 : si32, 1 : si32]} : (tensor<1x2048x7x7xf32>, tensor<512x2048x1x1xf32>) -> tensor<1x512x7x7xf32>
    %y_459, %mean_460, %inv_variance_461 = "oneflow.normalization"(%104, %output_284, %output_285, %output_286, %output_287) {axis = 1 : si32, device_name = ["@0:0"], device_tag = "cpu", epsilon = 9.99999974E-6 : f32, hierarchy = [1], momentum = 0.899999976 : f32, op_name = "model.layer4.1.bn1-normalization-201", operand_segment_sizes = dense<[1, 1, 1, 1, 1, 0]> : vector<6xi32>, output_lbns = ["model.layer4.1.bn1-normalization-201/y_0", "model.layer4.1.bn1-normalization-201/mean_0", "model.layer4.1.bn1-normalization-201/inv_variance_0"], result_segment_sizes = dense<1> : vector<3xi32>, scope_symbol_id = 4611686018430812159 : i64, training = true} : (tensor<1x512x7x7xf32>, tensor<512xf32>, tensor<512xf32>, tensor<512xf32>, tensor<512xf32>) -> (tensor<1x512x7x7xf32>, tensor<512xf32>, tensor<512xf32>)
    %105 = "oneflow.relu"(%y_459) {device_name = ["@0:0"], device_tag = "cpu", hierarchy = [1], op_name = "model.layer4.1.relu-relu-202", output_lbns = ["model.layer4.1.relu-relu-202/y_0"], scope_symbol_id = 4611686018430853119 : i64} : (tensor<1x512x7x7xf32>) -> tensor<1x512x7x7xf32>
    %106 = "oneflow.conv2d"(%105, %output_288) {data_format = "channels_first", device_name = ["@0:0"], device_tag = "cpu", dilation_rate = [1 : si32, 1 : si32], filters = 512 : si32, groups = 1 : si32, hierarchy = [1], kernel_size = [3 : si32, 3 : si32], op_name = "model.layer4.1.conv2-conv2d-203", operand_segment_sizes = dense<[1, 1, 0, 0]> : vector<4xi32>, output_lbns = ["model.layer4.1.conv2-conv2d-203/out_0"], padding_before = [1 : si32, 1 : si32], scope_symbol_id = 4611686018430869503 : i64, strides = [1 : si32, 1 : si32]} : (tensor<1x512x7x7xf32>, tensor<512x512x3x3xf32>) -> tensor<1x512x7x7xf32>
    %y_462, %mean_463, %inv_variance_464 = "oneflow.normalization"(%106, %output_290, %output_291, %output_292, %output_293) {axis = 1 : si32, device_name = ["@0:0"], device_tag = "cpu", epsilon = 9.99999974E-6 : f32, hierarchy = [1], momentum = 0.899999976 : f32, op_name = "model.layer4.1.bn2-normalization-205", operand_segment_sizes = dense<[1, 1, 1, 1, 1, 0]> : vector<6xi32>, output_lbns = ["model.layer4.1.bn2-normalization-205/y_0", "model.layer4.1.bn2-normalization-205/mean_0", "model.layer4.1.bn2-normalization-205/inv_variance_0"], result_segment_sizes = dense<1> : vector<3xi32>, scope_symbol_id = 4611686018430885887 : i64, training = true} : (tensor<1x512x7x7xf32>, tensor<512xf32>, tensor<512xf32>, tensor<512xf32>, tensor<512xf32>) -> (tensor<1x512x7x7xf32>, tensor<512xf32>, tensor<512xf32>)
    %107 = "oneflow.relu"(%y_462) {device_name = ["@0:0"], device_tag = "cpu", hierarchy = [1], op_name = "model.layer4.1.relu-relu-206", output_lbns = ["model.layer4.1.relu-relu-206/y_0"], scope_symbol_id = 4611686018430853119 : i64} : (tensor<1x512x7x7xf32>) -> tensor<1x512x7x7xf32>
    %108 = "oneflow.conv2d"(%107, %output_294) {data_format = "channels_first", device_name = ["@0:0"], device_tag = "cpu", dilation_rate = [1 : si32, 1 : si32], filters = 2048 : si32, groups = 1 : si32, hierarchy = [1], kernel_size = [1 : si32, 1 : si32], op_name = "model.layer4.1.conv3-conv2d-207", operand_segment_sizes = dense<[1, 1, 0, 0]> : vector<4xi32>, output_lbns = ["model.layer4.1.conv3-conv2d-207/out_0"], padding_before = [0 : si32, 0 : si32], scope_symbol_id = 4611686018430935039 : i64, strides = [1 : si32, 1 : si32]} : (tensor<1x512x7x7xf32>, tensor<2048x512x1x1xf32>) -> tensor<1x2048x7x7xf32>
    %y_465, %mean_466, %inv_variance_467 = "oneflow.normalization"(%108, %output_296, %output_297, %output_298, %output_299) {axis = 1 : si32, device_name = ["@0:0"], device_tag = "cpu", epsilon = 9.99999974E-6 : f32, hierarchy = [1], momentum = 0.899999976 : f32, op_name = "model.layer4.1.bn3-normalization-209", operand_segment_sizes = dense<[1, 1, 1, 1, 1, 0]> : vector<6xi32>, output_lbns = ["model.layer4.1.bn3-normalization-209/y_0", "model.layer4.1.bn3-normalization-209/mean_0", "model.layer4.1.bn3-normalization-209/inv_variance_0"], result_segment_sizes = dense<1> : vector<3xi32>, scope_symbol_id = 4611686018430951423 : i64, training = true} : (tensor<1x2048x7x7xf32>, tensor<2048xf32>, tensor<2048xf32>, tensor<2048xf32>, tensor<2048xf32>) -> (tensor<1x2048x7x7xf32>, tensor<2048xf32>, tensor<2048xf32>)
    %109 = "oneflow.add_n2"(%y_465, %103) {device_name = ["@0:0"], device_tag = "cpu", hierarchy = [1], op_name = "model.layer4.1-add_n-210", op_type_name = "add_n", output_lbns = ["model.layer4.1-add_n-210/out_0"], scope_symbol_id = 4611686018430988287 : i64} : (tensor<1x2048x7x7xf32>, tensor<1x2048x7x7xf32>) -> tensor<1x2048x7x7xf32>
    %110 = "oneflow.relu"(%109) {device_name = ["@0:0"], device_tag = "cpu", hierarchy = [1], op_name = "model.layer4.1.relu-relu-211", output_lbns = ["model.layer4.1.relu-relu-211/y_0"], scope_symbol_id = 4611686018430853119 : i64} : (tensor<1x2048x7x7xf32>) -> tensor<1x2048x7x7xf32>
    %111 = "oneflow.conv2d"(%110, %output_300) {data_format = "channels_first", device_name = ["@0:0"], device_tag = "cpu", dilation_rate = [1 : si32, 1 : si32], filters = 512 : si32, groups = 1 : si32, hierarchy = [1], kernel_size = [1 : si32, 1 : si32], op_name = "model.layer4.2.conv1-conv2d-212", operand_segment_sizes = dense<[1, 1, 0, 0]> : vector<4xi32>, output_lbns = ["model.layer4.2.conv1-conv2d-212/out_0"], padding_before = [0 : si32, 0 : si32], scope_symbol_id = 4611686018431008767 : i64, strides = [1 : si32, 1 : si32]} : (tensor<1x2048x7x7xf32>, tensor<512x2048x1x1xf32>) -> tensor<1x512x7x7xf32>
    %y_468, %mean_469, %inv_variance_470 = "oneflow.normalization"(%111, %output_302, %output_303, %output_304, %output_305) {axis = 1 : si32, device_name = ["@0:0"], device_tag = "cpu", epsilon = 9.99999974E-6 : f32, hierarchy = [1], momentum = 0.899999976 : f32, op_name = "model.layer4.2.bn1-normalization-214", operand_segment_sizes = dense<[1, 1, 1, 1, 1, 0]> : vector<6xi32>, output_lbns = ["model.layer4.2.bn1-normalization-214/y_0", "model.layer4.2.bn1-normalization-214/mean_0", "model.layer4.2.bn1-normalization-214/inv_variance_0"], result_segment_sizes = dense<1> : vector<3xi32>, scope_symbol_id = 4611686018431025151 : i64, training = true} : (tensor<1x512x7x7xf32>, tensor<512xf32>, tensor<512xf32>, tensor<512xf32>, tensor<512xf32>) -> (tensor<1x512x7x7xf32>, tensor<512xf32>, tensor<512xf32>)
    %112 = "oneflow.relu"(%y_468) {device_name = ["@0:0"], device_tag = "cpu", hierarchy = [1], op_name = "model.layer4.2.relu-relu-215", output_lbns = ["model.layer4.2.relu-relu-215/y_0"], scope_symbol_id = 4611686018431066111 : i64} : (tensor<1x512x7x7xf32>) -> tensor<1x512x7x7xf32>
    %113 = "oneflow.conv2d"(%112, %output_306) {data_format = "channels_first", device_name = ["@0:0"], device_tag = "cpu", dilation_rate = [1 : si32, 1 : si32], filters = 512 : si32, groups = 1 : si32, hierarchy = [1], kernel_size = [3 : si32, 3 : si32], op_name = "model.layer4.2.conv2-conv2d-216", operand_segment_sizes = dense<[1, 1, 0, 0]> : vector<4xi32>, output_lbns = ["model.layer4.2.conv2-conv2d-216/out_0"], padding_before = [1 : si32, 1 : si32], scope_symbol_id = 4611686018431082495 : i64, strides = [1 : si32, 1 : si32]} : (tensor<1x512x7x7xf32>, tensor<512x512x3x3xf32>) -> tensor<1x512x7x7xf32>
    %y_471, %mean_472, %inv_variance_473 = "oneflow.normalization"(%113, %output_308, %output_309, %output_310, %output_311) {axis = 1 : si32, device_name = ["@0:0"], device_tag = "cpu", epsilon = 9.99999974E-6 : f32, hierarchy = [1], momentum = 0.899999976 : f32, op_name = "model.layer4.2.bn2-normalization-218", operand_segment_sizes = dense<[1, 1, 1, 1, 1, 0]> : vector<6xi32>, output_lbns = ["model.layer4.2.bn2-normalization-218/y_0", "model.layer4.2.bn2-normalization-218/mean_0", "model.layer4.2.bn2-normalization-218/inv_variance_0"], result_segment_sizes = dense<1> : vector<3xi32>, scope_symbol_id = 4611686018431098879 : i64, training = true} : (tensor<1x512x7x7xf32>, tensor<512xf32>, tensor<512xf32>, tensor<512xf32>, tensor<512xf32>) -> (tensor<1x512x7x7xf32>, tensor<512xf32>, tensor<512xf32>)
    %114 = "oneflow.relu"(%y_471) {device_name = ["@0:0"], device_tag = "cpu", hierarchy = [1], op_name = "model.layer4.2.relu-relu-219", output_lbns = ["model.layer4.2.relu-relu-219/y_0"], scope_symbol_id = 4611686018431066111 : i64} : (tensor<1x512x7x7xf32>) -> tensor<1x512x7x7xf32>
    %115 = "oneflow.conv2d"(%114, %output_312) {data_format = "channels_first", device_name = ["@0:0"], device_tag = "cpu", dilation_rate = [1 : si32, 1 : si32], filters = 2048 : si32, groups = 1 : si32, hierarchy = [1], kernel_size = [1 : si32, 1 : si32], op_name = "model.layer4.2.conv3-conv2d-220", operand_segment_sizes = dense<[1, 1, 0, 0]> : vector<4xi32>, output_lbns = ["model.layer4.2.conv3-conv2d-220/out_0"], padding_before = [0 : si32, 0 : si32], scope_symbol_id = 4611686018431148031 : i64, strides = [1 : si32, 1 : si32]} : (tensor<1x512x7x7xf32>, tensor<2048x512x1x1xf32>) -> tensor<1x2048x7x7xf32>
    %y_474, %mean_475, %inv_variance_476 = "oneflow.normalization"(%115, %output_314, %output_315, %output_316, %output_317) {axis = 1 : si32, device_name = ["@0:0"], device_tag = "cpu", epsilon = 9.99999974E-6 : f32, hierarchy = [1], momentum = 0.899999976 : f32, op_name = "model.layer4.2.bn3-normalization-222", operand_segment_sizes = dense<[1, 1, 1, 1, 1, 0]> : vector<6xi32>, output_lbns = ["model.layer4.2.bn3-normalization-222/y_0", "model.layer4.2.bn3-normalization-222/mean_0", "model.layer4.2.bn3-normalization-222/inv_variance_0"], result_segment_sizes = dense<1> : vector<3xi32>, scope_symbol_id = 4611686018431164415 : i64, training = true} : (tensor<1x2048x7x7xf32>, tensor<2048xf32>, tensor<2048xf32>, tensor<2048xf32>, tensor<2048xf32>) -> (tensor<1x2048x7x7xf32>, tensor<2048xf32>, tensor<2048xf32>)
    %116 = "oneflow.add_n2"(%y_474, %110) {device_name = ["@0:0"], device_tag = "cpu", hierarchy = [1], op_name = "model.layer4.2-add_n-223", op_type_name = "add_n", output_lbns = ["model.layer4.2-add_n-223/out_0"], scope_symbol_id = 4611686018431201279 : i64} : (tensor<1x2048x7x7xf32>, tensor<1x2048x7x7xf32>) -> tensor<1x2048x7x7xf32>
    %117 = "oneflow.relu"(%116) {device_name = ["@0:0"], device_tag = "cpu", hierarchy = [1], op_name = "model.layer4.2.relu-relu-224", output_lbns = ["model.layer4.2.relu-relu-224/y_0"], scope_symbol_id = 4611686018431066111 : i64} : (tensor<1x2048x7x7xf32>) -> tensor<1x2048x7x7xf32>
    %118 = "oneflow.avg_pool_2d"(%117) {ceil_mode = false, count_include_pad = true, data_format = "channels_first", device_name = ["@0:0"], device_tag = "cpu", divisor_override = 0 : si32, hierarchy = [1], kernel_size = [7 : si32, 7 : si32], op_name = "model.avgpool-avg_pool_2d-225", output_lbns = ["model.avgpool-avg_pool_2d-225/y_0"], padding = [0 : si32, 0 : si32], scope_symbol_id = 4611686018431209471 : i64, stride = [7 : si32, 7 : si32]} : (tensor<1x2048x7x7xf32>) -> tensor<1x2048x1x1xf32>
    %119 = "oneflow.flatten"(%118) {device_name = ["@0:0"], device_tag = "cpu", end_dim = -1 : si32, hierarchy = [1], op_name = "model-flatten-226", output_lbns = ["model-flatten-226/out_0"], scope_symbol_id = 4611686018431213567 : i64, start_dim = 1 : si32} : (tensor<1x2048x1x1xf32>) -> tensor<1x2048xf32>
    %120 = "oneflow.matmul"(%119, %output_318) {alpha = 1.000000e+00 : f64, device_name = ["@0:0"], device_tag = "cpu", hierarchy = [1], op_name = "model.fc-matmul-227", output_lbns = ["model.fc-matmul-227/out_0"], scope_symbol_id = 4611686018431229951 : i64, transpose_a = false, transpose_b = true} : (tensor<1x2048xf32>, tensor<1000x2048xf32>) -> tensor<1x1000xf32>
    %121 = "oneflow.broadcast_add"(%120, %output_319) {device_name = ["@0:0"], device_tag = "cpu", hierarchy = [1], op_name = "model.fc-broadcast_add-228", output_lbns = ["model.fc-broadcast_add-228/z_0"], scope_symbol_id = 4611686018431229951 : i64} : (tensor<1x1000xf32>, tensor<1000xf32>) -> tensor<1x1000xf32>
    %output_477 = "oneflow.output"(%121) {data_type = 2 : i32, device_name = ["@0:0"], device_tag = "cpu", hierarchy = [1], is_dynamic = false, nd_sbp = ["B"], op_name = "_Graph_0_output.0.0_2", output_lbns = ["_Graph_0_output.0.0_2/out"], scope_symbol_id = 4611686018427412479 : i64, shape = [1 : si64, 1000 : si64]} : (tensor<1x1000xf32>) -> tensor<1x1000xf32>
    oneflow.return %output_477 : tensor<1x1000xf32>
  }
}
